checkpoints/model_epoch_4.pth (torch, 34447 bytes, 10 tensors)

conv_block_1.0.weight f4 [10, 1, 3, 3]
0	0xbcb33980	-0.021878004
1	0xbe0a9a8b	-0.13535516
2	0x3c397a37	0.011320642
3	0xbe86f8ab	-0.26361594
4	0xbe2a0ea9	-0.16607155
5	0x3c4998de	0.012304513
6	0x3e27116e	0.16315243
7	0x3deb38f4	0.11485472
8	0xbd72b0d4	-0.059250668
9	0xbe8eaba5	-0.2786533
10	0xbdae3533	-0.08506241
11	0xbe1a15b5	-0.15047343
12	0xbef0b9a9	-0.47016647
13	0x3e59ca7b	0.21268646
14	0x3ea42f6e	0.32067436
15	0xbedcd662	-0.4313231
16	0x3d17ec77	0.037090745
17	0x3eea4bd6	0.45760983
18	0x3ecd3595	0.40079942
19	0x3ec43df9	0.3832853
20	0x3ed7e19a	0.42164308
21	0xbf1690a2	-0.5881444
22	0x3e94147b	0.28921875
23	0xbd80057d	-0.06251047
24	0xbf4f8b2e	-0.81071746
25	0xbed7981c	-0.42108238
26	0x3ec66108	0.38745904
27	0x3e7ead12	0.24870709
28	0x3e8ccc86	0.2749979
29	0x3e81c701	0.2534714
30	0x3e440059	0.19140758
31	0xbebf41b2	-0.3735481
32	0xbe1ad24a	-0.15119281
33	0x3d4cf3a7	0.050037052
34	0xbdc35bd5	-0.09539
35	0xbf23aa2f	-0.63931555
36	0xbdc93ca2	-0.09826018
37	0xbecf217f	-0.40455243
38	0x3cc984aa	0.024599392
39	0xbd5be70a	-0.053687133
40	0x3f140cf4	0.57832265
41	0x3e1049e2	0.14090684
42	0x3e3e0171	0.18555237
43	0x3f2cce39	0.6750217
44	0xbbf7170f	-0.0075405906
45	0xbe91bcb8	-0.28464293
46	0x3e6badb4	0.23015481
47	0xbe69f5cd	-0.22847672
48	0xbeb0a759	-0.34502676
49	0x3da590db	0.080842696
50	0x3d38c6a9	0.045111332
51	0x3e98d710	0.2985158
52	0xbdf75bfb	-0.12078091
53	0x3ea728ae	0.32648224
54	0x3dc1e2df	0.094671
55	0x3e71060b	0.23537461
56	0xbe0045ca	-0.12526622
57	0xbec17222	-0.3778239
58	0x3e933cb4	0.2875725
59	0xbeb6afd2	-0.35681015
60	0xbe8d998d	-0.27656212
61	0x3ec51b01	0.38497165
62	0xbd3cfab8	-0.04613754
63	0x3d9d901b	0.076935016
64	0xbe511348	-0.20417511
65	0xbe8ed11f	-0.27893922
66	0xbe63785f	-0.22213887
67	0xbe2653a0	-0.16242838
68	0xbdbd57a8	-0.09245235
69	0x3e22eb6e	0.15910122
70	0x3d6fde04	0.05856134
71	0xbe758606	-0.23976907
72	0x3e412aa9	0.1886393
73	0xbeaffd70	-0.34373045
74	0x3e206227	0.15662442
75	0x3ecc623a	0.3991869
76	0x3e7d708f	0.24749969
77	0x3d1d29dd	0.038370002
78	0x3e36dea0	0.17858362
79	0xbe8e31f0	-0.27772474
80	0xbd4e495b	-0.050362926
81	0x3e622ee0	0.22088194
82	0x3e30bfe4	0.172607
83	0xbe852abc	-0.26009166
84	0xbda8548e	-0.082192525
85	0xbe5751b2	-0.21027258
86	0xbe5ad450	-0.21370053
87	0xbebac2f7	-0.3647687
88	0xbf01f5a4	-0.5076544
89	0xbee7b088	-0.4525187

conv_block_1.0.bias f4 [10]
0	0x3cfe2e42	0.031027917
1	0xbdc1a5b1	-0.09455431
2	0xbe0128f4	-0.12613279
3	0x3dc7dd7c	0.09759042
4	0xbd234f70	-0.03987068
5	0xbe977b68	-0.2958634
6	0xbe241542	-0.16023734
7	0xbe18c7ad	-0.1491992
8	0xbde065bb	-0.109569035
9	0x3e9c3cd9	0.30515173

conv_block_1.2.weight f4 [10, 10, 3, 3]
0	0x3d7772ff	0.060412403
1	0xbd7f3867	-0.06230965
2	0x3db3f5fe	0.08787154
3	0x3dc3a657	0.09553211
4	0x3d1dfaf7	0.038569417
5	0x3d1eab95	0.038737852
6	0x3cec8007	0.028869642
7	0xbb096618	-0.0020965394
8	0x3d849638	0.064739645
9	0xbccb8b9f	-0.02484685
10	0xbd88111c	-0.06643888
11	0x3e3204ea	0.17384687
12	0x3db31428	0.08744079
13	0xbe18c880	-0.14920235
14	0xbe0ffdce	-0.14061663
15	0xbe36cd6d	-0.17851801
16	0xbe3a5d8a	-0.18199745
17	0xbccd7cec	-0.025083981
18	0xbd685839	-0.05672476
19	0xbddd8e34	-0.10818139
20	0x3e47a17e	0.19495198
21	0xbd10f3cc	-0.035388753
22	0xbdcccd87	-0.10000139
23	0x3e47edd1	0.19524314
24	0x3dd542c5	0.10413126
25	0x3dc91616	0.09818666
26	0xbd3adacb	-0.045618813
27	0xbd1b603a	-0.037933566
28	0x3d349493	0.044087004
29	0x3d155267	0.036455538
30	0xbdf03874	-0.117295176
31	0xbd1b2c82	-0.037884243
32	0x3e48d127	0.19611035
33	0xbd579350	-0.052630723
34	0x3d98151d	0.07425902
35	0xbd72fdc8	-0.059324056
36	0xbc4a44f0	-0.012345538
37	0x3e299cee	0.1656377
38	0x3e11cc73	0.14238147
39	0xbe5a4cf4	-0.21318418
40	0xbdcc4485	-0.099740066
41	0xbe0be1f1	-0.13660409
42	0xbe23eef4	-0.16009122
43	0xbe1b71e8	-0.1518017
44	0xbe050422	-0.12989858
45	0x3c080637	0.008302263
46	0xbb826a9c	-0.003979994
47	0x3d900fbc	0.07034251
48	0xbb5b325e	-0.003344677
49	0x3d0d03cf	0.03442746
50	0x3da05d7b	0.0783033
51	0xbd5c4a8a	-0.053782023
52	0xbdc03495	-0.09385029
53	0xbdc7a31e	-0.09747909
54	0xbd170db7	-0.036878314
55	0xbb574396	-0.003284668
56	0x3d424521	0.047429208
57	0xbba52a77	-0.0050404626
58	0x3a0eb89e	0.000544438
59	0x3d3268e4	0.043557063
60	0x3ce94513	0.02847532
61	0x3caf3abd	0.021390313
62	0xbe0dcb3e	-0.13847062
63	0xbdc1d5bc	-0.09464595
64	0xbca23871	-0.019802304
65	0x3d58d46c	0.052936956
66	0xbcd2495e	-0.02566975
67	0x3ca7f636	0.020503145
68	0xbdcd563a	-0.10026212
69	0x3d36e9ec	0.04465668
70	0xbd89b7f7	-0.06724542
71	0x3c275ddc	0.010215249
72	0xbdbb6367	-0.09149819
73	0x3e0f58f4	0.13998777
74	0x3e77db26	0.24204692
75	0xbd2aaa68	-0.04166642
76	0x3dc76cba	0.09737535
77	0x3d54b854	0.0519336
78	0xbe2e2efb	-0.17010109
79	0xbd878c98	-0.06618613
80	0xbdee35d0	-0.11631358
81	0x3cc1f020	0.02367407
82	0xbd340987	-0.0439544
83	0xbd839412	-0.064247265
84	0x3d198e22	0.037489064
85	0x3bcc3625	0.0062320405
86	0xbdf5942c	-0.11991152
87	0x3d03ebd8	0.03220734
88	0x3c83de3d	0.016097182
89	0x3c56ac57	0.013102612
90	0xbbaf62f5	-0.005352373
91	0xbdf500c8	-0.1196304
92	0x3d7f96dc	0.06239973
93	0xbd1fb73f	-0.038993116
94	0x3d40b757	0.047049847
95	0x3dae8dd4	0.08523145
96	0xbc48bce3	-0.012252065
97	0x3db95978	0.09050268
98	0x3dc7d20b	0.097568594
99	0xbd158ed2	-0.036513157
100	0xbe21fcbc	-0.15819067
101	0x3d4bcb60	0.0497545
102	0x3d6fbcaa	0.058529533
103	0xbe1fa6f1	-0.15591027
104	0xbdb65354	-0.08902612
105	0xbdd5d45d	-0.10440896
106	0xbb922f90	-0.0044612363
107	0x3c9ca62d	0.019122208
108	0x3e4df58f	0.20113204
109	0xbe11e106	-0.14245996
110	0xbef0bdc7	-0.4701979
111	0x3daaf609	0.08347709
112	0xbd51c0e1	-0.051209334
113	0xbe6260b1	-0.22107197
114	0xbd4b1c99	-0.04958782
115	0xbd80e85c	-0.06294319
116	0xbd080131	-0.03320426
117	0x3d8fe074	0.07025233
118	0x3d5e9776	0.054343663
119	0x3d020569	0.03174344
120	0xbe4a5ec8	-0.19762719
121	0x3c8cc2bb	0.017182698
122	0xbdfe4725	-0.124159135
123	0xbde23005	-0.11044315
124	0xbe09de81	-0.13463785
125	0x3e12c92b	0.14334552
126	0xbd9b4b07	-0.0758267
127	0xbe57c887	-0.21072589
128	0xbd58647f	-0.052830216
129	0x3e181afb	0.14854042
130	0x3e2fba30	0.17160869
131	0x3e834616	0.2563941
132	0xbbac0f92	-0.0052508796
133	0x3d69a15e	0.057038657
134	0x3e988384	0.29787838
135	0x3daca454	0.084297806
136	0x3d8e1d64	0.069391996
137	0x3d9b5b5c	0.07585785
138	0x3ddbe47c	0.10736939
139	0x3b9738e1	0.004614935
140	0xbd90d204	-0.07071307
141	0xbdbe3448	-0.092873156
142	0xbd213d8b	-0.039365333
143	0x3c727148	0.014797516
144	0x3dd89c90	0.10576737
145	0xbd673582	-0.056447513
146	0xbe1fe810	-0.15615869
147	0xbc8c393d	-0.017117137
148	0x3c839fc8	0.0160674
149	0xbd479794	-0.04872854
150	0xbce5c35c	-0.028047256
151	0x3dc4f3cd	0.09616814
152	0x3d8ad837	0.06779521
153	0xbd3b8b0a	-0.045786895
154	0xbc52e077	-0.012870899
155	0xbab6ef64	-0.0013956842
156	0xbd074ded	-0.0330333
157	0xbcf683eb	-0.0300922
158	0xbdab19ed	-0.08354554
159	0x3b3a42ca	0.0028421157
160	0x3dc463b1	0.09589327
161	0xbc3aef4d	-0.011409593
162	0xbd9122e3	-0.07086732
163	0xbe184bf1	-0.1487272
164	0xbe62b9a3	-0.22141127
165	0x3ccaf2d5	0.024773994
166	0x3d24c4d2	0.040226765
167	0x3e19a1da	0.15003148
168	0x3db3ca83	0.087788604
169	0x3da35715	0.07975594
170	0x3c21f82b	0.009885828
171	0xbe5e8a30	-0.21732402
172	0xbe13fd0e	-0.14452001
173	0xbe0e5c47	-0.13902389
174	0xbe3a1e1b	-0.18175547
175	0xbcf44e49	-0.029822486
176	0x3d1a2e05	0.037641544
177	0xbda9c040	-0.08288622
178	0xbe37bdfc	-0.17943567
179	0xbdb150cd	-0.0865799
180	0xbd4bfd12	-0.049801894
181	0x3d77348a	0.06035284
182	0x3db40fdb	0.08792087
183	0xbcadbf2e	-0.021209326
184	0xbd1eea0c	-0.038797423
185	0x3cd77715	0.0263019
186	0xbce588ea	-0.028019387
187	0x3da853c5	0.08219103
188	0xbc245272	-0.010029422
189	0x3cb00cbd	0.02149045
190	0xbdd0fb84	-0.10204223
191	0x3d5c3215	0.0537587
192	0xbdc7cb3e	-0.09755562
193	0x3e1166d3	0.1419938
194	0x3c08906a	0.008335212
195	0xbd853f15	-0.065061726
196	0xbe0e4d33	-0.13896637
197	0x3e2df2d5	0.16987164
198	0xbd6a90d9	-0.057267044
199	0xbd8387b2	-0.06422366
200	0x3e0ff96c	0.1405999
201	0x3de7be09	0.11315543
202	0x3da39766	0.07987861
203	0x3a2450e0	0.0006268155
204	0x3d204272	0.039125867
205	0x3e28b3c9	0.16474833
206	0x3e80afb0	0.2513404
207	0xbe62effa	-0.22161856
208	0xbe2e1ba2	-0.17002729
209	0xbe2c73cc	-0.16841048
210	0x3e3634d5	0.17793591
211	0xbd4927a9	-0.04911009
212	0x3cd8ffff	0.026489256
213	0x3e278aca	0.16361538
214	0x3d8d2fba	0.06893869
215	0xbdba65d0	-0.091014504
216	0x3e2feaaf	0.17179368
217	0x3e80fac8	0.2519133
218	0x3e3b7821	0.18307544
219	0xbe4d671f	-0.20058869
220	0xbd3ed81e	-0.046592824
221	0x3e31ad95	0.17351373
222	0xbf05a261	-0.52200896
223	0xbeee9878	-0.466007
224	0xbe64a186	-0.22327241
225	0xbdbffe9c	-0.09374735
226	0xbd94d0b1	-0.07266367
227	0xbdecc8f3	-0.115617655
228	0x3d9bf6bb	0.076154195
229	0xbd4b2d51	-0.049603764
230	0x3b9b6a53	0.0047428994
231	0xba9db7c2	-0.0012032914
232	0xbd8760c0	-0.066102505
233	0x3de45b64	0.11150244
234	0x3dca4322	0.09876086
235	0xbd8400f1	-0.06445492
236	0x3c8fc610	0.017550498
237	0xbd489dda	-0.048978664
238	0x3d415cd2	0.04720766
239	0x3dfa7a2f	0.12230336
240	0xbd0f4dd6	-0.03498634
241	0xbd940c24	-0.07228878
242	0x3d9bc904	0.076067
243	0x3d6c0f20	0.05763161
244	0xbd36fb41	-0.04467321
245	0x3dbc9f47	0.09210067
246	0xbcf1c642	-0.029513482
247	0xbcf84798	-0.030307576
248	0xbac8b52f	-0.0015312786
249	0x3dc8bcab	0.098016106
250	0x3dbbacb2	0.091637984
251	0x3d92629b	0.07147714
252	0x3c59c070	0.01329051
253	0x3d752f37	0.05985948
254	0x3ce10193	0.027466571
255	0x3d8dcec4	0.06924203

conv_block_1.2.bias f4 [10]
0	0xbd1aee29	-0.037824783
1	0x3e9a5e6b	0.3015016
2	0x3e34a276	0.17640099
3	0xbd7bae36	-0.061445437
4	0xbe10b77d	-0.14132495
5	0x3da9c921	0.082903154
6	0x3e16d18a	0.1472837
7	0xbd9bb905	-0.07603649
8	0xbd71086c	-0.058845922
9	0x3ce8b1cc	0.028405093

conv_block_2.0.weight f4 [10, 10, 3, 3]
0	0xbd2fea2c	-0.042947933
1	0x3cc5c342	0.024140958
2	0x3e8945fb	0.26811203
3	0xbdf64964	-0.12025717
4	0x3b4e4668	0.003147507
5	0xbdb4df70	-0.0883168
6	0xbdd59e51	-0.10430587
7	0xbd65630d	-0.056002665
8	0xbd13ed4f	-0.036114987
9	0xbad7f284	-0.0016475474
10	0xbe5edff0	-0.21765113
11	0xbed8fa9b	-0.42378697
12	0x3e06b73e	0.13155839
13	0xbe0ddc92	-0.13853672
14	0x3d9a6e85	0.07540611
15	0xbd1ac9ef	-0.037790235
16	0xbd71c79d	-0.059028257
17	0x3ece6b02	0.40316015
18	0xbe6e48bf	-0.23269938
19	0xbe47efe6	-0.19525108
20	0x3e3f2c90	0.18669343
21	0xbe3a75c3	-0.18208985
22	0xbe90f477	-0.28311512
23	0xbe22cc64	-0.15898281
24	0xbe133402	-0.14375308
25	0x3e9dc5b8	0.3081491
26	0x3e030fcc	0.12798995
27	0x3d568309	0.05237106
28	0xbe83919c	-0.2569703
29	0xbd4de563	-0.05026759
30	0x3d49f97e	0.0493102
31	0xbe3c122c	-0.18366307
32	0xbe7f28b8	-0.24917877
33	0x3e136508	0.14394009
34	0xbe45888f	-0.19290374
35	0xbd82e0ab	-0.06390508
36	0x3e1b2002	0.15148929
37	0x3d2c50fc	0.04206942
38	0xbe0e6c4d	-0.13908501
39	0x3d07df09	0.033171687
40	0xbcb7ddad	-0.02244457
41	0x3e9346fb	0.2876509
42	0x3e80a1a8	0.25123334
43	0x3c025e70	0.007957086
44	0xbd00c0fc	-0.031434044
45	0xbc83e56e	-0.016100612
46	0xbe1e5457	-0.1546186
47	0x3cc6b3cd	0.024255658
48	0x3d9f62d0	0.07782519
49	0xbe5c6bf9	-0.21525563
50	0xbe8c555d	-0.27408877
51	0x3e431d72	0.19054201
52	0xbdc0bc86	-0.09410958
53	0x3e346acf	0.17618869
54	0xbe36db4f	-0.17857097
55	0xbee5bc42	-0.44870192
56	0xbedd2e51	-0.431994
57	0xbd6ad06e	-0.05732768
58	0xbe71b803	-0.23605351
59	0x3dacff0d	0.084470846
60	0xbda29f4e	-0.07940541
61	0x3e04f02d	0.12982245
62	0x3f025b47	0.5092053
63	0xbd463d95	-0.048398573
64	0xbea2551d	-0.3170556
65	0xbe991977	-0.2990224
66	0xbdceea13	-0.1010324
67	0xbe477854	-0.19479495
68	0x3e533328	0.20624983
69	0x3ad72494	0.0016414099
70	0x3e23b8ec	0.15988511
71	0x3eb7bb85	0.35885254
72	0xbd0a1c9a	-0.033718683
73	0xbdb82b63	-0.0899265
74	0x3d302b1a	0.043009855
75	0x3ccc2c1a	0.024923373
76	0xbd1f7953	-0.038934063
77	0xbc99b6d1	-0.018763931
78	0x3d1a0aff	0.037608143
79	0x3d9720f4	0.07379332
80	0x3df2bf14	0.118528515
81	0x3e1dba2e	0.15403053
82	0x3e85494b	0.2603248
83	0x3e2b95ec	0.1675641
84	0xbda75c8f	-0.08171951
85	0xbdb6c96c	-0.08925137
86	0xbdbbb10c	-0.091646284
87	0xbe6617c1	-0.22469999
88	0x3cfb8966	0.030705165
89	0xbdaccf96	-0.084380314
90	0xbd6cdd64	-0.057828322
91	0x3d5c1468	0.0537304
92	0x3c7b68b9	0.015344792
93	0x3d6308d8	0.055428356
94	0x3d2c3415	0.042041857
95	0x3d045146	0.03230407
96	0xbb4795c7	-0.0030454264
97	0xbd2c80ec	-0.042115137
98	0x3cc4e345	0.024034152
99	0x3e59384d	0.21212883
100	0x3d17afb6	0.037032805
101	0xbe7062c1	-0.23475172
102	0xbe8fdbfe	-0.28097528
103	0xbe88635f	-0.26638314
104	0xbe9682bd	-0.2939662
105	0x3e883f0a	0.26610595
106	0x3dc30035	0.09521524
107	0x3e858178	0.2607534
108	0x3eb8e56e	0.3611254
109	0x3dc69caa	0.0969785
110	0xbdc7013e	-0.09717034
111	0xbd496e79	-0.04917762
112	0xbe6405de	-0.22267863
113	0xbea329b2	-0.31867748
114	0xbdc02356	-0.0938174
115	0xbe52b4ec	-0.20576829
116	0xbd4ca3ff	-0.049961086
117	0x3eb2b45d	0.3490323
118	0x3d9d6879	0.07685942
119	0xbd696c6d	-0.05698817
120	0x3d2cd924	0.04219927
121	0xbcbcbfe0	-0.023040712
122	0xbdcaf01a	-0.09909077
123	0xbd9049f6	-0.07045357
124	0xbe6ea892	-0.23306492
125	0xbe1e83e4	-0.1548
126	0xbe89899c	-0.268628
127	0x3e5f3c0d	0.21800251
128	0xbd09f42d	-0.03368013
129	0xbc72403d	-0.014785823
130	0xbc9b1789	-0.01893212
131	0x3c4733f8	0.012158386
132	0x3e0540cd	0.13013001
133	0xbc2c7a73	-0.010527241
134	0x3d52898e	0.051400714
135	0x3ed8d362	0.42348772
136	0x3e1366b2	0.14394644
137	0xbded905f	-0.11599802
138	0xbe39ddf3	-0.18151073
139	0xbd95f799	-0.07322616
140	0xbec3840f	-0.3818669
141	0x3db7f457	0.08982151
142	0xbdd0e4b4	-0.10199872
143	0xbda37e8f	-0.079831235
144	0x3ee51ab5	0.44746938
145	0xbb59bf5f	-0.0033225638
146	0xbea6fc01	-0.3261414
147	0x3df0d57f	0.11759471
148	0xbed64814	-0.41851866
149	0xbe69f804	-0.22848517
150	0x3e5fc480	0.21852303
151	0xbd7ad10d	-0.061234523
152	0x3e912ff7	0.28356907
153	0xbeb68214	-0.35646117
154	0xbeb53e09	-0.35398892
155	0xbe981b5a	-0.29708368
156	0xbe6df0bc	-0.23236364
157	0xbe17581e	-0.14779708
158	0xbe0410f7	-0.12897097
159	0xbe115ffe	-0.14196774
160	0x3cb709d4	0.022343554
161	0x3e82d7c3	0.25555238
162	0x3e1a1c1d	0.15049787
163	0x3caa6397	0.020799441
164	0x3d8756d2	0.066083565
165	0xbe001caa	-0.12510934
166	0xbe0dab6c	-0.13834924
167	0x3d8b2e46	0.06795935
168	0xbd691cb5	-0.056912143
169	0x3daf4421	0.085579164
170	0x3d5506ea	0.052008547
171	0x3d266986	0.04062798
172	0x3e37ecc4	0.17961413
173	0x3e5be98d	0.21475811
174	0x3e04cff5	0.12969954
175	0x3e2f6208	0.1712724
176	0x3c3a252a	0.0113614
177	0xbdc67915	-0.09691063
178	0xbc4a4f7c	-0.012348052
179	0x3c1e3635	0.009656479
180	0x3dae14cd	0.08500061
181	0x3b116e83	0.0022191114
182	0xbd30c618	-0.043157667
183	0xbdf714ec	-0.120645374
184	0x3d8819c7	0.06645542
185	0x3e9733ad	0.29531613
186	0x3d0dcf58	0.034621567
187	0xbca5cc3f	-0.020238994
188	0x3d45968a	0.04823927
189	0x3d7a0621	0.061041
190	0x3e1ecae2	0.15507081
191	0x3f186f99	0.59545285
192	0xbe8497b6	-0.25896996
193	0xbe78fc25	-0.24314936
194	0x3de0938e	0.10965644
195	0x3c2797a7	0.010229028
196	0xbe9b3f08	-0.30321527
197	0xbd607afe	-0.054804794
198	0x3c81477a	0.015781153
199	0xbcfbaeca	-0.030722994
200	0x3e69fa0c	0.22849292
201	0x3d48e3f7	0.04904553
202	0x3ede8236	0.43458718
203	0x3ebc4dc0	0.3677807
204	0xbe9f3d20	-0.31101322
205	0xbe914ac8	-0.28377366
206	0x3b935972	0.0044967467
207	0xbe10c6ec	-0.14138383
208	0xbe602dbb	-0.21892445
209	0x3dfd1638	0.123577535
210	0xbce7cc51	-0.028295668
211	0xbddd12fa	-0.10794635
212	0xbcd80e4e	-0.026374009
213	0xbd7efda9	-0.062253628
214	0xbe8a3098	-0.269902
215	0xbe11b4e4	-0.1422916
216	0x3defb566	0.11704521
217	0x3e04630d	0.1292841
218	0xbd362acc	-0.044474408
219	0x3d265bae	0.040614776
220	0xbc5b0c88	-0.013369687
221	0xbe070457	-0.1318525
222	0x3e5614b9	0.20906343
223	0xbc0ec8c0	-0.008714855
224	0xbe85d227	-0.26136896
225	0xbd4470ef	-0.047959264
226	0xbd5173ea	-0.051135935
227	0x3ed9899d	0.42487803
228	0xbe3852ec	-0.18000382
229	0x3dbffed0	0.093747735
230	0x3e79e1a4	0.24402481
231	0xbe108c4d	-0.1411602
232	0xbe3b9d2c	-0.18321675
233	0xbe4e8258	-0.2016691
234	0x3db75124	0.08951023
235	0x3e3c9d34	0.18419343
236	0x3f299396	0.66240823
237	0xbe57be77	-0.2106875
238	0xbdf59e4a	-0.11993082
239	0x3d8036f6	0.06260483
240	0xbe6dbef5	-0.23217376
241	0xbf1f54cf	-0.6223878
242	0x3e84bc7e	0.25925058
243	0xbe03af57	-0.12859856
244	0x3becc258	0.007225316
245	0x3d07cd1c	0.033154592
246	0xbe690c46	-0.22758588
247	0xbeb42172	-0.35181767
248	0xbf0522b6	-0.5200609
249	0x3e321d4d	0.1739399
250	0x3e9fc4f7	0.3120496
251	0x3eb62b53	0.3557993
252	0xbc99e7e3	-0.01878733
253	0xbd08e8ec	-0.033425257
254	0xbd1f21fc	-0.03885077
255	0x3c0b4131	0.00849943

conv_block_2.0.bias f4 [10]
0	0x3e6f0161	0.2334037
1	0x3e539a56	0.20664343
2	0xbd8cec33	-0.06880989
3	0x3e2258c4	0.15854174
4	0x3c4f5a26	0.01265577
5	0xbc9f8e66	-0.01947708
6	0x3cdda31c	0.027055316
7	0xbd06e864	-0.03293647
8	0x3d3abadd	0.045588363
9	0x3e3a334e	0.18183634

conv_block_2.2.weight f4 [10, 10, 3, 3]
0	0xbe3ca4b2	-0.18422201
1	0xbda644f3	-0.0811862
2	0x3ebb57ea	0.3659051
3	0x3e12baaf	0.14329027
4	0x3ec9b6fb	0.39397416
5	0x3e560abf	0.20902537
6	0xbe472e08	-0.19451153
7	0xbe6ff46f	-0.23433088
8	0xbe6a2d0d	-0.22868748
9	0x3d835da4	0.06414345
10	0x3d9e2aba	0.07722993
11	0x3e3f6bc0	0.18693447
12	0x3e34d858	0.17660654
13	0x3d8e877c	0.06959435
14	0xbd08ba48	-0.033380777
15	0xbec1dd52	-0.37864166
16	0xbeb296e1	-0.34880736
17	0xbec1cf1c	-0.37853324
18	0xbe8978ca	-0.26849967
19	0xbe8b3a4d	-0.27192917
20	0xbeaf03ea	-0.34182674
21	0xbde7e655	-0.11323229
22	0x3c833921	0.016018452
23	0x3d0b0ef9	0.033949826
24	0xbf08e077	-0.53467506
25	0xbe3c432c	-0.18384999
26	0xbe1f7d50	-0.15575147
27	0x3ddde181	0.10834027
28	0xbd259fc6	-0.040435575
29	0x3debd4b0	0.11515176
30	0xbd701745	-0.05861594
31	0xbd0ea8fd	-0.03482913
32	0xbdedb9e2	-0.1160772
33	0xbdc0d392	-0.09415354
34	0xbd6357c0	-0.055503607
35	0xbdbcd06d	-0.092194416
36	0x3c299b3a	0.01035195
37	0x3e920211	0.28517202
38	0x3d6555f7	0.055990186
39	0xbca52b4d	-0.020162249
40	0x3d20ab86	0.039226077
41	0xbe0016c7	-0.12508689
42	0xbd6d8800	-0.057991028
43	0xbd6982ec	-0.057009622
44	0x3d1ef1fb	0.03880499
45	0xbdb35179	-0.08755774
46	0xbdcd2bd7	-0.100181274
47	0xbd9a96d3	-0.07548299
48	0xbe37f614	-0.17964965
49	0xbd947c0a	-0.07250221
50	0xbde114ff	-0.10990333
51	0xbe84796b	-0.25873885
52	0xbbac17b1	-0.0052518477
53	0xbd3c10dd	-0.04591452
54	0x3d96427c	0.073369
55	0xbdcc2db9	-0.099696584
56	0xb9a0b238	-0.0003065036
57	0xbe32d3a1	-0.17463543
58	0xbe0c1b75	-0.13682349
59	0xbd8ddbb2	-0.06926669
60	0x3e4619bb	0.19345753
61	0xbd11036f	-0.035403665
62	0x3deacfd6	0.11465423
63	0xbda77fdc	-0.08178684
64	0xbd88aef2	-0.06673993
65	0x3b987e59	0.0046537337
66	0xbd9dd782	-0.077071205
67	0x3dccaeee	0.09994303
68	0xbd9edb20	-0.077566385
69	0x3bdc4b4d	0.0067228437
70	0xbdb10e71	-0.086453326
71	0xbd947537	-0.072489195
72	0xbe7983eb	-0.24366729
73	0xbe82d574	-0.25553477
74	0xbe85ddbb	-0.2614573
75	0x3e09e82a	0.1346747
76	0x3ea0cd84	0.31406796
77	0x3e348303	0.17628102
78	0x3dea53a4	0.114417344
79	0xbe67a31c	-0.22620815
80	0xbe12185a	-0.14267102
81	0xbb4cbd1e	-0.0031240652
82	0xbd19fc5a	-0.037594177
83	0xbcf0e6dc	-0.029406957
84	0xbe33faa7	-0.17576085
85	0xbe01ef43	-0.12688927
86	0xbe3e9030	-0.1860969
87	0x3dd4ce64	0.103909284
88	0x3dbd8306	0.09253506
89	0x3dbc96bb	0.09208437
90	0x3f0fcb83	0.5616991
91	0x3e8f6aac	0.28011072
92	0xbe9b7d0e	-0.30368847
93	0x3e98ab33	0.29818115
94	0xbf46a782	-0.77599347
95	0xbeda0b48	-0.42586732
96	0xbe26e5dc	-0.16298622
97	0xbe9dfd43	-0.30857286
98	0x3e4bdd41	0.1990862
99	0x3d9abcac	0.075555176
100	0xbec154d5	-0.37760034
101	0xbde7ecb3	-0.11324444
102	0xbe7e1c91	-0.24815585
103	0xbee1d64d	-0.4410881
104	0x3d0c326f	0.034227785
105	0xbe023bdf	-0.12718152
106	0x3db5ac15	0.08870713
107	0x3cc5b8cf	0.024135975
108	0xbdd085e0	-0.10181785
109	0xbe43c701	-0.19118883
110	0xbe900419	-0.28128126
111	0xbe1b06bf	-0.15139292
112	0xbeb6edc4	-0.35728276
113	0xbec8c5fb	-0.39213547
114	0xbe37ef95	-0.17962487
115	0xbe372772	-0.17886141
116	0xbea43b97	-0.32076713
117	0xbc133bbb	-0.008986409
118	0xbe20028f	-0.15625976
119	0x3ddfc6ae	0.10926567
120	0x3c9aa01e	0.018875178
121	0x3d9daf95	0.07699505
122	0x3b932442	0.0044904063
123	0x3d5a2466	0.05325737
124	0x3d82d96f	0.063891284
125	0xbd6e5264	-0.058184043
126	0xbe9ba52d	-0.30399457
127	0xbe1ee376	-0.15516457
128	0x3e5be0ec	0.2147252
129	0xbf240949	-0.6407667
130	0xbe6792bd	-0.2261457
131	0x3ee001d5	0.43751398
132	0xbe5e46fd	-0.21706767
133	0x3e646671	0.22304703
134	0x3e67e535	0.2264603
135	0xbdec1364	-0.11527136
136	0xbc43b2d3	-0.0119444905
137	0xbc160e96	-0.009158751
138	0xbe2a571c	-0.16634792
139	0xbdc2b53e	-0.095072255
140	0xbe24b45c	-0.16084427
141	0xbe1df6ee	-0.15426227
142	0x3d2fdf82	0.042937763
143	0xbe4ad7d7	-0.19808899
144	0xbd934c35	-0.0719227
145	0xbdb30313	-0.08740821
146	0xbd2bc551	-0.041936222
147	0x3d6446c9	0.05573157
148	0xbd8ca331	-0.06867064
149	0x3ddefa50	0.10887587
150	0xbe0f26da	-0.13979664
151	0xbd383334	-0.044970706
152	0x3d5ddaa5	0.054163594
153	0xbc5915c9	-0.013249823
154	0xbcb49699	-0.022044467
155	0x3dce88a3	0.10084655
156	0xbdc6b731	-0.0970291
157	0xbd67cbe1	-0.05659092
158	0x3cb0146a	0.02149411
159	0x3d19066f	0.03735965
160	0xbcdddd79	-0.027083145
161	0x3d2b0fd2	0.041763134
162	0xbe9d6212	-0.30738884
163	0x3ead7f96	0.33886403
164	0xbe329c8b	-0.17442529
165	0xbda6db8b	-0.08147343
166	0x3db8c1c7	0.09021335
167	0xbe4662c1	-0.19373609
168	0x3e76e008	0.24108899
169	0x3e5b3c46	0.21409711
170	0x3e5724e5	0.21010168
171	0xbe8b4c76	-0.27206773
172	0xbbf1cb5a	-0.0073789777
173	0x3e3d5731	0.18490292
174	0xbee1302a	-0.4398206
175	0x3dc59c4e	0.096489534
176	0x3ded9bcb	0.11601981
177	0xbec6e45a	-0.38846093
178	0xbe6897aa	-0.22714105
179	0xbef3652c	-0.47538126
180	0xbea24ce7	-0.31699297
181	0xbe8c1fa1	-0.2736788
182	0xbeab45df	-0.33451745
183	0xbdd2baf9	-0.102895685
184	0x3d8ea28a	0.069645956
185	0x3d89b4f0	0.06723964
186	0xbd3b1755	-0.045676548
187	0xbd0e7f7c	-0.034789547
188	0x3e1a6958	0.15079248
189	0x3d12372e	0.035697155
190	0x3ddd508a	0.10806377
191	0x3de3f318	0.11130351
192	0x3c0b087d	0.0084859105
193	0xbbaa3fc2	-0.005195589
194	0xbdd2b84c	-0.10289058
195	0x3cc3d5fb	0.023905745
196	0x3db81cc2	0.0898986
197	0x3c33e631	0.010980175
198	0x3ecfaf4a	0.40563422
199	0x3e68d896	0.22738871
200	0x3e9460a4	0.2897998
201	0xbd9e4c44	-0.0772939
202	0xbea0451a	-0.3130272
203	0xbefddf1f	-0.4958429
204	0xbe369ba8	-0.17832816
205	0x3da3f205	0.08005146
206	0x3d8d7dd4	0.069087654
207	0xbc5173c6	-0.01278395
208	0xbdaeb726	-0.085310265
209	0xbd569fe1	-0.052398566
210	0x3dc48297	0.095952205
211	0x3d687c76	0.05675932
212	0x3d810da9	0.063014336
213	0x3deac8f8	0.11464113
214	0x3d25abb0	0.040446937
215	0x3e5a7bd4	0.21336299
216	0xbe6c0605	-0.23049171
217	0xbc7ade6f	-0.015311821
218	0xbd9047b3	-0.070449255
219	0xbecbc0c3	-0.39795503
220	0xbea54d48	-0.32285523
221	0xbe27d5c2	-0.16390136
222	0x3ce1b1f4	0.027550675
223	0x3e3964b7	0.18104826
224	0x3ec0abc3	0.37631044
225	0x3c33c326	0.01097182
226	0x3b7646e8	0.0037578885
227	0x3d605532	0.05476875
228	0xbead1d9f	-0.33811662
229	0xbe817397	-0.252835
230	0xbe590ce2	-0.2119632
231	0xbd924f3f	-0.07144021
232	0x3d4ce447	0.05002239
233	0x3e7a58a3	0.24447875
234	0x3cb9b408	0.022668853
235	0x3d6e5c36	0.058193408
236	0xbdb258ba	-0.087083295
237	0x3d9bdf6b	0.07610973
238	0xbdb70a42	-0.089375034
239	0xbde56673	-0.11201181
240	0xbe2ab8cc	-0.16672057
241	0xbe33fff5	-0.17578109
242	0x3d50a113	0.050934862
243	0xbdd13d49	-0.10216767
244	0xbd87a5be	-0.0662341
245	0xbd6b4754	-0.05744107
246	0xbd3692da	-0.044573642
247	0xbcdb80ae	-0.026794758
248	0x3d020ce3	0.03175057
249	0x3cd0bfb3	0.025482034
250	0xbd41d164	-0.04731883
251	0xbc891171	-0.01673195
252	0xbe421d77	-0.18956552
253	0xbe9bd63b	-0.30436882
254	0xbecb446f	-0.39700648
255	0xbe9a6833	-0.30157623

conv_block_2.2.bias f4 [10]
0	0xbe80ed11	-0.25180867
1	0x3da83549	0.08213288
2	0xbd624896	-0.055245005
3	0xbe926159	-0.28589895
4	0x3e72362f	0.23653482
5	0x3db72d04	0.08944133
6	0xbdefec98	-0.117150486
7	0x3d71447f	0.058903214
8	0x3ecb954c	0.39762342
9	0x3e55181e	0.20809981

classifier.1.weight f4 [10, 490]
0	0x3cd08fa8	0.025459126
1	0xbd628c40	-0.055309534
2	0xbdab4dba	-0.083644345
3	0x3d05d2ac	0.032671615
4	0x3d8410d5	0.06448523
5	0x3b73a4f7	0.0037177184
6	0x3cc217ed	0.02369305
7	0x3d758c1b	0.059948068
8	0x3d6945a0	0.056951165
9	0x3db35b6c	0.08757672
10	0xbd38684f	-0.04502135
11	0xbba1421a	-0.00492121
12	0x3ceb76b6	0.02874313
13	0x3c4408a5	0.011964952
14	0xbb6410e1	-0.00348001
15	0x3d950e13	0.07278075
16	0xbde58317	-0.11206644
17	0xbe35271a	-0.17690697
18	0xbebe3cd3	-0.3715578
19	0xbdf5706c	-0.119843334
20	0xbc06b23e	-0.008221207
21	0xbce84442	-0.02835286
22	0xbcfca211	-0.030838998
23	0xbdd670e3	-0.1047075
24	0xbd0870ff	-0.033310886
25	0xbd356850	-0.044288933
26	0xbe2cb06d	-0.16864176
27	0xbd8c6f1f	-0.06857132
28	0x3c7d8c6c	0.015475374
29	0xbda4c739	-0.08045811
30	0x3d2d467f	0.04230356
31	0x3ba89c86	0.005145612
32	0xbe08a84a	-0.13345447
33	0xbd233236	-0.039842807
34	0xbd02e262	-0.031954177
35	0xbd124ff6	-0.035720788
36	0xbd609d40	-0.054837465
37	0x3cf9c28e	0.030488279
38	0xbbb8f0f5	-0.0056439587
39	0x3cffcd42	0.031225804
40	0x3caae32a	0.020860273
41	0xbbcd14ce	-0.0062585836
42	0x3cb422c4	0.021989234
43	0xbc034d6d	-0.008014065
44	0x3d2bd026	0.041946553
45	0xbc80c915	-0.015720883
46	0xbc85d66c	-0.016337596
47	0xbb074f82	-0.0020646756
48	0xbd0539b4	-0.032525733
49	0xbcbeea26	-0.02330501
50	0xbd779608	-0.060445815
51	0xbd5f45aa	-0.054509796
52	0xbd1ddec4	-0.038542524
53	0x3c04ffde	0.008117644
54	0x3d302b1f	0.043009873
55	0x3c2b016e	0.010437353
56	0xbcfa3e94	-0.030547418
57	0xbe07ccd1	-0.13261725
58	0xbe02af12	-0.12762097
59	0xbe284f57	-0.16436516
60	0xbd86992b	-0.06572183
61	0xbdd1506e	-0.10220419
62	0xbd2b72d6	-0.041857563
63	0xbc4451a3	-0.011982354
64	0xbcff54bd	-0.031168336
65	0x3d55e427	0.052219536
66	0xbc5db37c	-0.013531562
67	0xbec1afda	-0.37829477
68	0x3c0be67c	0.0085388385
69	0x3c2ba3f0	0.010476097
70	0x3be40ccb	0.006959533
71	0x3e87c392	0.26516396
72	0x3e80f73a	0.2518862
73	0xbe2a0b81	-0.16605951
74	0x3da7860c	0.08179864
75	0x3d97fcaf	0.074212424
76	0xbce296ff	-0.027659891
77	0x3cd7d4be	0.02634656
78	0x3e8435a3	0.25822172
79	0x3e1c8762	0.1528602
80	0xbdea5f47	-0.11443954
81	0x3dd739f1	0.10509098
82	0xbd94854d	-0.072519876
83	0xbcb7ed3c	-0.02245199
84	0xbcb44bc5	-0.022008786
85	0x3d5b4450	0.053531945
86	0xbda65168	-0.08120996
87	0xbd805819	-0.06266803
88	0xbd1c8916	-0.038216673
89	0xbcbf2302	-0.023332123
90	0xbd4ac42b	-0.049503487
91	0xbc9b2a87	-0.018941177
92	0x3d18d36f	0.037311014
93	0x3cdc5624	0.026896544
94	0xbd0d5f9c	-0.03451501
95	0xbb2da7ab	-0.0026497643
96	0xbd1458e3	-0.03621758
97	0x3c97bc7e	0.018522497
98	0x3c82f201	0.015984537
99	0x3d0c6a4e	0.034281068
100	0x3d0cc9b0	0.03437203
101	0xbad4142e	-0.001618033
102	0xbcb7810d	-0.022400403
103	0x3d137fd2	0.03601057
104	0xb88e1f8a	-6.776962e-05
105	0xbcba8b1e	-0.022771414
106	0xbbcedccf	-0.0063129435
107	0xbd73d17a	-0.059525944
108	0xbd9aec3e	-0.07564591
109	0xbd02223d	-0.031770933
110	0x3c69c62a	0.014268437
111	0xbd449372	-0.047992177
112	0xbd5c4c3f	-0.05378365
113	0xbe49bb30	-0.19700313
114	0xbe0c856b	-0.1372277
115	0xbb5edd71	-0.00340065
116	0xbdd0feaa	-0.10204823
117	0x3d364075	0.044495065
118	0xbd3b8318	-0.045779318
119	0xbdd06c3c	-0.10176894
120	0xbe78a8e9	-0.24283184
121	0xbe3b23ae	-0.1827533
122	0xbe52ca2d	-0.20584936
123	0xbbf3d08e	-0.007440633
124	0x3d1a3090	0.03764397
125	0xbe198664	-0.14992672
126	0xbd09cb26	-0.033641003
127	0xbe8d0fee	-0.27551216
128	0xbe8dbfb0	-0.27685308
129	0xbe9c7ce1	-0.30564025
130	0xbde80333	-0.11328735
131	0xbd152fcd	-0.03642254
132	0xbdacedc2	-0.08443786
133	0x3d8111d9	0.06302232
134	0xbd03db63	-0.032191645
135	0xbda72647	-0.08161598
136	0x3e27d14c	0.16388434
137	0x3e89d0bb	0.2691706
138	0x3d869a5b	0.0657241
139	0xbbd265fe	-0.00642085
140	0x3cd46aaf	0.025929777
141	0xbd248eed	-0.040175367
142	0x3d6ed7a2	0.058311112
143	0x3e07a04d	0.13244744
144	0xbcb9755d	-0.022638971
145	0xbdd40362	-0.10352208
146	0xbc60706b	-0.0136986775
147	0x3c0d700f	0.008632674
148	0xbdb8f63d	-0.09031341
149	0xbd5631b6	-0.0522935
150	0xbda6edb0	-0.08150804
151	0x3b1511bb	0.0022746164
152	0x3dead303	0.114660285
153	0x3da8d691	0.0824405
154	0xbcd72717	-0.026263757
155	0x3db72ccc	0.08944091
156	0x3d93c97f	0.07216167
157	0x3d7c67b2	0.06162233
158	0x3e63dfa4	0.22253281
159	0x3c3a6616	0.011376878
160	0x3d9f11d0	0.07767069
161	0x3bdbb1e5	0.0067045563
162	0x3cf8b46f	0.030359475
163	0xbdd08243	-0.101810955
164	0xbe55e401	-0.20887758
165	0xbe54ec6a	-0.2079331
166	0xbd1b8aa2	-0.037974007
167	0x3de8cd06	0.1136723
168	0x3b8b2401	0.0042462354
169	0xbdf1ca5d	-0.11806176
170	0xbe0dbe0d	-0.1384203
171	0xbe95984c	-0.29217756
172	0xbe404a31	-0.18778302
173	0xbe963105	-0.29334274
174	0x3cda8a54	0.026677288
175	0xbc53250d	-0.012887252
176	0xbdcd1573	-0.10013857
177	0x3cbc8b29	0.023015575
178	0x3f0c2e8a	0.5475851
179	0xbe204537	-0.15651403
180	0xbd9d072a	-0.07667382
181	0xbd11beb4	-0.03558226
182	0x3cc44a78	0.02396129
183	0xbbfb6aa7	-0.007672626
184	0x3d521764	0.05129184
185	0x3dc91c73	0.098198794
186	0xbc55c9f5	-0.013048639
187	0xbdca2df0	-0.09872043
188	0xbd6b14b8	-0.057392806
189	0xbbbced2d	-0.0057655782
190	0x3c89fc9b	0.016844084
191	0xbc944064	-0.01809711
192	0xbcfc8f49	-0.030830042
193	0xbd4b0550	-0.049565613
194	0xbd40afac	-0.047042534
195	0xbb957c89	-0.004561965
196	0x3bc4b7dc	0.006003363
197	0xbdd407bb	-0.10353037
198	0xbe16c526	-0.14723644
199	0xbdfbfefb	-0.12304493
200	0x3d119968	0.03554669
201	0x3d607605	0.054800052
202	0xbcd66fad	-0.026176298
203	0xba725b72	-0.0009245194
204	0x3d7fef8c	0.06248431
205	0xbbae5071	-0.005319648
206	0x3e158ec4	0.14605242
207	0x3e9aec84	0.30258572
208	0x3ec546b1	0.38530496
209	0x3df48310	0.11939061
210	0x3da17911	0.0788442
211	0xbd54b384	-0.051929012
212	0xbeac038a	-0.3359645
213	0xbe163adc	-0.1467089
214	0xbc4d03e6	-0.0125131365
215	0x3bf96564	0.0076109637
216	0x3d9092fb	0.07059284
217	0xbb4c493b	-0.0031171578
218	0x3e24b7bf	0.16085719
219	0xbe2dd3c6	-0.16975316
220	0x3d06e4c8	0.032933027
221	0xbef0ddbe	-0.47044176
222	0xbe02600f	-0.12731956
223	0x3cf882e1	0.030335845
224	0x3cfc2e8e	0.030783918
225	0x3ca3ac98	0.01997976
226	0x3e287bca	0.16453472
227	0x3e105d26	0.14098033
228	0xbe6c5075	-0.23077567
229	0xbdff5989	-0.12468249
230	0xbd29d83a	-0.041465975
231	0x3d2da2f8	0.042391747
232	0x3dafdc7d	0.08586977
233	0x3e2249fd	0.15848537
234	0x3e094400	0.13404846
235	0xbd44c3f3	-0.048038434
236	0xbb8db0ec	-0.0043240692
237	0x3c0e70c0	0.008693874
238	0x3ce716ef	0.028209178
239	0xbce0a68e	-0.02742317
240	0x3bbce48d	0.00576455
241	0x3c57f896	0.013181826
242	0x3bca16c9	0.006167267
243	0x3c9bd298	0.019021317
244	0x3c345b9e	0.011008171
245	0xbc4329c7	-0.011911816
246	0x3d5be3fc	0.05368422
247	0xbcf4271c	-0.029803805
248	0x3e0f1c13	0.13975553
249	0x3ddd24c2	0.107980266
250	0x3d80e30e	0.06293307
251	0x3d513e1b	0.05108462
252	0x3cf535c4	0.029932864
253	0xbdd2132e	-0.102575645
254	0xbdacffa6	-0.084471986
255	0xbe347857	-0.17624031

classifier.1.bias f4 [10]
0	0x3a0a8e12	0.00052854524
1	0x3efd79b0	0.49506903
2	0x3dd92fc9	0.106048174
3	0xbe48c384	-0.19605833
4	0xbd81e9a7	-0.06343394
5	0xbe2dceb3	-0.1697338
6	0xbd7824af	-0.06058186
7	0x3e1d27b4	0.15347177
8	0xbe1160ce	-0.14197084
9	0xbe13cd59	-0.14433803
