checkpoints/model_epoch_9.pth (torch, 34447 bytes, 10 tensors)

conv_block_1.0.weight f4 [10, 1, 3, 3]
-0.11304662 -0.1775126 -0.043390077 -0.3548351 -0.23464143 -0.14735566 0.34956768 0.1689808
-0.1070122 -0.2560309 -0.039208565 -0.19265781 -0.65819746 0.16977152 0.44003513 -0.6529309
0.023799656 0.36219126 0.340402 0.3791446 0.40145636 -0.5531333 0.010930864 -0.081001714
-1.1059309 -0.417091 0.4390031 0.10000724 0.40822527 0.4240708 0.18044098 -0.4726542
-0.26219797 0.1262083 -0.46570942 -0.7414803 -0.25325185 -0.46885368 -0.057835218 -0.09913691
0.5971313 0.094917476 0.04155048 0.7675757 -0.057480305 -0.30375668 0.34888032 -0.19123526
-0.40418267 0.1160234 0.04700521 0.29299182 -0.16992769 0.29089886 0.049149796 0.19287097
-0.24745747 -0.42352983 0.35982576 -0.4490098 -0.3845712 0.348654 -0.12000533 0.09295838
-0.20461911 -0.2794133 -0.21827841 -0.16796196 -0.09312354 0.20597975 0.08986371 -0.2228965
0.26529446 -0.5769004 0.14027067 0.5900756 0.3578478 -0.021684732 0.11777053 -0.42280284
-0.090019114 0.34247375 0.32901567 -0.3643463 -0.098693736 -0.18481351 -0.48746192 -0.49461213
-0.627531 -0.5677681
00000000: fc84 e7bd ddc5 35be cbb9 31bd f2ac b5be
00000010: d845 70be 67e4 16be 89fa b23e 4e09 2d3e
00000020: 3629 dbbd 7b16 83be 2999 20bd 1748 45be
00000030: a17f 28bf 96d8 2d3e 494c e13e 7b26 27bf
00000040: 7ff7 c23c 2271 b93e 2c49 ae3e 3e1f c23e
00000050: b08b cd3e 259a 0dbf 5e17 333c 3ae4 a5bd
00000060: 258f 8dbf f48c d5be 04c5 e03e 99d0 cc3d
00000070: e702 d13e cf1f d93e 85c5 383e bbff f1be
00000080: d03e 86be c03c 013e 7771 eebe a7d1 3dbf
00000090: 3aaa 81be 970d f0be 9fe4 6cbd 4b08 cbbd
000000a0: 99dd 183f 1864 c23d d630 2a3d d77f 443f
000000b0: 7870 6bbd ff85 9bbe 71a0 b23e 2dd3 43be
000000c0: 08f1 cebe ad9d ed3d 8988 403d 0603 963e
000000d0: 8601 2ebe b2f0 943e 4c51 493d f87f 453e
000000e0: 7e65 7dbe e7d8 d8be 153b b83e 9de4 e5be
000000f0: 84e6 c4be c782 b23e 5bc5 f5bd f760 be3d
00000100: ac87 51be 430f 8fbe 6084 5fbe 38fe 2bbe
00000110: 8eb7 bebd 5bec 523e 770a b83d fb3e 64be
00000120: add4 873e bfaf 13bf 1da3 0f3e 320f 173f
00000130: d437 b73e 2ea4 b1bc ad31 f13d 9d79 d8be
00000140: f15b b8bd b858 af3e be74 a83e 998b babe
00000150: f11f cabd c13f 3dbe 9c94 f9be cd3d fdbe
00000160: dfa5 20bf 4059 11bf

conv_block_1.0.bias f4 [10]
0.0061779316 -0.15375873 0.10185292 0.1239536 -0.059144404 -0.3291521 -0.24425115 -0.1235765
-0.34592277 0.45804083
00000000: 3f70 ca3b ee72 1dbe 4498 d03d 63db fd3d
00000010: 6741 72bd a086 a8be f91c 7abe ad15 fdbd
00000020: ca1c b1be 5484 ea3e

conv_block_1.2.weight f4 [10, 10, 3, 3]
0.058853447 -0.06772152 0.07250707 0.087797314 0.035190865 0.03744065 0.033057325 -0.00025924924
0.0634365 0.059810042 0.008654317 0.27916294 0.09805509 -0.21403216 -0.12178061 -0.19522145
-0.21836182 0.061637007 -0.20609148 -0.13604327 0.3019781 -0.140206 -0.16443378 0.22770016
0.15215755 0.17664395 0.008621794 -0.27710804 -0.04876768 0.06883921 -0.15617843 0.03283301
0.2746227 0.106470264 0.035315003 -0.16632178 0.08975288 0.27477062 0.14383776 -0.24767973
-0.09707043 -0.2840237 -0.34866065 -0.24259053 -0.2138164 0.009521853 -0.00946658 0.098229274
0.0054745846 0.03375055 0.10133155 -0.05261183 -0.09118609 -0.10408368 -0.039665494 -0.008338663
0.050388232 -0.02527753 0.012114331 0.04317373 0.007250619 0.045722663 -0.13881774 -0.094389856
-0.018758098 0.05283389 -0.026449786 0.020349596 -0.10031175 0.04395807 -0.06719747 0.012028062
-0.2159631 0.06988948 0.18182082 -0.052156094 0.08963862 -0.012690286 -0.26853347 -0.15327185
-0.20429638 -0.012106846 -0.21349065 -0.21354973 -0.029257152 0.05215171 -0.090861745 0.11136479
0.09809885 0.052231032 0.025750138 -0.06788137 0.053280666 0.017972024 0.016274115 0.08498609
-0.0006127774 0.13396859 0.14265321 -0.10116557 0.009972311 0.18401478 -0.015326439 -0.14467774
-0.09715804 -0.12592813 -0.20439923 -0.04831118 0.109358914 -0.23869112 -0.44861463 -0.03390405
-0.31226206 -0.29679745 0.008877538 -0.1749621 0.04705772 0.10014416 0.17924428 0.080553554
-0.32683074 -0.116599716 -0.17494556 -0.031137453 0.013730301 0.31788668 -0.18962716 -0.37746584
-0.10224602 0.16364995 0.44169435 0.120688826 -0.1050696 -0.06016452 0.16813144 0.030202193
0.10212717 0.14581193 0.11696639 0.028411688 -0.07006813 -0.109897286 0.026358003 0.016498843
0.051534466 -0.08881841 -0.1814494 0.012056906 0.0033938866 -0.06396713 -0.037786376 0.19714226
0.054783892 -0.04492037 0.0016982555 -0.030629784 -0.028813474 -0.030306155 -0.09955701 0.0032427392
0.09226794 -0.0021547803 -0.021508817 -0.1537622 -0.31236488 0.057532534 0.038919117 0.26857767
0.044305917 -0.033060152 -0.07148913 -0.15688004 -0.15836903 -0.07181457 -0.36754867 -0.25140056
-0.22992834 -0.14793335 -0.38904685 0.005552675 -0.015555715 0.14807762 0.19451818 -0.02252133
-0.04164505 0.021176903 -0.043740634 0.0676517 -0.024447838 0.01859717 -0.09702295 -0.015400744
-0.12533228 0.17765099 -0.0013494317 -0.109756894 -0.1953105 0.1892651 -0.09149602 0.041344367
0.051190183 0.14617732 0.19110292 -0.16503167 -0.05631306 0.14501911 0.33197242 -0.38106304
-0.35484952 -0.23200575 0.13553153 -0.27238336 -0.16842422 0.33975253 0.14657111 -0.25430936
-0.024374528 0.2319501 0.09918179 -0.22812414 0.001826097 0.19926354 -0.6188415 -0.57647586
-0.2605348 -0.03907204 -0.06864833 -0.12765504 0.0890962 -0.008762503 0.04824481 -0.009478179
-0.054319274 0.15977094 0.10771689 0.010211348 0.03803816 -0.073309146 0.06471123 0.19430685
-0.03645663 -0.08785599 0.087722614 0.06085595 -0.03571695 0.11313067 -0.030502854 -0.030307576
-0.0016564516 0.09639675 0.091519855 0.071954645 -0.05922904 -0.070389874 -0.071768284 0.10510681
00000000: 5010 713d 95b1 8abd 967e 943d 14cf b33d
00000010: 4c24 103d 5e5b 193d 1e67 073d d8eb 87b9
00000020: ffea 813d 60fb 743d d6ca 0d3c 72ee 8e3e
00000030: 1bd1 c83d 3f2b 5bbe 1d68 f9bd 22e8 47be
00000040: 3e9a 5fbe 1677 7c3d a509 53be ed4e 0bbe
00000050: e09c 9a3e 2992 0fbe 5461 28be 3b2a 693e
00000060: 30cf 1b3e 27e2 343e 6d42 0d3c 1be1 8dbe
00000070: 9ec0 47bd 92fb 8c3d 3ded 1fbe e87b 063d
00000080: 599b 8c3e 150d da3d 77a6 103d 4250 2abe
00000090: 5cd0 b73d bcae 8c3e 354a 133e c19f 7dbe
000000a0: ddcc c6bd 8e6b 91be a683 b2be a769 78be
000000b0: b0f2 5abe 8c01 1c3c b719 1bbc 6e2c c93d
000000c0: 2564 b33b 043e 0a3d ea86 cf3d 817f 57bd
000000d0: c6bf babd d329 d5bd 4978 22bd e39e 08bc
000000e0: e463 4e3d d312 cfbc 307b 463c f0d6 303d
000000f0: 9a96 ed3b b047 3b3d 3d26 0ebe 784f c1bd
00000100: 95aa 99bc 5968 583d 39ad d8bc 32b4 a63c
00000110: 3f70 cdbd 610d 343d d49e 89bd 5911 453c
00000120: 6e25 5dbe 3722 8f3d 3d2f 3a3e a1a1 55bd
00000130: 7494 b73d ebea 4fbc 387d 89be 4cf3 1cbe
00000140: 1233 51be cb5b 46bc 4b9d 5abe c8ac 5abe
00000150: b2ac efbc 089d 553d b915 babd 3913 e43d
00000160: 0de8 c83d 35f0 553d f4f1 d23c 6305 8bbd
00000170: d43c 5a3d 113a 933c 4b51 853c 300d ae3d
00000180: cca2 20ba 102f 093e af13 123e e52f cfbd
00000190: e762 233c 5f6e 3c3e bf1b 7bbc 6726 14be
000001a0: cbfa c6bd 4ef3 00be 084e 51be f2e1 45bd
000001b0: 91f7 df3d 726b 74be d1b0 e5be f9de 0abd
000001c0: d0e0 9fbe d6f5 97be 1873 113c 4429 33be
000001d0: 99bf 403d 6218 cd3d d08b 373e 43f9 a43d
000001e0: 5c56 a7be d5cb eebd ee24 33be f913 ffbc
000001f0: 0ef5 603c 0bc2 a23e 9f2d 42be 3443 c1be
00000200: 5d66 d1bd da93 273e c325 e23e b42b f73d
00000210: bb2e d7bd 126f 76bd a62a 2c3e 976a f73c
00000220: 0d28 d13d b94f 153e 138c ef3d a1bf e83c
00000230: e17f 8fbd d411 e1bd bdec d73c 9528 873c
00000240: ce15 533d 6de6 b5bd dfcd 39be 548a 453c
00000250: f86b 5e3b 3301 83bd e3c5 1abd a9df 493e
00000260: 1365 603d 6cfe 37bd 0098 de3a 50eb fabc
00000270: 3c0a ecbc 9d44 f8bc 8ce4 cbbd 2384 543b
00000280: f9f6 bc3d 3737 0dbb 4233 b0bc d773 1dbe
00000290: 4aee 9fbe 3ca7 6b3d a769 1f3d 0383 893e
000002a0: 1f7a 353d 156a 07bd e568 92bd 29a5 20be
000002b0: 7e2b 22be 8413 93bd 572f bcbe 93b7 80be
000002c0: 5672 6bbe d77b 17be 2631 c7be 37f3 b53b
000002d0: 66dd 7ebc a9a1 173e c62f 473e a77e b8bc
000002e0: 0094 2abd 2f7b ad3c 6129 33bd f98c 8a3d
000002f0: d546 c8bc 1859 983c f8b3 c6bd 6753 7cbc
00000300: 1b57 00be 24ea 353e 6adf b0ba 39c8 e0bd
00000310: 7aff 47be b6ce 413e 4462 bbbd b658 293d
00000320: ccac 513d 82af 153e 7cb0 433e 10fe 28be
00000330: 86a8 66bd e47f 143e 4af8 a93e b21a c3be
00000340: d6ae b5be ea92 6dbe c7c8 0a3e d575 8bbe
00000350: 6677 2cbe 0bf4 ad3e bd16 163e d634 82be
00000360: 17ad c7bc 5484 6d3e d31f cb3d 6099 69be
00000370: a659 ef3a be0b 4c3e 666c 1ebf ec93 13bf
00000380: d164 85be 010a 20bd 7f97 8cbd 01b8 02be
00000390: 1278 b63d 9a90 0fbc 5a9c 453d 5d4a 1bbc
000003a0: e37d 5ebd fe9a 233e ac9a dc3d 7f4d 273c
000003b0: e7cd 1b3d 1b23 96bd 5287 843d 60f8 463e
000003c0: 8c53 15bd d7ed b3bd eaa7 b33d 1744 793d
000003d0: f04b 12bd 0db1 e73d 1fe1 f9bc 9847 f8bc
000003e0: 4b1d d9ba a96b c53d c36e bb3d f55c 933d
000003f0: 269a 72bd 9128 90bd 40fb 92bd 3d42 d73d

conv_block_1.2.bias f4 [10]
-0.12630449 0.41480637 0.21866846 -0.04673125 -0.009734829 0.18304697 0.35092482 -0.112230405
-0.0978588 -0.011808208
00000000: f755 01be 8061 d43e a0ea 5f3e 4469 3fbd
00000010: d57e 1fbc aa70 3b3e 6bac b33e 0ed9 e5bd
00000020: 326a c8bd 3777 41bc

conv_block_2.0.weight f4 [10, 10, 3, 3]
-0.03125987 -0.18699846 0.25779518 -0.26493612 -0.11995147 -0.27034652 -0.25224167 -0.06500151
-0.06427471 0.023886539 -0.26471105 -0.48127434 0.034355156 -0.19631398 0.020650502 -0.09253441
0.025904825 0.4693852 -0.30419248 -0.31291953 0.047450006 -0.26550955 -0.3080151 -0.19698803
-0.31489626 0.4505526 0.107554205 -0.11809127 -0.33376303 -0.16355792 0.021725006 -0.22979346
-0.36943892 0.14888677 -0.27391595 -0.24919628 0.21458104 -0.001992736 -0.09337877 0.083130285
-0.059554543 0.29376283 0.27178308 0.05889906 0.12724198 -0.0015014206 -0.24080236 -0.029736828
-0.014112976 -0.28039002 -0.23133227 0.20316201 -0.14728288 0.097954005 -0.37795588 -0.48869064
-0.4628203 -0.047020357 -0.13722329 -0.08242059 -0.09760405 -0.011352708 0.40975958 -0.1278028
-0.47478414 -0.43519446 -0.16241418 -0.009012086 0.11999061 0.09191015 0.23272872 0.4137119
-0.06171667 -0.1890696 -0.031814575 -0.02239762 -0.025946768 0.005980006 -0.007667039 0.06264152
0.24173672 0.12994915 0.07839316 0.029000366 0.069879554 -0.04034172 -0.18693648 -0.23458996
0.098723635 -0.0863761 0.048583087 0.1335973 0.0029748036 0.05541458 0.031677637 -0.028392127
-0.045235585 -0.15144071 0.013101242 0.094761744 -0.11347522 -0.37641132 -0.31652892 -0.24718761
-0.31256208 0.17471355 0.054798555 0.38444087 0.40139595 0.05058961 -0.113837846 0.008701178
-0.27596456 -0.420079 -0.08978621 -0.2335613 -0.1114147 0.41712496 0.33985424 -0.10345689
0.0571637 0.023296028 -0.07723988 -0.20717935 -0.3782599 -0.27553183 -0.1850021 0.32725254
-0.14247614 -0.06791565 0.09088336 0.012747993 -0.038950346 -0.018797152 0.012530805 0.2581874
0.04104784 -0.10403812 -0.19799079 0.055444665 -0.41655523 0.09489293 0.01565309 -0.026276002
0.5987463 -0.0024297906 -0.37931913 0.25144136 -0.54663515 -0.24355741 0.20028974 -0.08278243
0.3101964 -0.37914273 -0.45260924 -0.31577274 -0.3269098 -0.17663516 -0.25806218 -0.20103607
0.10744713 0.25931183 0.16910104 -0.035854656 0.09082207 -0.284251 -0.22942519 0.020952435
-0.05512052 0.21285178 0.08178345 0.0658706 0.38247886 0.27967983 0.15386388 0.18739289
0.036330972 -0.039246302 0.022800189 -0.08779539 0.05989485 0.10344834 0.07600636 -0.28244042
-0.031593096 0.3631781 -0.07532382 -0.1400952 0.055584412 0.035473455 0.15443593 0.45270175
-0.30751133 -0.34273082 0.22402886 0.065076925 -0.34837723 -0.2144829 0.14482856 0.010338203
0.30701417 0.020048125 0.36560044 0.4335453 -0.33437815 -0.30595198 0.05316793 -0.36879832
-0.249499 0.11177353 0.070007525 -0.13770252 -0.09096836 0.0060342858 -0.24348587 -0.1674443
0.088734336 0.049821194 -0.21031804 0.025870062 -0.0054023294 -0.12787867 0.1566279 0.021884704
-0.19661446 -0.08300514 0.12423062 0.45862824 -0.16216892 0.09117461 0.23300469 -0.11772219
-0.22127451 -0.21189295 0.16252321 0.18203391 0.621699 -0.11033889 -0.059281554 0.0064754677
-0.23558526 -0.69757503 0.020155163 -0.16232106 -0.02595642 0.073188394 -0.3649156 -0.46340752
-0.562043 0.19927636 0.28217557 0.34992045 -0.06494156 -0.07485261 -0.084934235 -0.12609361
00000000: 590a 00bd 867c 3fbe bbfd 833e b5a5 87be
00000010: 1ea9 f5bd dc6a 8abe d225 81be 831f 85bd
00000020: 76a2 83bd b4ad c33c 3588 87be 9769 f6be
00000030: feb7 0c3d 8806 49be 3e2b a93c ae82 bdbd
00000040: 5b36 d43c 4253 f03e 1ebf 9bbe fd36 a0be
00000050: f05a 423d def0 87be 28b4 9dbe 3bb7 49be
00000060: 153a a1be d5ae e63e 6145 dc3d d6d9 f1bd
00000070: fde2 aabe ba7b 27be a4f8 b13c fa4e 6bbe
00000080: 1927 bdbe c675 183e b63e 8cbe 4f2d 7fbe
00000090: 22bb 5b3e 9098 02bb 5e3d bfbd 3640 aa3d
000000a0: 77ef 73bd 1568 963e 2727 8b3e 2440 713d
000000b0: b94b 023e 51cb c4ba e594 76be a69a f3bc
000000c0: 1d3a 67bc 488f 8fbe 5ee2 6cbe b409 503e
000000d0: 53d1 16be 1c9c c83d 6f83 c1be a935 fabe
000000e0: c8f6 ecbe 6b98 40bd 4384 0cbe 20cc a8bd
000000f0: a2e4 c7bd b500 3abc 02cc d13e bdde 02be
00000100: e816 f3be cfd1 debe e74f 26be 6ea7 13bc
00000110: a3bd f53d 643b bc3d 7050 6e3e 0cd2 d33e
00000120: 9eca 7cbd 769b 41be 0050 02bd 377b b7bc
00000130: 518e d4bc edf3 c33b c93b fbbb 324a 803d
00000140: d589 773e 6411 053e 988c a03d 2d92 ed3c
00000150: 031d 8f3d 5c3d 25bd 476c 3fbe 5a38 70be
00000160: 9e2f ca3d f4e5 b0bd 0fff 463d bbcd 083e
00000170: ecf4 423b 66fa 623d 69c0 013d 9b96 e8bc
00000180: f348 39bd 4613 1bbe 97a6 563c 7212 c23d
00000190: b265 e8bd fcb8 c0be 1410 a2be c01e 7dbe
000001a0: 2308 a0be 1ce8 323e 7374 603d 6fd5 c43e
000001b0: c583 cd3e 0d37 4f3d d123 e9bd 638f 0e3c
000001c0: 3a4b 8dbe 9814 d7be d5e1 b7bd b22a 6fbe
000001d0: 642d e4bd 6791 d53e 6001 ae3e 35e1 d3bd
000001e0: 7c24 6a3d 50d7 be3c f12f 9ebd d326 54be
000001f0: 48ab c1be 8212 8dbe 3171 3dbe a58d a73e
00000200: 44e5 11be 5c17 8bbd 0e21 ba3d f5dc 503c
00000210: 668a 1fbd 7cfc 99bc 014e 4d3c 2431 843e
00000220: c821 283d f011 d5bd 19be 4abe f219 633d
00000230: ba46 d5be 3957 c23d e93a 803c c540 d7bc
00000240: 7047 193f 1f3d 1fbb 1e36 c2be ecbc 803e
00000250: 48f0 0bbf 1d67 79be c118 4d3e d689 a9bd
00000260: 10d2 9e3e ff1e c2be 66bc e7be f7ac a1be
00000270: b960 a7be d9df 34be ba20 84be 66dc 4dbe
00000280: 3e0d dc3d 85c4 843e d328 2d3e 55dc 12bd
00000290: ec00 ba3d 5989 91be 70ee 6abe 71a4 ab3c
000002a0: 0ec6 61bd d1f5 593e 157e a73d 2ae7 863d
000002b0: 45d4 c33e 3232 8f3e 7e8e 1d3e ece3 3f3e
000002c0: c9cf 143d bbc0 20bd 76c7 ba3c 12ce b3bd
000002d0: 4d54 753d b9dc d33d 39a9 9b3d 089c 90be
000002e0: c367 01bd 7bf2 b93e 6043 9abd 1e75 0fbe
000002f0: 7bac 633d 9d4c 113d 7424 1e3e 86c8 e73e
00000300: 2072 9dbe 6a7a afbe d267 653e 0d47 853d
00000310: 805e b2be 68a1 5bbe f04d 143e 9161 293c
00000320: f630 9d3e f73b a43c fb2f bb3e a6f9 dd3e
00000330: 9d33 abbe bda5 9cbe 9ec6 593d 22d3 bcbe
00000340: aa7c 7fbe 85e9 e43d 1b60 8f3d e401 0dbe
00000350: 9f4d babd 42bb c53b 5c54 79be 8576 2bbe
00000360: 59ba b53d 4f11 4c3d 9d5d 57be 74ed d33c
00000370: 0606 b1bb a0f2 02be 1063 203e 8d47 b33c
00000380: 4d55 49be 99fe a9bd a06c fe3d 52d1 ea3e
00000390: 9c0f 26be c1b9 ba3d c898 6e3e 5518 f1bd
000003a0: c995 62be 77fa 58be 7c6c 263e 1967 3a3e
000003b0: aa27 1f3f 5bf9 e1bd 37d1 72bd 2930 d43b
000003c0: 433d 71be 4794 32bf 711c a53c 7e37 26be
000003d0: 8fa2 d4bc cce3 953d 38d6 babe c043 edbe
000003e0: 0de2 0fbf 1a0f 4c3e 5179 903e c628 b33e
000003f0: 1500 85bd 534c 99bd 00f2 adbd af1e 01be

conv_block_2.0.bias f4 [10]
0.18172085 0.24563192 0.080810785 0.30255732 -0.05755998 0.26105615 0.07207324 -0.13862862
0.041606065 0.120232366
00000000: 0815 3a3e ef86 7b3e 2080 a53d cbe8 9a3e
00000010: 03c4 6bbd 27a9 853e 239b 933d a9f4 0dbe
00000020: 1f6b 2a3d 633c f63d

conv_block_2.2.weight f4 [10, 10, 3, 3]
-0.3657981 -0.19577491 0.3772994 0.14219545 0.48338637 0.25677124 -0.4121958 -0.40063816
-0.231667 0.11672654 0.039073925 0.32752946 0.25897506 0.15596338 -0.022976931 -0.51937985
-0.5143701 -0.43447098 -0.35505122 -0.22351289 -0.2500077 -0.1611402 0.0029768422 8.578976e-06
-0.72085315 -0.25495255 -0.14672971 0.20938553 0.014866476 0.17070647 -0.104148485 -0.10277568
-0.18389623 -0.19840299 -0.13912854 -0.20377392 0.05903582 0.37265098 0.04964306 0.12348915
0.09860366 -0.24004789 -0.047989413 0.06391347 0.09486016 -0.095820956 -0.14620712 -0.047920424
-0.20688668 -0.08324295 -0.13793273 -0.4514517 -0.06500022 -0.08935435 0.16228382 -0.05655652
-0.06215903 -0.41661415 -0.29714125 -0.20586914 0.15766668 -0.11383158 0.13637601 -0.14297129
-0.111890554 -0.013911667 -0.115459785 0.07909032 -0.12574185 -0.015069325 -0.09770965 -0.060046896
-0.28655732 -0.2201504 -0.44001815 0.23582728 0.4215812 0.016441625 0.021797389 -0.29978502
-0.11289061 -0.022508966 0.037848957 -0.0120230345 -0.314891 -0.3025934 -0.2537964 0.23882371
0.22422943 0.17681184 0.67528087 0.23455432 -0.36460605 0.31365722 -0.9366864 -0.47630474
-0.20461816 -0.4092312 0.13228028 0.27675238 -0.41592962 -0.1095991 -0.2372373 -0.49014327
-0.1151125 -0.14147794 0.04620652 0.094353564 -0.22656806 -0.18618591 -0.3530586 -0.24039069
-0.3916089 -0.43207216 -0.23387301 -0.24573831 -0.39968413 -0.05468469 -0.15232576 0.26101848
0.010843352 0.10866722 0.107550785 0.03777245 0.0050801667 -0.085518524 -0.4571151 -0.15876818
0.015167461 -0.8039466 -0.21955386 0.33850324 -0.24147058 0.23544003 0.3352447 -0.16398886
0.17292768 0.13875403 -0.1294495 -0.017391289 -0.24302001 -0.2745728 -0.11237578 -0.30208004
-0.16548766 -0.1892168 -0.071870066 0.110537246 -0.05412315 0.28204986 -0.025367692 0.019228987
0.03791008 0.01560617 0.037598122 0.16535114 -0.20223312 -0.026050527 -0.025600802 -0.1236066
-0.08420295 0.06647515 -0.47599646 0.35442033 -0.028746586 -0.008697738 -0.05274876 -0.20450005
0.17641193 0.17914003 0.038922466 -0.37995893 -0.092553236 0.32272798 -0.52114934 0.112822026
0.013107835 -0.36691475 -0.30229694 -0.46402594 -0.3618409 -0.3636552 -0.34269986 -0.15208022
0.100675255 0.22730291 -0.048009895 0.018474786 0.124912 0.08619072 0.12529911 0.033954214
-0.11732534 -0.15412742 -0.2000723 0.071484864 0.13075659 -0.030093595 0.4452736 0.24140933
0.23286733 -0.09501914 -0.5082697 -0.5957889 -0.124369055 0.15533933 0.19379628 -0.033289585
-0.09547499 -0.09183632 0.17595299 0.089225605 0.18429326 0.18783408 0.0118339155 0.34921476
-0.35798132 -0.0069247577 -0.28101596 -0.52460915 -0.3400361 -0.08485123 -0.0046574413 0.20607942
0.53901184 -0.21274237 0.028494567 -0.13931547 -0.40459546 -0.24335906 -0.32742125 -0.050781846
0.10430832 0.23039392 0.024260458 0.08505827 0.054198425 0.10816248 -0.15581714 -0.22415227
0.05583368 -0.25649413 -0.0026603066 -0.17402537 -0.0014389115 -0.15313399 -0.011557869 -0.009317969
0.072921984 -0.0842127 -0.052851286 0.07464777 -0.18982406 -0.4428996 -0.53224003 -0.3343867
00000000: e349 bbbe 3879 48be 632d c13e af9b 113e
00000010: 6b7e f73e 8577 833e 540b d3be 7220 cdbe
00000020: 1d3a 6dbe 530e ef3d fb0b 203d f1b1 a73e
00000030: 6198 843e ddb4 1f3e 1e3a bcbc 14f6 04bf
00000040: c2ad 03bf fb72 debe 46c9 b5be 90e0 64be
00000050: 0201 80be f001 25be 2017 433b 6cee 0f37
00000060: d589 38bf 2489 82be 5040 16be 2969 563e
00000070: 8592 733c adcd 2e3e cd4b d5bd 0e7c d2bd
00000080: 4b4f 3cbe 272a 4bbe b677 0ebe 1caa 50be
00000090: 8bcf 713d 1ccc be3e 8556 4b3d e1e7 fc3d
000000a0: b7f0 c93d 1dcf 75be 8c90 44bd 11e5 823d
000000b0: 0b46 c23d c73d c4bd 52b7 15be 3548 44bd
000000c0: 1ada 53be 487b aabd 3d3e 0dbe ad24 e7be
000000d0: d61e 85bd 6aff b6bd bb2d 263e cfa7 67bd
000000e0: 789a 7ebd 734e d5be e622 98be 5ccf 52be
000000f0: 6073 213e 8820 e9bd 27a6 0b3e 1167 12be
00000100: e026 e5bd c3ed 63bc 2e76 ecbd 1bfa a13d
00000110: 79c2 00be 55e5 76bc ff1b c8bd bcf3 75bd
00000120: a4b7 92be 1b6f 61be 0f4a e1be b57c 713e
00000130: 7ed9 d73e 96b0 863c 7090 b23c 6c7d 99be
00000140: 3133 e7bd b964 b8bc 8207 1b3d 43fc 44bc
00000150: 6539 a1be 86ed 9abe 9af1 81be 348e 743e
00000160: 669c 653e 2a0e 353e 35df 2c3f 022f 703e
00000170: a5ad babe ae97 a03e aeca 6fbf 37de f3be
00000180: 6c87 51be c086 d1be 7b74 073e 7db2 8d3e
00000190: baf4 d4be 7e75 e0bd 56ee 72be 0ff4 fabe
000001a0: 1ac0 ebbd 98df 10be 0c43 3d3d 713c c13d
000001b0: 7501 68be 85a7 3ebe 19c4 b4be fa28 76be
000001c0: f680 c8be 9038 ddbe 687c 6fbe d3a2 7bbe
000001d0: 66a3 ccbe 0efd 5fbd 49fb 1bbe 37a4 853e
000001e0: 51a8 313c eb8c de3d 9643 dc3d 49b7 1a3d
000001f0: 8777 a63b 5624 afbd fe0a eabe 2094 22be
00000200: f180 783c 72cf 4dbf bad2 60be 4c50 ad3e
00000210: 1044 77be 3117 713e 31a5 ab3e b2ec 27be
00000220: f413 313e 8915 0e3e 698e 04be 2d78 8ebc
00000230: 3dda 78be ce94 8cbe 4625 e6bd 3caa 9abe
00000240: 9975 29be 0cc2 41be 9d30 93bd 5a61 e23d
00000250: 3cb0 5dbd d768 903e e8cf cfbc 1c86 9d3c
00000260: 9a47 1b3d 05b1 7f3c 7d00 1a3d cf51 293e
00000270: 3316 4fbe ea67 d5bc c6b8 d1bc 7525 fdbd
00000280: 9972 acbd 2024 883d cfb5 f3be 9576 b53e
00000290: f67d ebbc f580 0ebc 150f 58bd 7668 51be
000002a0: 54a5 343e 7c70 373e 2a6d 1f3d fa89 c2be
000002b0: 8d8c bdbd 9a3c a53e 0b6a 05bf 3c0f e73d
000002c0: 3fc2 563c 40dc bbbe aac6 9abe cf94 edbe
000002d0: 3643 b9be 0431 babe 5b76 afbe ebba 1bbe
000002e0: d42e ce3d 18c2 683e 06a6 44bd 6f58 973c
000002f0: ddd1 ff3d c384 b03d 694e 003e 9313 0b3d
00000300: 4548 f0bd 94d3 1dbe c1df 4cbe a866 923d
00000310: 0ee5 053e d886 f6bc e7fa e33e 0234 773e
00000320: c674 6e3e 6599 c2bd f71d 02bf 9f85 18bf
00000330: 34b5 febd 4611 1f3e 8872 463e a95a 08bd
00000340: 6488 c3bd ae14 bcbd 052d 343e eabb b63d
00000350: 5fb7 3c3e 9457 403e 0ae3 413c 47cc b23e
00000360: 5449 b7be 14e9 e2bb 53e1 8fbe c94c 06bf
00000370: 3619 aebe 7bc6 adbd 739d 98bb 7c06 533e
00000380: aefc 093f 23d9 59be 706d e93c b7a8 0ebe
00000390: 2327 cfbe 1e33 79be c2a3 a7be a000 50bd
000003a0: 9a9f d53d 62ec 6b3e debd c63c 0833 ae3d
000003b0: 2bff 5d3d 4a84 dd3d 878e 1fbe 2c88 65be
000003c0: dbb1 643d 3353 83be 8a58 2ebb b533 32be
000003d0: dc99 bcba 28cf 1cbe 375d 3dbc 65aa 18bc
000003e0: 1f58 953d b577 acbd 977a 58bd eee0 983d
000003f0: 3d61 42be bdc3 e2be e240 08bf bc34 abbe

conv_block_2.2.bias f4 [10]
-0.19128847 0.17493354 0.026116535 -0.17036517 0.18335938 0.20740627 -0.13753076 0.0089206975
0.5128518 0.21403658
00000000: 20e1 43be c721 333e 58f2 d53c 3574 2ebe
00000010: 90c2 3b3e 4f62 543e ddd4 0cbe 1e28 123c
00000020: 414a 033f 682c 5b3e

classifier.1.weight f4 [10, 490]
0.032110777 -0.052015495 -0.1260797 -0.0068644052 0.004372644 0.0270003 0.022886412 0.07534601
0.08695652 0.051089976 -0.17216001 0.022459313 0.086091414 0.04514869 0.04812037 0.1361822
-0.09231727 -0.37093082 -0.5681759 -0.18182865 0.002269476 -0.004103938 0.007717528 -0.11748593
-0.09624153 -0.0683665 -0.21532387 -0.09060217 -0.033531364 -0.09649677 0.061713476 -0.021512356
-0.27817655 -0.09268549 -0.044516675 -0.051650092 -0.049491372 0.12297917 -0.057703774 0.027526135
0.041795485 -0.0038125757 0.020033926 0.0036639941 0.06608428 -0.018641395 -0.047858007 -0.009052772
-0.02841541 -0.025320396 -0.083032064 -0.07803597 -0.13002412 -0.03764153 0.035875577 -0.012438156
-0.027732138 -0.1757606 -0.12329971 -0.22524196 -0.07173757 -0.08713357 -0.06161871 -0.008228928
0.050568916 0.121562816 0.086756684 -0.43642202 -0.11487634 0.021505978 0.036529016 0.39612815
0.22507016 -0.13352673 0.0926886 0.111799315 -0.041836012 0.04807621 0.30747196 0.056494147
-0.03976555 0.22823122 -0.03836549 -0.025380017 -0.022717455 0.101401046 -0.13915077 -0.12200912
0.0034513448 -0.013889829 -0.049167585 -0.019966919 0.03643592 0.027364366 -0.03470509 -0.00043642765
-0.037667044 0.012502365 0.031163596 0.018795118 0.053288974 0.0016819017 -0.005707196 0.036158327
0.0068582036 0.021854542 0.003766342 -0.033694122 -0.11880291 -0.042364854 0.016092021 -0.037201967
-0.014066991 -0.19199139 -0.13588808 -0.049497522 -0.17554164 0.011480949 -0.020509403 -0.08034665
-0.22362861 -0.22555391 -0.23290998 -0.071326 0.13950212 -0.18131788 -0.06404747 -0.44146207
-0.35970342 -0.32891223 -0.11523802 -0.06127397 -0.11402529 0.12530814 -0.05427881 -0.2177626
0.18028778 0.45743915 0.14526875 -0.010364778 0.034411058 -0.1047896 0.06839502 0.20958918
0.052062377 -0.086137146 -0.021492388 0.0050208285 -0.07974896 -0.007385117 0.0053275954 -0.0068601817
0.19791 0.12616186 -0.037996534 0.13007794 0.058552038 -0.031512443 0.34491348 0.024265382
0.09411071 0.0090583665 0.012046692 -0.14016928 -0.18560891 -0.26445663 -0.12007974 0.09464768
-0.011345461 -0.13983794 0.015956461 -0.21365236 -0.15762225 -0.32607356 -0.016072627 -0.01715321
-0.09679798 -0.102666676 0.4984061 -0.26895916 -0.051170047 -0.067636564 0.0214799 -0.0078631705
0.06844157 0.11474739 -0.002708143 -0.087363355 -0.0423233 -0.0057655782 0.016844084 -0.017798947
-0.03394302 -0.05401673 -0.0527929 -0.00424725 0.006534646 -0.111147486 -0.16855702 -0.18064256
0.026013663 0.07765035 -0.018721301 0.002502739 0.08210456 -0.17656413 0.0989769 0.2711084
0.28839013 0.08474499 0.086330734 -0.1548685 -0.31134623 -0.20429409 -0.05763906 0.044368356
0.16852626 0.0065020584 0.088710085 -0.0662664 0.07737016 -0.61277187 -0.08636563 0.041587707
0.07011002 0.021999914 0.28647572 0.2038839 -0.23548654 -0.16769202 -0.044636082 0.042829674
0.09265715 0.08700271 0.19999407 -0.08107479 -0.004840459 0.014345162 0.03198899 -0.020940574
0.003074409 0.008997404 0.014923595 0.012294378 0.010955933 0.0019276147 0.100028574 -0.08650414
0.13920404 0.2167834 0.11476526 0.06647374 0.037682816 -0.06211263 -0.1396123 -0.2071516
00000000: 9786 033d 330e 55bd 091b 01be ceee e0bb
00000010: 6548 8f3b bc2f dd3c 497c bb3c 024f 9a3d
00000020: 4316 b23d b943 513d b74a 30be 98fc b73c
00000030: b250 b03d d5ed 383d dd19 453d 5973 0b3e
00000040: d610 bdbd a5ea bdbe fa73 11bf 4a31 3abe
00000050: 7dbb 143b 547a 86bb 51e3 fc3b 779c f0bd
00000060: 471a c5bd bc03 8cbd dc7d 5cbe a18d b9bd
00000070: 2f58 09bd 19a0 c5bd 45c7 7c3d ae3a b0bc
00000080: 286d 8ebe e4d1 bdbd 1e57 36bd 0c8f 53bd
00000090: 77b7 4abd 81dc fb3d cb5a 6cbd 7d7e e13c
000000a0: be31 2b3d 68dc 79bb 301e a43c 9f1f 703b
000000b0: 3257 873d d7b5 98bc c206 44bd 1452 14bc
000000c0: 6fc7 e8bc b86c cfbc b70c aabd 53d1 9fbd
000000d0: 0b25 05be 012e 1abd 45f2 123d 68c9 4bbc
000000e0: 822e e3bc 96fa 33be 8f84 fcbd d4a5 66be
000000f0: 26eb 92bd 1673 b2bd e763 7cbd a0d2 06bc
00000100: 5a21 4f3d edf5 f83d 7dad b13d b572 dfbe
00000110: 4944 ebbd 4e2d b03c 739f 153d 4fd1 ca3e
00000120: cb78 663e 3bbb 08be 85d3 bd3d 0af7 e43d
00000130: 3d5c 2bbd 8feb 443d f76c 9d3e 6866 673d
00000140: 34e1 22bd 72b5 693e 2225 1dbd c1e9 cfbc
00000150: f519 babc 5aab cf3d 8a7d 0ebe ebdf f9bd
00000160: f52f 623b 2a92 63bc f363 49bd aa91 a3bc
00000170: d53d 153d 3c2b e03c ed26 0ebd 54d0 e4b9
00000180: c248 1abd b8d6 4c3c cc4a ff3c 38f8 993c
00000190: 8a45 5a3d 4273 dc3a 6e03 bbbb c11a 143d
000001a0: c8ba e03b 4c08 b33c bcd4 763b d902 0abd
000001b0: f14e f3bd c586 2dbd 6ad3 833c 1761 18bd
000001c0: 3d79 66bc 6499 44be 3f26 0bbe eabd 4abd
000001d0: 30c1 33be 971a 3c3c 5603 a8bc c98c a4bd
000001e0: e6fe 64be 9bf7 66be f47f 6ebe 5e13 92bd
000001f0: a5d9 0e3e 65ab 39be 522b 83bd 5107 e2be
00000200: 0c2b b8be 2f67 a8be e901 ecbd 6afa 7abd
00000210: 1786 e9bd c750 003e 7553 5ebd 29fd 5ebe
00000220: 5c9d 383e 7735 ea3e 55c1 143e 08d1 29bc
00000230: 9cf2 0c3d ee9b d6bd b012 8c3d 8c9e 563e
00000240: 5c3f 553d ac68 b0bd ce10 b0bc c385 a43b
00000250: 6c53 a3bd dafe f1bb 1c93 ae3b 60cb e0bb
00000260: eba8 4a3e 9330 013e 41a2 1bbd 2733 053e
00000270: 43d4 6f3d 3113 01bd 8098 b03e 32c8 c63c
00000280: 1ebd c03d 8b69 143c 7d5f 453c 8988 0fbe
00000290: 4310 3ebe dc66 87be 5eec f5bd a5d6 c13d
000002a0: 50e2 39bc ad31 0fbe 20b7 823c afc7 5abe
000002b0: ba67 21be 1df3 a6be beaa 83bc e384 8cbc
000002c0: 053e c6bd e842 d2bd 162f ff3e 04b5 89be
000002d0: af97 51bd 0a85 8abd 9ef6 af3c 87d4 00bc
000002e0: 182b 8c3d ae00 eb3d 1a7b 31bb 8feb b2bd
000002f0: 325b 2dbd 2ded bcbb 9bfc 893c 19cf 91bc
00000300: d607 0bbd a640 5dbd 5e3d 58bd 842c 8bbb
00000310: 9520 d63b 4ba1 e3bd 369a 2cbe 5dfa 38be
00000320: 9b1a d53c 2607 9f3d 6a5d 99bc fe04 243b
00000330: 7026 a83d 3acd 34be 67b4 ca3d b8ce 8a3e
00000340: dfa7 933e c88e ad3d 2bce b03d d995 1ebe
00000350: c668 9fbe 7832 51be ef16 6cbd 98bb 353d
00000360: 2692 2c3e 380f d53b a2ad b53d aeb6 87bd
00000370: 3f74 9e3d 9ede 1cbf 77e0 b0bd df57 2a3d
00000380: d895 8f3d 2a39 b43c f2ac 923e f1c6 503e
00000390: 6223 71be 75b7 2bbe 53d4 36bd 2b6e 2f3d
000003a0: 08c3 bd3d 7a2e b23d 3fcb 4c3e 8a0a a6bd
000003b0: b79c 9ebb f807 6b3c e306 033d 918b abbc
000003c0: 067c 493b d969 133c 1882 743c 5c6e 493c
000003d0: 8380 333c 04a8 fc3a c8db cc3d 1529 b1bd
000003e0: 818b 0e3e 78fc 5d3e 0c0a eb3d 6223 883d
000003f0: 4c59 1a3d d069 7ebd 87f6 0ebe 8d1f 54be

classifier.1.bias f4 [10]
0.050100558 0.70069885 0.19204323 -0.23994274 -0.05847006 -0.16454397 -0.112870105 0.17697924
-0.30360124 -0.26140496
00000000: 3e36 4d3d 0061 333f fba6 443e 8db3 75be
00000010: 4d7e 6fbd 377e 28be 7128 e7bd 0c3a 353e
00000020: 9f71 9bbe dfd6 85be
