checkpoints/model_epoch_1.pth (torch, 34447 bytes, 10 tensors)

conv_block_1.0.weight f4 [10, 1, 3, 3]
0.0127805015 -0.11390418 -0.019880801 -0.2379958 -0.09125873 0.037472058 0.08549054 0.10158521
-0.034177467 -0.11750796 0.1983416 -0.06996918 -0.07837745 0.37635744 0.05689639 -0.29620698
0.20467629 0.31005332 0.43727198 0.20931368 0.32549754 -0.3806908 0.3487644 -0.23916128
-0.4037552 -0.2522038 0.23025873 0.20722784 0.13599211 0.23601358 0.074358515 -0.3861169
-0.07750408 0.051976085 0.2187907 -0.3066403 -0.16631249 -0.30666655 -0.033361804 0.25957513
0.55126584 0.04155645 0.45206454 0.5887135 0.30251598 -0.23694068 0.20089723 -0.17284936
-0.31663844 0.09063619 0.075190045 0.27413157 -0.1673922 0.25786227 0.084481716 0.31178805
0.10515736 -0.30251157 0.24970911 -0.23650266 -0.14898214 0.34978902 0.061521787 0.07029267
-0.20472293 -0.2788676 -0.22358876 -0.16298047 -0.09244141 0.17209217 0.06149555 -0.24080408
0.16834505 -0.19923554 0.20604464 0.36239433 0.19297728 0.012340836 0.30023775 -0.2107348
0.021071434 0.07323724 0.1861977 -0.2173711 0.113081805 -0.010489823 -0.12235661 -0.1829808
-0.20109446 -0.33322597
00000000: 4f65 513c 9846 e9bd 10dd a2bc 2cb5 73be
00000010: dbe5 babd 4d7c 193d aa15 af3d e80b d03d
00000020: acfd 0bbd 03a8 f0bd 0f1a 4b3e 004c 8fbd
00000030: 5b84 a0bd ecb1 c03e 300c 693d 71a8 97be
00000040: a996 513e 4fbf 9e3e 1de2 df3e 5356 563e
00000050: 9da7 a63e e8e9 c2be 3f91 b23e b2e6 74be
00000060: 00b9 cebe db20 81be f2c8 6b3e 8933 543e
00000070: 8441 0b3e 8bad 713e 4749 983d 1db1 c5be
00000080: 76ba 9ebd e0e4 543d ab0a 603e f5ff 9cbe
00000090: d24d 2abe 6603 9dbe 63a6 08bd 08e7 843e
000000a0: c21f 0d3f 1937 2a3d 0175 e73e eeb5 163f
000000b0: 60e3 9a3e 94a0 72be 01b8 4d3e 6cff 30be
000000c0: 6f1e a2be 779f b93d 3dfd 993d f95a 8c3e
000000d0: dc68 2bbe 8606 843e c004 ad3d afa2 9f3e
000000e0: be5c d73d cce2 9abe bfb3 7f3e c12d 72be
000000f0: c68e 18be 8c17 b33e 45fe 7b3d 9af5 8f3d
00000100: e3a2 51be bcc7 8ebe 74f4 64be 5ae4 26be
00000110: ec51 bdbd ee38 303e c2e2 7b3d 5895 76be
00000120: a562 2c3e 6704 4cbe 5efd 523e c08b b93e
00000130: d69b 453e 3831 4a3c c3b8 993e ddca 57be
00000140: 009e ac3c 68fd 953d 9caa 3e3e 8896 5ebe
00000150: 6f97 e73d 82dd 2bbc 1a96 fabd 525f 3bbe
00000160: b5eb 4dbe 989c aabe

conv_block_1.0.bias f4 [10]
0.0012184362 -0.11090891 0.12215864 -0.021528702 0.04373405 -0.34515834 -0.056407616 -0.1332806
-0.004178267 0.20544331
00000000: efb3 9f3a 3624 e3bd 4f2e fa3d f65c b0bc
00000010: 7a22 333d 98b8 b0be ac0b 67bd b67a 08be
00000020: d8e9 88bb bb5f 523e

conv_block_1.2.weight f4 [10, 10, 3, 3]
0.060603626 -0.0575132 0.0975577 0.09421721 0.035366256 0.03945571 0.02966682 -0.0027325896
0.06374446 -0.05479856 -0.072415836 0.050962336 0.071707234 -0.0756362 -0.13097829 -0.10529704
-0.104718275 0.012612613 -0.07813036 -0.09987637 0.05154637 -0.04300942 0.0049232533 0.14982794
0.10608892 0.11158342 -0.010460803 -0.03938679 0.04455161 0.00020363025 -0.08130503 -0.09070667
0.136028 -0.046729572 0.07740959 -0.060786 0.05130735 0.13590172 0.11176626 -0.19383933
-0.12755463 -0.022351777 -0.07260235 -0.05886874 -0.06994832 0.010052054 0.0025215035 0.06614128
-0.0047009825 0.034672674 0.065344356 -0.049829617 -0.09426637 -0.0994729 -0.03881401 -0.00033673976
0.03554965 0.0024341643 -0.0031842566 0.049952544 0.043762412 0.01866207 -0.09817723 -0.09463286
-0.019908955 0.052970897 -0.02566987 0.020503145 -0.10026209 0.04469081 -0.06725352 0.010062156
-0.1052655 0.1012196 0.12456242 -0.06361068 0.015792312 -0.032359295 -0.15958153 -0.064001106
-0.10050941 0.04017876 0.022536084 0.00913691 0.08389079 0.07987772 -0.08359788 0.08651118
0.03761839 0.054247007 0.023557553 -0.085763596 0.08189226 -0.03056532 0.053300533 0.09118435
-0.020922333 0.08922346 0.05419061 -0.0822134 -0.15105228 0.012456515 0.044925105 -0.084771335
-0.052335966 -0.040343933 -0.020714803 0.014964024 -0.0059268014 -0.08582262 -0.22170088 -0.022338787
-0.0032729495 -0.105725385 0.020660285 -0.005867622 0.01385153 0.06989448 0.018638134 0.003289724
-0.0924234 0.09901925 -0.008463764 -0.009697727 -0.07568753 0.0019351663 0.1029596 0.028311899
-0.027182166 0.28410465 0.21607964 0.18112238 -0.0041505173 -0.022354031 0.005469377 0.07801702
0.080839306 0.06599478 0.07830583 0.008735896 -0.092286 -0.08507645 -0.06194492 0.031200709
0.053380195 -0.11318751 -0.12031063 -0.023722656 -0.07389458 -0.03612626 -0.03463675 -0.029711535
0.016335081 -0.04409729 -0.0049734716 0.004635866 -0.028796898 -0.030988052 -0.08150419 0.0028942258
0.096569575 -0.01630948 -0.08087306 -0.12481965 -0.1693901 0.05439101 0.08857548 0.049230408
0.09995094 0.1566263 0.06595068 -0.09767231 -0.08566204 -0.14399001 -0.088650666 0.004748657
0.077142484 0.00014842993 -0.056696795 -0.06518096 -0.056711484 0.062464755 0.080369815 -0.016264407
-0.029964367 0.04447575 -0.025919128 0.092006594 -0.0010844234 0.07050804 -0.05190122 0.13516249
0.010255476 0.13325164 0.11534594 -0.034543518 -0.095195994 0.18079561 0.044347104 -0.06218038
0.07382594 0.07215597 -0.029496422 -0.03749905 0.024646357 0.15525849 0.20922868 0.03622617
-0.09592574 -0.09093746 0.08000851 -0.039276674 0.016562527 -0.050801486 0.024834225 0.059736937
0.10618266 0.25914508 0.2941007 -0.06308273 0.041074418 0.27533823 -0.30552733 -0.36449158
-0.13368732 -0.081692785 -0.06058956 -0.07979106 0.08062423 -0.05285331 -0.0059922007 -0.0015220935
-0.08825537 0.07752067 0.042332258 -0.08390186 0.04844117 -0.09884542 0.030588828 0.0483255
-0.025173461 -0.053811852 0.084278405 0.05733173 -0.044870198 0.09102824 -0.029511794 -0.030307576
-0.001567271 0.09805775 0.091613516 0.071243666 -0.034862876 0.033779163 -0.031123485 -0.0023611384
00000000: 823b 783d f692 6bbd 55cc c73d f4f4 c03d
00000010: 35dc 103d 509c 213d d507 f33c 3f15 33bb
00000020: 758c 823d 7474 60bd c14e 94bd e2bd 503d
00000030: 3edb 923d 27e7 9abd 2c1f 06be f9a5 d7bd
00000040: 8976 d6bd 22a5 4e3c cf02 a0bd fb8b ccbd
00000050: 4922 533d a52a 30bd 3e53 a13b 7f6c 193e
00000060: 2645 d93d d985 e43d ca63 2bbc 0b54 21bd
00000070: c07b 363d 9485 5539 4083 a6bd 6bc4 b9bd
00000080: ed4a 0b3e 8267 3fbd eb88 9e3d befa 78bd
00000090: a827 523d d229 0b3e b5e5 e43d d17d 46be
000000a0: ae9d 02be 131b b7bc 8ab0 94bd 5920 71bd
000000b0: 1141 8fbd 5fb1 243c cf3f 253b 1475 873d
000000c0: b30a 9abb ef04 0e3d 43d3 853d 241a 4cbd
000000d0: ba0e c1bd 73b8 cbbd 70fb 1ebd 728c b0b9
000000e0: 839c 113d 8086 1f3b f6ae 50bb 0a9b 4c3d
000000f0: 3740 333d 33e1 983c 2511 c9bd dfce c1bd
00000100: 1b18 a3bc 03f8 583d 9f49 d2bc 36f6 a73c
00000110: 3656 cdbd b60d 373d 37bc 89bd bedb 243c
00000120: 7095 d7bd 394c cf3d 951a ff3d 5146 82bd
00000130: e15e 813c 2e8b 04bd 5769 23be 0313 83bd
00000140: e1d7 cdbd 7c92 243d 989d b83c fab2 153c
00000150: efce ab3d ee96 a33d 5e35 abbd c62c b13d
00000160: be15 1a3d 1c32 5e3d c5fb c03c d3a4 afbd
00000170: 21b7 a73d 1f64 fabc a951 5a3d dcbe ba3d
00000180: 5065 abbc caba b63d f9f6 5d3d 805f a8bd
00000190: 73ad 1abe 6916 4c3c 6303 383d 989c adbd
000001a0: 3d5e 56bd ae3f 25bd 17b2 a9bc aa2b 753c
000001b0: 9d35 c2bb c5c3 afbd 8e05 63be d5ff b6bc
000001c0: fb7e 56bb 8d86 d8bd c23f a93c 2e45 c0bb
000001d0: 87f1 623c d624 8f3d 00af 983c 6998 573b
000001e0: 7b48 bdbd 9bca ca3d 99ab 0abc 37e3 1ebc
000001f0: 1002 9bbd 68a5 fd3a 7cdc d23d 5bee e73c
00000200: 22ad debc 2a76 913e fb43 5d3e 2578 393e
00000210: 1001 88bb cd1f b7bc 7638 b33b 63c7 9f3d
00000220: 148f a53d 4528 873d cf5e a03d 0121 0f3c
00000230: 7100 bdbd 903c aebd f5b9 7dbd a198 ff3c
00000240: 31a5 5a3d dace e7bd 6b65 f6bd 0456 c2bc
00000250: 0b56 97bd 21f9 13bd 44df 0dbd 9b65 f3bc
00000260: 26d1 853c 5c9f 34bd 81f8 a2bb 76e8 973b
00000270: 79e7 ebbc a8da fdbc abeb a6bd 0dad 3d3b
00000280: 45c6 c53d 759b 85bc c6a0 a5bd 72a1 ffbd
00000290: 9974 2dbe 1cc9 5e3d 1067 b53d d3a5 493d
000002a0: 14b3 cc3d a562 203e 2611 873d 6c08 c8bd
000002b0: 946f afbd 1e72 13be 7b8e b5bd 9f9a 9b3b
000002c0: e1fc 9d3d dba3 1b39 e63a 68bd 987d 85bd
000002d0: 4d4a 68bd 0bdb 7f3d ee98 a43d ef3c 85bc
000002e0: d577 f5bc 342c 363d 5a54 d4bc f46d bc3d
000002f0: 3623 8eba 8566 903d 6096 54bd 0968 0a3e
00000300: 9606 283c 1e73 083e 7e3a ec3d 817d 0dbd
00000310: 1ef6 c2bd 7c22 393e 4fa5 353d dbb0 7ebd
00000320: 0e32 973d 82c6 933d 7ba2 f1bc 9b98 19bd
00000330: 28e7 c93c 15fc 1e3e 0b40 563e e461 143d
00000340: b774 c4bd 6b3d babd 80db a33d 94e0 20bd
00000350: 23ae 873c 3815 50bd 2571 cb3c b8ae 743d
00000360: 4b76 d93d aaae 843e 5e94 963e 8531 81bd
00000370: a63d 283d 22f9 8c3e 146e 9cbe a49e babe
00000380: 54e5 08be 8c4e a7bd c22c 78bd 7f69 a3bd
00000390: 511e a53d b67c 58bd 395a c4bb fc80 c7ba
000003a0: 3bbf b4bd 28c3 9e3d 9764 2d3d bdd4 abbd
000003b0: 406a 463d 786f cabd 6c95 fa3c f6f0 453d
000003c0: 9338 cebc d169 5cbd 289a ac3d add4 6a3d
000003d0: d0c9 37bd 046d ba3d b8c2 f1bc 9847 f8bc
000003e0: e36c cdba 80d2 c83d de9f bb3d 33e8 913d
000003f0: 60cc 0ebd 055c 0a3d aef6 febc 54bd 1abb

conv_block_1.2.bias f4 [10]
0.10150699 0.05502367 -0.03373999 -0.039372157 0.0012403808 -0.04923645 -0.06777107 0.07727044
0.03762052 0.20847659
00000000: e6e2 cf3d 8060 613d f232 0abd b344 21bd
00000010: 4694 a23a 29ac 49bd 8fcb 8abd f73f 9e3d
00000020: f917 1a3d e37a 553e

conv_block_2.0.weight f4 [10, 10, 3, 3]
-0.01710526 0.05203714 0.18072316 -0.06354566 0.047616143 -0.006708591 -0.06210869 -0.09056322
-0.035041437 -0.064994454 -0.18709514 -0.2737129 0.122523926 -0.12906338 0.021550134 -0.013622758
0.056148596 0.37075266 -0.040952742 -0.109371535 0.07299261 -0.04898599 -0.28035423 -0.08206665
0.014317141 0.08948676 0.13797435 0.13437542 -0.18164389 -0.024057452 0.041051686 -0.09378584
-0.109339595 0.059905723 -0.05294919 0.007635102 0.010110529 0.047767833 -0.015823595 0.055700567
0.0073887277 0.1663548 0.24624844 0.04494526 0.022974286 0.068779536 -0.13746376 -0.05690146
0.10495257 -0.21182373 -0.22796434 0.12011113 -0.05871288 0.16501059 -0.12904172 -0.4165745
-0.36593747 0.0073576355 -0.21119533 0.12376592 -0.0061711534 0.12764232 0.44819707 -0.11850898
-0.2319574 -0.22811177 -0.051584173 -0.17949985 0.22989905 -0.00790258 0.0795218 0.26542726
0.032707408 -0.03296366 0.03569813 0.08691363 -0.0532179 -0.029078947 0.03255157 0.013513007
0.04815856 0.16283667 0.2854466 0.19181524 -0.043787077 -0.015722495 -0.038782768 -0.1375885
0.0070834192 -0.045451775 -0.005653301 0.101594605 0.05672339 0.07434693 0.040945 0.11450841
0.012745412 6.8399554e-06 0.08261107 0.056975823 -0.05671625 -0.11953802 -0.21670535 -0.2774747
-0.21845864 0.05594455 -0.028726142 0.1908572 0.31635 0.20914432 -0.04745633 -0.10736401
-0.16863474 -0.27680278 -0.056710493 -0.14593661 -0.045092467 0.16088906 0.024732068 -0.01004187
0.07105416 0.022828477 -0.026935993 0.1676878 -0.014931564 -0.08794269 -0.22668046 0.07031726
0.045765474 0.0033592442 -0.08912831 0.03161683 0.01137109 -0.058874972 0.02941863 0.33709282
0.13384447 -0.023594834 -0.08458385 -0.113287464 -0.25255635 0.1530673 -0.070390455 0.008554475
0.30879775 0.016933287 -0.21838638 0.0011774102 -0.29990292 -0.1978479 0.22976759 -0.017363824
0.15183905 -0.19617474 -0.16757986 -0.14607765 -0.06096744 -0.05443683 -0.1295333 0.008326422
0.09903299 0.2009166 0.14244406 0.060885802 0.09346041 -0.036041 -0.10157378 0.07268179
0.0015589981 0.06904951 0.054578915 0.1401713 0.08235261 0.20415163 0.06279512 0.1837997
0.15190884 -0.11690223 0.034333058 0.099421956 0.14193873 0.051370185 -0.0039856974 -0.057260282
0.02244617 0.13416345 0.04343078 -0.021720493 -0.012128911 0.090233244 0.048461586 0.38762376
-0.18605652 -0.17157155 0.09567499 0.028947555 -0.28038532 0.0013939434 0.032793567 0.06925498
0.26158005 0.023181384 0.25658306 0.27535677 -0.325412 -0.31654146 -0.10749909 -0.013530023
-0.104292825 0.06850378 -0.068315096 -0.030932635 -0.10643665 -0.07618416 -0.21737996 -0.11779797
0.1421073 0.09146817 0.06510649 0.047771197 -0.04505491 -0.09865038 0.1941103 -0.071103945
-0.22439589 0.0718616 0.04406773 0.3043381 -0.12932259 0.020536646 0.12762885 -0.1999782
-0.27324525 -0.18281215 0.009939153 0.15160452 0.49971876 -0.31234416 -0.18739828 0.09530634
-0.18796389 -0.48766175 0.22456752 -0.123771265 0.03998422 0.08691924 -0.12477033 -0.21633561
-0.2754205 0.031767264 0.057673413 0.30054948 0.04516907 0.021776065 -0.013844301 0.08044031
00000000: 5520 8cbc e524 553d 7e0f 393e 3a24 82bd
00000010: 2509 433d bdd3 dbbb af65 7ebd 3679 b9bd
00000020: 9c87 0fbd d01b 85bd de95 3fbe 1924 8cbe
00000030: d3ed fa3d 3129 04be e889 b03c fd31 5fbc
00000040: 12fc 653d 4bd3 bd3e 10be 27bd 2ffe dfbd
00000050: 267d 953d 89a5 48bd 978a 8fbe 8f12 a8bd
00000060: 7192 6a3c d644 b73d 2649 0d3e b699 093e
00000070: db00 3abe 2214 c5bc d025 283d ca12 c0bd
00000080: 70ed dfbd b45f 753d 40e1 58bd e12f fa3b
00000090: a2a6 253c 34a8 433d 7ca0 81bc 4726 643d
000000a0: 241d f23b ea58 2a3e 8d28 7c3e 8518 383d
000000b0: 9234 bc3c 49dc 8c3d 4dc3 0cbe 8111 69bd
000000c0: 5ff1 d63d 52e8 58be 7c6f 69be d3fc f53d
000000d0: eb7c 70bd 89f8 283e 8323 04be 4149 d5be
000000e0: 285c bbbe 5218 f13b 9743 58be fd78 fd3d
000000f0: 6337 cabb abb4 023e 167a e53e d6b4 f2bd
00000100: 3e86 6dbe 2296 69be ed49 53bd cfce 37be
00000110: a86a 6b3e d379 01bc 53dc a23d 15e6 873e
00000120: 34f8 053d e704 07bd 3438 123d c6ff b13d
00000130: 03fb 59bd f936 eebc cc54 053d a965 5d3c
00000140: e941 453d a8be 263e 0f26 923e 376b 443e
00000150: 145a 33bd 76cc 80bc aeda 1ebd 00e4 0cbe
00000160: 071c e83b a42b 3abd 533f b9bb d510 d03d
00000170: c956 683d 3443 983d f2b5 273d 6383 ea3d
00000180: 22d2 503c c582 e536 fe2f a93d 7b5f 693d
00000190: 4c4f 68bd 59d0 f4bd 02e8 5dbe 2a11 8ebe
000001a0: 9fb3 5fbe 1d26 653d 1653 ebbc 1270 433e
000001b0: a1f8 a13e ee29 563e 9261 42bd a9e1 dbbd
000001c0: 96ae 2cbe 18b9 8dbe 4349 68bd 6870 15be
000001d0: e1b2 38bd 1ac0 243e e89a ca3c a886 24bc
000001e0: d884 913d c902 bb3c dfa8 dcbc 5ab6 2b3e
000001f0: 85a3 74bc 4c1b b4bd ec1e 68be 7f02 903d
00000200: 9474 3b3d c426 5c3b e788 b6bd a680 013d
00000210: cf4d 3a3c e226 71bd 57ff f03c 6e97 ac3e
00000220: 860e 093e f449 c1bc 4c3a adbd 4203 e8bd
00000230: 114f 81be adbd 1c3e df28 90bd 1228 0c3c
00000240: bd1a 9e3e adb7 8a3c aea0 5fbe 5553 9a3a
00000250: e08c 99be a498 4abe 3248 6b3e 943e 8ebc
00000260: b27b 1b3e 08e2 48be 0e9a 2bbe 6195 15be
00000270: ffb8 79bd 27f9 5ebd 61a4 04be 8c6b 083c
00000280: cfd1 ca3d 15bd 4d3e dbdc 113e 6463 793d
00000290: 2c68 bf3d ba9f 13bd ea05 d0bd 31da 943d
000002a0: 4c57 cc3a d469 8d3d 248e 5f3d 1189 0f3e
000002b0: 7ca8 a83d 200d 513e ba9a 803d fd35 3c3e
000002c0: fe8d 1b3e 706a efbd d2a0 0c3d bd9d cb3d
000002d0: 6358 113e 8b69 523d 749a 82bb c289 6abd
000002e0: 08e1 b73c 2562 093e 79e4 313d 2def b1bc
000002f0: 57b8 46bc 35cc b83d a87f 463d 9f76 c63e
00000300: 9a85 3ebe 74b0 2fbe 40f1 c33d 6c23 ed3c
00000310: aa8e 8fbe fbb4 b63a 8c52 063d 8ed5 8d3d
00000320: d2ed 853e e3e6 bd3c db5e 833e 90fb 8c3e
00000330: 679c a6be b911 a2be 7c28 dcbd 08ad 5dbc
00000340: 7a97 d5bd b64b 8c3d c9e8 8bbd 7066 fdbc
00000350: 75fb d9bd 7106 9cbd da98 5ebe 1040 f1bd
00000360: 9384 113e aa53 bb3d 8d56 853d bbab 433d
00000370: 7f8b 38bd 3609 cabd dac4 463e f29e 91bd
00000380: 09c8 65be 2d2c 933d 5d80 343d 34d2 9b3e
00000390: 246d 04be 783c a83c 23b1 023e 16c7 4cbe
000003a0: cde6 8bbe 1c33 3bbe d4d7 223c 373e 1b3e
000003b0: 23db ff3e 93eb 9fbe 56e5 3fbe f82f c33d
000003c0: 9b79 40be cdae f9be 07f5 653e ca7b fdbd
000003d0: 7ec6 233d b702 b23d 9687 ffbd 1587 5dbe
000003e0: ea03 8dbe 641e 023d f53a 6c3d 9fe1 993e
000003f0: 3403 393d b863 b23c 35d3 62bc e4bd a43d

conv_block_2.0.bias f4 [10]
0.15609933 0.19520822 -0.12442022 0.09818859 0.06584609 -0.030702474 -0.06932485 -0.051725812
0.002850371 0.12633592
00000000: 81d8 1f3e aae4 473e 07d0 febd 1917 c93d
00000010: 51da 863d c183 fbbc 30fa 8dbd 72de 53bd
00000020: 4acd 3a3b 345e 013e

conv_block_2.2.weight f4 [10, 10, 3, 3]
-0.032763187 -0.06086144 0.13259609 0.14071691 0.21140228 0.17554954 -0.18486784 -0.1612156
-0.11604189 0.0077203005 0.012958733 0.04509583 0.030824224 0.009821751 -0.023590721 -0.17053115
-0.08114795 -0.20161343 -0.12501642 -0.09910713 -0.19691458 -0.039209202 0.03694312 0.07108157
-0.20393737 -0.030619392 -0.13267612 0.0564232 -0.08282326 0.062052187 -0.05171065 0.011939562
-0.0729844 -0.04521094 0.045258634 -0.02015199 -0.06140198 0.17561823 -0.040198427 -0.0729196
0.036214516 -0.073788635 0.029826265 -0.005187991 0.13442722 -0.023342611 -0.029954841 -0.040573917
-0.1314837 -0.05004056 -0.07021559 -0.07664052 0.0129330745 -0.0025968102 0.06264029 -0.07134796
0.08530477 -0.05531753 -0.041351035 -0.0123282205 0.13380933 -0.043740664 0.063555114 -0.0705333
-0.05011619 0.021335343 -0.07165791 0.10335173 -0.044436973 0.030580811 -0.06746748 -0.08198888
-0.11128105 -0.14951676 -0.09161101 0.044887215 0.13790593 0.07657552 0.13243435 -0.06086121
-0.101658136 0.03696678 -0.050311718 -0.06368675 0.032983657 -0.042520292 -0.06973236 -0.023282887
-0.033041067 0.043804538 0.55817676 0.2187347 -0.13461865 0.05343965 -0.58799213 -0.25013503
-0.0660655 -0.18501522 0.099355176 -0.16424239 -0.31269413 -0.15527126 -0.20101449 -0.2675062
0.014156052 -0.13229649 -0.09672978 -0.0634498 -0.108428985 -0.19835556 -0.22121976 -0.048867323
-0.28276047 -0.35746333 -0.18668036 -0.10986815 -0.20547901 0.031678397 -0.14237459 -0.019753003
0.024661558 0.077974625 -0.055915184 0.05680432 0.08710802 0.004256856 -0.24443898 -0.106315866
0.034940284 -0.47853133 -0.16886273 0.36704358 -0.20013902 0.24284883 0.17543122 -0.1335481
-0.06114666 -0.0780798 -0.05857886 -0.08992243 -0.17141867 -0.09236253 -0.006915548 -0.18322118
-0.06824414 0.013067684 0.022041555 0.013243262 -0.08058539 0.11115043 -0.12880617 -0.030021168
0.092288725 -0.012428469 -0.039076835 0.07414983 -0.059496723 -0.043167915 0.0120578315 0.040668372
-0.042143054 0.036729336 -0.28734264 0.2741337 -0.016992426 -0.112332076 0.11029968 -0.06824446
0.019207748 0.27136815 0.25230744 -0.21187541 -0.05374816 0.08890043 -0.39670777 0.11879527
0.08835065 -0.33293292 -0.25693473 -0.45484325 -0.26549068 -0.22479534 -0.20939258 0.034350302
0.11527154 0.03480597 -0.05228428 -0.048892017 0.14068633 0.0077469917 0.066745624 0.071235925
0.07064684 0.012213852 0.0009666683 0.04743314 0.10383293 -0.0012029224 0.31753066 0.17556381
0.25156555 -0.06575267 -0.189153 -0.30858058 -0.1113056 -0.06929019 -0.12181009 0.022942705
-0.090822704 -0.072600774 0.09955296 0.054757874 0.038616396 0.07038258 0.03037353 0.11313123
-0.16723754 -0.029427478 -0.029020265 -0.2812342 -0.23052531 -0.1580514 0.006426286 0.060132857
0.18269494 0.015625276 -0.010867687 0.03498966 -0.22947797 -0.11734476 -0.1627901 -0.044495016
0.014762764 0.13523968 0.008311088 0.050805993 -0.098564506 0.06137387 -0.064996205 -0.10141455
-0.12673841 -0.11197853 0.06389541 -0.05521375 -0.08165647 -0.049657505 -0.035941727 0.010623895
0.04579244 -0.009211116 -0.07368983 -0.04651096 -0.120910525 -0.15412895 -0.21563809 -0.24314226
00000000: b132 06bd d849 79bd 45c7 073e 1818 103e
00000010: d779 583e 42c3 333e ff4d 3dbe b415 25be
00000020: 5fa7 edbd 93fa fc3b de50 543c 68b6 383d
00000030: 1583 fc3c 69eb 203c 5441 c1bc b89f 2ebe
00000040: e530 a6bd c073 4ebe 4e04 00be aef8 cabd
00000050: faa3 49be d499 20bd ab51 173d 3793 913d
00000060: f5d4 50be 85d5 fabc 40dc 07be 031c 673d
00000070: 3e9f a9bd 6f2a 7e3d 8cce 53bd 279e 433c
00000080: d878 95bd 1b2f 39bd 1e61 393d c915 a5bc
00000090: a580 7bbd 44d5 333e 1ba7 24bd df56 95bd
000000a0: ac55 143d 7f1e 97bd 3656 f43c 0600 aabb
000000b0: 4aa7 093e 0139 bfbc db63 f5bc d630 26bd
000000c0: aaa3 06be 55f7 4cbd 31cd 8fbd b4f5 9cbd
000000d0: 3fe5 533c 3f2f 2abb 8d49 803d e11e 92bd
000000e0: 44b4 ae3d a294 62bd b45f 29bd 4efc 49bc
000000f0: 5005 093e 6929 33bd 2f29 823d c373 90bd
00000100: a246 4dbd 75c7 ae3c 62c1 92bd 12aa d33d
00000110: 8b03 36bd 9c84 fa3c 642c 8abd c9e9 a7bd
00000120: 52e7 e3bd ec1a 19be 8e9e bbbd a8db 373d
00000130: 3637 0d3e a0d3 9c3d df9c 073e 9b49 79bd
00000140: 2432 d0bd 7a6a 173d a913 4ebd 336e 82bd
00000150: df19 073d c229 2ebd d7cf 8ebd c1bb bebc
00000160: 1256 07bd 636c 333d ace4 0e3f fdfb 5f3e
00000170: 79d9 09be 89e3 5a3d a786 16bf b311 80be
00000180: 594d 87bd a174 3dbe ba7a cb3d 282f 28be
00000190: 7219 a0be 6eff 1ebe bed6 4dbe 93f6 88be
000001a0: c9ee 673c bb78 07be 431a c6bd f8f1 81bd
000001b0: 0410 debd b81d 4bbe 6f87 62be 1a29 48bd
000001c0: fbc5 90be 6f05 b7be 2329 3fbe 8d02 e1bd
000001d0: 1769 52be 35c1 013d a5ca 11be 0dd1 a1bc
000001e0: 0907 ca3c 29b1 9f3d 5207 65bd a6ab 683d
000001f0: b165 b23d 197d 8b3b 364e 7abe 22bc d9bd
00000200: 8b1d 0f3d 0f02 f5be 5aea 2cbe 23ed bb3e
00000210: 3ef1 4cbe 5dad 783e 3ea4 333e d5c0 08be
00000220: ec74 7abd 4de8 9fbd 63f0 6fbd 4029 b8bd
00000230: 6088 2fbe 9128 bdbd d29b e2bb 559e 3bbe
00000240: 95c3 8bbd d719 563c 7e90 b43c 44fa 583c
00000250: f409 a5bd d6a2 e33d c4e5 03be f4ee f5bc
00000260: df01 bd3d c7a0 4bbc 080f 20bd dedb 973d
00000270: d6b2 73bd d7d0 30bd 368e 453c e193 263d
00000280: 329e 2cbd 8071 163d 931e 93be 415b 8c3e
00000290: b333 8bbc 5c0e e6bd cce4 e13d c0c3 8bbd
000002a0: 9159 9d3c c4f0 8a3e 712e 813e def5 58be
000002b0: 0827 5cbd 6e11 b63d 481d cbbe ef4a f33d
000002c0: 30f1 b43d 2f76 aabe f38c 83be 37e1 e8be
000002d0: 65ee 87be c030 66be 026b 56be e7b2 0c3d
000002e0: 7c13 ec3d b490 0e3d 0b28 56bd ff42 48bd
000002f0: 1410 103e 7ada fd3b eeb1 883d 24e4 913d
00000300: 4aaf 903d 9c1c 483c 0368 7d3a 4149 423d
00000310: 5ca6 d43d 61ab 9dba 6193 a23e 00c7 333e
00000320: 33cd 803e 56a9 86bd 53b1 41be 46fe 9dbe
00000330: 31f4 e3bd 04e8 8dbd 9277 f9bd 57f2 bb3c
00000340: 4101 babd b7af 94bd 6ce2 cb3d cb49 603d
00000350: 3a2c 1e3d be24 903d e9d1 f83c 59b1 e73d
00000360: 5140 2bbe e511 f1bc e8bb edbc eefd 8fbe
00000370: d40e 6cbe 3ad8 21be 9893 d23b df4d 763d
00000380: 6214 3b3e 9400 803c 620e 32bc 5151 0f3d
00000390: 46fc 6abe 7352 f0bd 73b2 26be 6840 36bd
000003a0: 85df 713c 457c 0a3e 3b2b 083c f219 503d
000003b0: 30dc c9bd 2b63 7b3d bb1c 85bd 6eb2 cfbd
000003c0: b7c7 01be 0055 e5bd 99db 823d d027 62bd
000003d0: 823b a7bd ab65 4bbd a237 13bd d80f 2e3c
000003e0: db90 3b3d 38ea 16bc b2ea 96bd 4782 3ebd
000003f0: f09f f7bd fbd3 1dbe 3bd0 5cbe 49fa 78be

conv_block_2.2.bias f4 [10]
-0.1836452 0.012732008 -0.0063010342 -0.21780936 0.076346405 0.016239328 -0.13254453 0.07329913
0.14186001 0.037311237
00000000: 7d0d 3cbe e999 503c e878 cebb 6b09 5fbe
00000010: 815b 9c3d 5708 853c c1b9 07be db1d 963d
00000020: c043 113e abd3 183d

classifier.1.weight f4 [10, 490]
0.03704685 -0.009704575 0.021871615 0.044297986 0.053325195 -0.0064152163 0.023217615 0.042106878
-0.008627842 -0.0010493911 -0.027517602 -0.017922336 -0.012491807 -0.0144518465 -0.018110793 0.06833487
-0.02864047 -0.052503455 -0.13867794 -0.03207984 -0.011140867 -0.022016896 -0.028423388 -0.022395598
-0.06940364 -0.07459907 -0.06770881 -0.04743489 0.020261351 -0.075947724 0.0017212017 -0.010712392
-0.021316266 -0.0058018286 -0.025309278 -0.019362153 -0.033702757 0.009411455 -0.033853278 0.007245956
0.009803484 -0.005767561 0.02100207 -0.010017664 0.04169481 0.007615393 -0.019279119 -0.00018614331
-0.03203439 -0.024614608 -0.03150076 -0.02561334 0.0055288686 0.021643842 0.04741502 0.010112101
-0.029596655 -0.07534471 -0.1610519 -0.20194079 -0.018572852 -0.017982034 -0.035357896 0.0036129584
0.017533803 -0.0053462125 -0.08230339 -0.23456815 0.045878302 -0.0076233763 0.013731158 0.21171333
0.1451023 -0.13174431 -0.04774714 0.14541483 -0.023733003 -0.0017572122 0.17913534 0.22455733
-0.14289619 0.062097292 0.016556492 -0.020883482 -0.02472222 0.015715478 -0.097279854 -0.052197147
-0.052122016 -0.028222866 -0.045199048 -0.02262373 0.037512418 0.026623247 -0.02919897 -0.0014372566
-0.036573924 0.019682521 0.0035465108 0.018030645 0.026525496 -0.012541193 -0.021785272 0.03268761
-0.00070203614 -0.040458854 -0.022084182 -0.045498263 -0.010826911 -0.015922023 0.009712446 -0.05072613
-0.042287957 -0.13134016 -0.116445124 -0.029574446 -0.0031400053 -0.0025898702 -0.05943727 -0.10577763
-0.17869656 -0.12402609 -0.025728555 0.013166098 0.034388505 -0.114822246 0.005376063 -0.100064084
-0.1580318 -0.19535768 -0.067772016 -0.03914627 -0.058845367 0.03856754 -0.002167286 0.0009811637
0.1103024 0.19707456 0.072815455 0.008461864 0.008683878 0.025027672 0.112076476 0.11563656
0.04101016 -0.039335046 -0.011654881 0.01029427 -0.05824605 -0.045952626 -0.11515834 -0.029999092
0.047662456 0.009132296 -0.02088746 0.02810712 0.00015927116 -0.008593917 0.13466297 0.07960993
0.014602005 0.0029120916 0.05141631 -0.058298964 -0.17843549 -0.18113805 0.0021007932 0.12232268
0.0132030025 -0.04991 -0.12661956 -0.22015408 -0.19205505 -0.21351047 0.048170034 -0.01124173
-0.130188 0.10848318 0.3560862 -0.037770096 -0.12334711 -0.00956798 0.026487526 -0.004645913
0.0033283443 0.0444171 -0.040727668 -0.11469417 -0.05469443 -0.0057655782 0.016838798 -0.018060755
-0.02686985 -0.041927088 -0.051246084 -0.0006885099 0.0020109382 -0.07192434 -0.05202051 0.040126808
0.07484948 0.060678635 -0.029953204 -0.0031565765 0.03967227 0.06110573 0.24814035 0.27223238
0.2065001 0.07356911 0.0788314 -0.01927218 -0.22064844 -0.21909213 -0.09122342 0.040766843
0.045201465 -0.012773569 0.009894239 -0.1130258 -0.14471428 -0.31536067 -0.11920602 0.008406593
0.005488485 0.048108816 0.10938283 0.14972864 -0.094120756 -0.039251905 -0.04181123 0.0445722
0.055075455 0.023877263 0.05437739 -0.03356405 -0.0063443123 0.009462583 0.019628255 -0.03393447
0.01719348 0.03372922 0.010827317 0.023921238 0.007494077 -0.00985448 0.03144411 0.01747246
0.10145048 0.08932312 0.08033472 0.036874104 0.028074969 -0.06612056 -0.07822236 -0.1136743
00000000: 70be 173d f0ff 1ebc 1a2c b33c ce71 353d
00000010: 856b 5a3d bc36 d2bb de32 be3c 4378 2c3d
00000020: cb5b 0dbc b98b 89ba 986c e1bc ddd1 92bc
00000030: 70aa 4cbc 70c7 6cbc 165d 94bc 27f3 8b3d
00000040: 6b9f eabc dd0d 57bd 9701 0ebe 2666 03bd
00000050: 2f88 36bc c75c b4bc 2ad8 e8bc f976 b7bc
00000060: 7f23 8ebd 66c7 98bd ebaa 8abd 164b 42bd
00000070: 22fb a53c 7b8a 9bbd f299 e13a 0783 2fbc
00000080: 739f aebc 441d bebb 6755 cfbc 619d 9ebc
00000090: e70b 0abd 8132 1a3c bca9 0abd 7c6f ed3b
000000a0: cb9e 203c cffd bcbb 880c ac3c 2121 24bc
000000b0: 2dc8 2a3d 8c8a f93b 3eef 9dbc 772f 43b9
000000c0: 7e36 03bd 93a4 c9bc f106 01bd 11d3 d1bc
000000d0: 832b b53b 6d4e b13c 4136 423d 3aad 253c
000000e0: af74 f2bc 544e 9abd caea 24be 91c9 4ebe
000000f0: 1826 98bc 0f4f 93bc 71d3 10bd 62c7 6c3b
00000100: 0da3 8f3c 482f afbb ae8e a8bd a232 70be
00000110: e3ea 3b3d 84cd f9bb a7f8 603c 61cb 583e
00000120: b395 143e fbe7 06be 8192 43bd a0e7 143e
00000130: b76b c2bc 4252 e6ba 416f 373e 5bf2 653e
00000140: 6153 12be bb59 7e3d 7ba1 873c d613 abbc
00000150: 4186 cabc bfbd 803c a93a c7bd adcc 55bd
00000160: e57d 55bd a433 e7bc a322 39bd 6755 b9bc
00000170: 9fa6 193d ff18 da3c ae32 efbc 5462 bcba
00000180: 8ace 15bd 3d3d a13c 946c 683b 01b5 933c
00000190: ff4b d93c 9379 4dbc 0777 b2bc 71e3 053d
000001a0: d908 38ba 2fb8 25bd e3e9 b4bc 635c 3abd
000001b0: 5b63 31bc e76e 82bc f320 1f3c 34c6 4fbd
000001c0: 2336 2dbd 097e 06be c87a eebd 1c46 f2bc
000001d0: 8cc8 4dbb d0ba 29bb 7f74 73bd f1a1 d8bd
000001e0: 3bfc 36be 6401 febd b1c4 d2bc 9eb6 573c
000001f0: f6da 0c3d ed27 ebbd af29 b03b 66ee ccbd
00000200: 17d3 21be d80b 48be 0ecc 8abd d757 20bd
00000210: d707 71bd fff8 1d3d 0609 0ebb 649a 803a
00000220: 3ae6 e13d eacd 493e 4520 953d a1a3 0a3c
00000230: d346 0e3c d506 cd3c 5a88 e53d dcd2 ec3d
00000240: 45fa 273d c91d 21bd 1df4 3ebc 4ca9 283c
00000250: 6993 6ebd d238 3cbd 23d8 ebbd a8c0 f5bc
00000260: b539 433d a09f 153c 2e1c abbc e740 e63c
00000270: 0702 2739 80cd 0cbc 17e5 093e 880a a33d
00000280: 3f3d 6f3c cad8 3e3b e999 523d e5ca 6ebd
00000290: cbb7 36be 417c 39be 76ad 093b 5084 fa3d
000002a0: 6851 583c 6e6e 4cbd 8fa8 01be 1270 61be
000002b0: 14aa 44be 7da2 5abe f14d 453d 3c2f 38bc
000002c0: 0150 05be 6e2c de3d ee50 b63e d1b4 1abd
000002d0: 699d fcbd 04c3 1cbc 5efc d83c be3c 98bb
000002e0: 5a20 5a3b b4ee 353d 0ed2 26bd c7e4 eabd
000002f0: 4407 60bd 2ded bcbb 85f1 893c 26f4 93bc
00000300: 291e dcbc bdbb 2bbd 6ae7 51bd 1e7d 34ba
00000310: f2c9 033b 124d 93bd 7513 55bd 025c 243d
00000320: af4a 993d 298a 783d 6c60 f5bc 91de 4ebb
00000330: 647f 223d 004a 7a3d 8118 7e3e 0b62 8b3e
00000340: c374 533e 67ab 963d 5b72 a13d b1e0 9dbc
00000350: aaf1 61be b059 60be 58d3 babd 22fb 263d
00000360: 2c25 393d 3b48 51bc 721b 223c 127a e7bd
00000370: fb2f 14be f476 a1be 4922 f4bd cfbb 093c
00000380: c0d8 b33b c00d 453d 1b04 e03d 7752 193e
00000390: 62c2 c0bd 9bc6 20bd 4142 2bbd 5791 363d
000003a0: cd96 613d 409a c33c d3ba 5e3d 757a 09bd
000003b0: f3e3 cfbb f308 1b3c 6fcb a03c dffe 0abd
000003c0: 57d9 8c3c a727 0a3d 0f65 313c 79f6 c33c
000003d0: e090 f53b af74 21bc 8acb 003d 6822 8f3c
000003e0: 45c5 cf3d 0aef b63d 8886 a43d 4d09 173d
000003f0: 7afd e53c 376a 87bd 0b33 a0bd 12ce e8bd

classifier.1.bias f4 [10]
-0.02896077 0.30732566 0.020598514 -0.15027876 -0.008500063 -0.14644052 -0.04971093 0.07837566
-0.008382843 -0.035017725
00000000: 233f edbc ca59 9d3e 37be a83c ade2 19be
00000010: d943 0bbc 81f4 15be b09d 4bbd 6b83 a03d
00000020: 3158 09bc bf6e 0fbd
