checkpoints/model_epoch_2.pth (torch, 34447 bytes, 10 tensors)

conv_block_1.0.weight f4 [10, 1, 3, 3]
000000 5c 36 65 bc 91 15 06 be 89 5b 40 bc 37 81 7d be
       -0.013990011 -0.13094164 -0.011740574 -0.24756323
000010 9e 86 f5 bd f1 52 2d 3d 89 79 f8 3d 96 6d d4 3d
       -0.11988567 0.042315427 0.12132556 0.10372464
000020 76 e4 3b bc f8 05 51 be aa 77 bc 3d 60 0a fd bd
       -0.011468044 -0.20412433 0.092025116 -0.123554945
000030 fa 6e 4c be ac f1 c0 3e 02 d4 11 3e a7 51 9b be
       -0.19964209 0.3768438 0.14241031 -0.30335733
000040 80 e4 4e 3e 6b fb cd 3e bf 47 e5 3e 2c c4 95 3e
       0.20204353 0.4023088 0.447813 0.2925123
000050 a2 cf 96 3e ca 52 01 bf 38 d6 b4 3e bb d7 de bd
       0.29455286 -0.5051695 0.35319686 -0.10880991
000060 c4 dc 16 bf e8 88 95 be 7f b9 af 3e c7 83 7e 3e
       -0.5893061 -0.29206014 0.3432121 0.24854957
000070 94 ec 3f 3e f8 f8 89 3e 56 f4 11 3e 52 a5 b2 be
       0.18742591 0.2694776 0.14253363 -0.34891754
000080 04 ed 71 bd 67 bf 3e 3c ae e0 98 3d c4 0f d4 be
       -0.059063926 0.011642314 0.07464729 -0.41418278
000090 02 c5 55 be 78 c6 aa be 80 6a c2 39 96 2d dc 3d
       -0.20875934 -0.33354545 0.00037081912 0.10750882
0000a0 d6 20 05 3f 45 29 06 3d a9 de 9d 3e c7 ee f6 3e
       0.5200323 0.0327542 0.3083394 0.48229048
0000b0 be db 36 3e 53 93 72 be 0c c3 67 3e 31 10 20 be
       0.17857262 -0.23689012 0.22632998 -0.15631177
0000c0 db 81 9f be 00 02 ea 3d 85 d9 c4 3d 92 31 8f 3e
       -0.3115376 0.11426163 0.09611801 0.27967507
0000d0 d1 13 19 be 78 64 8a 3e 56 4b 96 3d 21 6d 80 3e
       -0.14948966 0.27029777 0.07338588 0.2508326
0000e0 3f 7e bc bc 5e 8e b0 be 97 af 62 3e c6 55 95 be
       -0.023009418 -0.34483618 0.22137295 -0.29167002
0000f0 27 16 69 be 3e b8 98 3e 6e 1c f7 ba 2a 71 90 3d
       -0.22762357 0.29828066 -0.0018853077 0.07052834
000100 f5 a5 51 be c0 c7 8e be 61 e2 64 be a3 d3 26 be
       -0.20473464 -0.27886772 -0.22351982 -0.1629167
000110 34 50 bd bd a3 31 21 3e ce d9 6b 3d 57 67 76 be
       -0.09243813 0.15741591 0.05758076 -0.24062859
000120 4c ce 3e 3e 47 77 7e be 71 d5 1b 3e 24 1c ba 3e
       0.18633384 -0.24850188 0.1521814 0.36349595
000130 b5 ed 5b 3e ae 31 50 bd 58 4e 48 3e 63 04 70 be
       0.21477397 -0.05082863 0.19561136 -0.23439173
000140 f3 64 64 bd 4a 35 0b 3e 6b ad 64 3e 9a 6d 48 be
       -0.055760335 0.13594547 0.22331779 -0.1957306
000150 0f bb c0 3d cf 24 66 bd a2 2a 0b be d0 c8 28 be
       0.094106786 -0.056187447 -0.13590482 -0.16482854
000160 7c 98 a1 be 73 fd bf be
       -0.3156165 -0.37498054

conv_block_1.0.bias f4 [10]
000000 70 1b 0a bd 1a 70 72 3a 17 c1 0a be ce f8 b1 3c
       -0.033717573 0.0009248272 -0.1355022 0.021725085
000010 f4 af a1 bc bf 82 ab be b3 ca 39 be 78 95 19 be
       -0.019737221 -0.3349819 -0.1814373 -0.14998424
000020 c5 28 d2 bd 84 7f 50 3e
       -0.102616824 0.20361143

conv_block_1.2.weight f4 [10, 10, 3, 3]
000000 a5 3c 76 3d d2 35 74 bd 45 4c bd 3d bd 7a bf 3d
       0.06011643 -0.05962164 0.09243063 0.09349582
000010 7e d9 12 3d 33 e0 1c 3d e0 50 f6 3c 48 60 c4 ba
       0.035851948 0.03829975 0.030067861 -0.0014982307
000020 6f 76 84 3d 53 8c d9 bc 44 a0 7f bd 19 a1 ad 3d
       0.06467902 -0.02655617 -0.0624087 0.084779926
000030 53 cf cd 3d 26 d2 ad bd 6b 1c 07 be b5 9c f1 bd
       0.100493096 -0.08487348 -0.13194434 -0.117974676
000040 14 ac f5 bd 0f 43 ae 3c f8 e3 4d bd e2 9f d5 bd
       -0.11995712 0.02127221 -0.050266236 -0.10430886
000050 10 80 a8 3d 63 cd 82 bc 2c e2 d3 3b 75 ea 29 3e
       0.08227551 -0.015967077 0.006466171 0.16593345
000060 40 82 b7 3d 50 cf f5 3d ac 6c 34 bc fd be 31 bd
       0.0896039 0.12002432 -0.0110122375 -0.04339503
000070 bd 4e 4b 3d c0 c2 9e 3c be bb ba bd 9f 7e 95 bd
       0.049635638 0.019379973 -0.0911784 -0.07299542
000080 ab 7f 2a 3e 3f 1c 6e bd b1 be 7c 3d 56 3d 88 bd
       0.16650264 -0.058132406 0.061705295 -0.06652324
000090 bc ea 3b 3d 4f 14 35 3e df a6 39 3e 1a ad 56 be
       0.045878157 0.17683528 0.18130063 -0.2096447
0000a0 b8 8e c2 bd b5 fc 99 bc 71 de e7 bd 09 10 af bd
       -0.09499878 -0.018797258 -0.11321724 -0.0854798
0000b0 97 21 86 bd f1 84 3a 3c cb a3 47 3b 7d 3a 8a 3d
       -0.065493755 0.011384235 0.0030462618 0.06749437
0000c0 20 aa 87 bb 53 af 0d 3d 89 b9 88 3d c0 57 4c bd
       -0.0041401535 0.03459103 0.06676013 -0.049888372
0000d0 dd 8a c1 bd 01 77 ca bd 70 44 22 bd 14 b0 e7 ba
       -0.09450314 -0.098859794 -0.03961605 -0.0017676377
0000e0 e0 60 4a 3d 0a 16 b1 3b 67 d1 1e bb f4 37 58 3d
       0.049408793 0.0054042386 -0.00242337 0.052787736
0000f0 33 74 0f 3d c7 89 9a 3c a4 5f e4 bd bd cc c1 bd
       0.035022926 0.018864525 -0.111510545 -0.09462879
000100 43 02 a3 bc f4 d8 58 3d 9f 49 d2 bc 36 f6 a7 3c
       -0.01989854 0.052941278 -0.02566987 0.020503145
000110 36 56 cd bd 69 06 37 3d a7 b7 89 bd aa 2b 25 3c
       -0.10026209 0.044683848 -0.06724482 0.010081211
000120 f2 d6 e5 bd 23 91 e6 3d f8 aa 33 3e 1e ff ba bd
       -0.11222638 0.112581514 0.17545688 -0.09130691
000130 47 44 15 3d 27 f4 95 ba 17 bd 33 be e0 bd 8a bd
       0.036442067 -0.0011440561 -0.17552601 -0.06774497
000140 a9 65 bd bd d7 8e a0 3c 60 51 50 bb 8c 0a be bc
       -0.09247906 0.019599361 -0.0031786785 -0.023198389
000150 5a 24 86 3d cd 88 4a 3d 6a ab cd bd cc 1c 7b 3d
       0.06549902 0.04944687 -0.1004246 0.06130676
000160 3d 26 af 3c f7 21 15 3d 16 4b bb bb ff 05 e5 bd
       0.021380538 0.036409345 -0.005715738 -0.11182784
000170 30 55 ab 3d f7 0a 3c bd 0a 9e 82 3d 5a e8 f5 3d
       0.083658576 -0.045908894 0.063778 0.12007208
000180 22 f6 5f 3a 3a 8b c6 3d 3d 9b 7c 3d 90 7c b3 bd
       0.00085434515 0.09694524 0.061671484 -0.08763993
000190 a2 24 4a be cf 6e c9 3b 8e 32 75 3d ff b6 e6 bd
       -0.19740537 0.0061472426 0.059862666 -0.112653725
0001a0 ef 89 b8 bd 8e 94 eb bc 60 3a 15 3d 2b 17 7e 3d
       -0.09010684 -0.02875736 0.036432624 0.062033813
0001b0 5d b0 05 3e 91 db ad bd 32 79 aa be 63 cd 0c 3d
       0.13055559 -0.084891446 -0.3329559 0.03437556
0001c0 98 85 7e bd 9f 8d 20 be f4 78 2c 3c 18 8d d0 bc
       -0.062139124 -0.15679024 0.010526884 -0.025457904
0001d0 f8 c9 d5 3c 87 33 88 3d 32 c4 83 3c ee e2 97 3c
       0.026097283 0.06650453 0.016084764 0.018540826
0001e0 8b 9a 16 be fb 9b c3 3d ee 31 34 bd f9 2e 34 bd
       -0.14707391 0.09551235 -0.04399293 -0.04399011
0001f0 d9 af a4 bd 6a d1 5d 3d 84 d6 57 bb 51 a3 18 be
       -0.08041353 0.05415479 -0.0032934258 -0.1490605
000200 42 67 ba bd 70 39 2e 3e 83 f3 3b 3e 8b cf 56 3e
       -0.09101726 0.17014098 0.18354611 0.20977609
000210 7a c6 1c bc 52 5b 66 3d 11 a6 2c 3e ff 61 a5 3d
       -0.009568805 0.056239434 0.16860224 0.08075332
000220 7c b9 99 3d ea bd 87 3d 82 61 94 3d 42 bf 9b 3b
       0.075060815 0.0662802 0.07245161 0.0047530243
000230 86 09 b9 bd cb b3 a0 bd e8 95 70 bd 88 4d 00 3d
       -0.090350196 -0.07846793 -0.05873671 0.03132394
000240 ac 54 ef 3d 08 21 c9 bd e7 7e 1f be 15 ad 0c 3c
       0.11686072 -0.09820753 -0.15575753 0.008586188
000250 23 b6 77 bd 55 24 4f bd 66 52 2b bd 1f 82 5f 3c
       -0.060476433 -0.05057176 -0.04182663 0.013641863
000260 9f b9 10 3d 4e d4 38 bd 41 b1 f4 bb ac 76 12 3b
       0.035333272 -0.045124345 -0.0074674194 0.0022348566
000270 cf 5a ee bc ca b1 fb bc 49 f0 a5 bd e9 2c 3b 3b
       -0.029096035 -0.030724425 -0.081024714 0.0028560704
000280 52 f2 c5 3d f7 df 73 bc 0c 80 9d bd 41 f7 de bd
       0.096653596 -0.01488494 -0.07690439 -0.10887004
000290 25 60 47 be 61 27 52 3c b5 c5 c9 3d 1b 1c 8d 3d
       -0.1947027 0.0128267715 0.09852163 0.06890126
0002a0 f0 25 99 3d 71 0f 29 3e bf d1 81 3d 86 f1 02 be
       0.07477939 0.16509797 0.06338834 -0.12787446
0002b0 cb 15 94 bd 1a f8 19 be 1a 65 08 be 98 2a e8 bc
       -0.07230719 -0.1503605 -0.13319817 -0.028340623
0002c0 13 e2 31 3d 2d 02 71 bd 6c 8c da bd 12 88 b9 bd
       0.04342849 -0.058839966 -0.106713146 -0.090591565
0002d0 dd 28 58 bd 21 23 71 3d 9c c8 a2 3d f3 08 b9 bc
       -0.052773345 0.058871392 0.079484195 -0.022587275
0002e0 2e bb 23 bd a2 bd 02 3d 6c 5b f3 bc d6 83 a7 3d
       -0.03997343 0.03191913 -0.02970668 0.081794426
0002f0 33 9d 05 bc c2 96 a1 3d 75 7a 00 be 55 96 c1 3d
       -0.008155155 0.07890083 -0.12546714 0.09452502
000300 99 99 d4 ba 24 bf fb 3d 29 aa ae 3d af 97 e2 bc
       -0.0016220092 0.122923166 0.08528549 -0.027660219
000310 6f b3 cc bd 8f c0 58 3e 7a 73 54 3d 68 3f 56 bd
       -0.09995162 0.21167205 0.05186794 -0.052306563
000320 96 b0 d2 3d e8 cf 00 3e be e4 ef 3c 66 e1 c9 bb
       0.10287587 0.1257931 0.029283877 -0.006160903
000330 47 57 d1 3b d9 65 19 3e f8 b6 61 3e 7c 3d 44 bd
       0.006388578 0.14980258 0.22042453 -0.0479102
000340 d4 b4 0f be b9 55 0b be fe 5d 93 3d df ea 5e bd
       -0.14033824 -0.1360692 0.07195662 -0.05442321
000350 e4 88 f3 3a 59 3a 31 bd 46 87 86 bc 36 7d 51 bc
       0.0018580225 -0.043268535 -0.016421925 -0.0127862
000360 b4 21 96 3d 69 bc 52 3e b6 4f 4d 3e f8 8d 1a be
       0.07330647 0.20579685 0.20049939 -0.1509322
000370 62 69 0a bc ec 4a 9c 3e 2b 77 df be ba ce d9 be
       -0.008447977 0.3052591 -0.43645605 -0.42540532
000380 b8 64 08 be 40 79 aa bd cd 96 7c bd 7f b0 ab bd
       -0.13319671 -0.08323908 -0.061667252 -0.08383273
000390 38 3a b1 3d 8a cb 37 bd e1 5e f6 bb 39 84 19 bb
       0.086536825 -0.044871844 -0.0075186347 -0.0023424758
0003a0 2d d8 ad bd 4e e8 9e 3d bb 28 b1 3d 4c 7f b1 bd
       -0.08488498 0.07759152 0.08650347 -0.08666858
0003b0 28 a9 64 3d 86 09 7a bd 7f db 40 3d ac 3c b6 3d
       0.055825382 -0.06104424 0.047084328 0.08898291
0003c0 aa dd f1 bc 9a eb 90 bd 94 ce 23 3d cd 42 6a 3d
       -0.029524643 -0.070761874 0.03999193 0.057192612
0003d0 7c 35 36 bd eb cc bc 3d cf c2 f1 bc 98 47 f8 bc
       -0.0444846 0.092187725 -0.029511837 -0.030307576
0003e0 f4 5c cd ba e8 c0 c8 3d 29 a0 bb 3d b2 ea 91 3d
       -0.0015667961 0.09802419 0.091614075 0.07124843
0003f0 00 bf 4a bd 2f 22 7b 3d e4 9c 51 bd 70 21 08 bd
       -0.049498558 0.061311897 -0.051175013 -0.033235013

conv_block_1.2.bias f4 [10]
000000 9e 60 32 3d 26 9a a0 3c 6b 83 81 bd 0a ef 8e bc
       0.043549173 0.019604754 -0.06323894 -0.017447967
000010 f2 8d fd bb 6a 5e 4b 3d 8b b3 56 3d 02 d7 68 3d
       -0.0077378685 0.049650587 0.05241732 0.056845672
000020 7b 0f 56 bc 4c 9e e7 3d
       -0.013065214 0.113094896

conv_block_2.0.weight f4 [10, 10, 3, 3]
000000 01 d0 12 bd 85 08 35 3d bc a1 56 3e bc b5 b4 bd
       -0.0358429 0.044197578 0.20960134 -0.088237256
000010 86 4e c6 3c fa a2 63 bd 87 81 6d bd c6 a1 8c bd
       0.024207365 -0.05557535 -0.057984855 -0.06866793
000020 ec 81 22 bd c8 b4 74 bd c9 50 63 be 32 e4 b8 be
       -0.039674684 -0.05974272 -0.22198786 -0.361116
000030 9b 86 be 3d 01 e1 32 be e7 31 09 3d b3 6c a3 bd
       0.09303018 -0.17468645 0.033494856 -0.07979717
000040 a7 85 98 3c fd 92 cf 3e d5 76 dc bd 22 2f e5 bd
       0.018618418 0.4054183 -0.10764853 -0.111906305
000050 f6 14 0f 3e 1d 54 f2 bd 0b 6b 8f be ba 5f 02 be
       0.1397284 -0.118324496 -0.28011355 -0.1273183
000060 89 e6 d2 bb 09 09 7c 3e 39 1c 2c 3e f2 fd ca 3d
       -0.0064361733 0.24612822 0.16807641 0.099117175
000070 b7 bc 68 be fa 83 4a bd ac 14 8a 3d 0c be 04 be
       -0.22728239 -0.04944227 0.06742224 -0.12963122
000080 95 8d 38 be bb ea ee 3d bd 3d 1b be 77 f4 8c bb
       -0.1802276 0.11665865 -0.1516027 -0.0043016034
000090 a3 36 3b 3d 37 5e 24 3c 5d 75 a7 bd 0e a8 20 3c
       0.045706403 0.010032228 -0.08176682 0.009805692
0000a0 f8 6a 4f bd cc c5 3b 3e 5c eb 84 3e 32 70 f9 3c
       -0.050639123 0.18337172 0.25960815 0.030449007
0000b0 3e e8 f3 3b 3b 56 cf 3c d4 eb 16 be 90 f6 56 bd
       0.007443457 0.025309673 -0.14738399 -0.052481234
0000c0 20 39 a8 3d 32 7b 77 be c3 a1 81 be 3c 09 f4 3d
       0.08214021 -0.24168089 -0.25318727 0.11915824
0000d0 f2 e3 ad bd 80 df 21 3e 31 6d 47 be b8 e8 e1 be
       -0.08490743 0.15807915 -0.19475247 -0.44122863
0000e0 68 9f cc be bf 9b 52 bd 49 0a 84 be 15 45 0c 3e
       -0.39965367 -0.051418062 -0.25789097 0.13698228
0000f0 9f 94 0a be 9b e4 07 3e ad 01 00 3f d0 59 c0 bd
       -0.13533257 0.132708 0.5000256 -0.093921304
000100 c5 fc 8a be c1 91 7d be 59 14 74 bd 53 e8 24 be
       -0.27145973 -0.24762632 -0.059589718 -0.1610425
000110 c0 05 8c 3e 08 60 8c 3c 5a e3 29 3e 00 45 aa 3e
       0.27348137 0.017135635 0.16590634 0.33255768
000120 50 5c 02 3b 69 c0 7b bd b3 8a 3f 3d 82 fd 84 3d
       0.0019891448 -0.061462793 0.046763133 0.06493665
000130 4c f0 4a bd 95 cf ef bc fd dc f1 3c d0 b8 b5 3c
       -0.04954557 -0.029273788 0.02952432 0.022182852
000140 1f 5d 56 3d ba 32 3e 3e 0a 23 94 3e cd 4f 19 3e
       0.0523349 0.18574038 0.28932983 0.14971848
000150 02 dc 6e bd f8 90 04 bd c4 ae ac bd 49 9f 5c be
       -0.058315285 -0.032364815 -0.084317714 -0.21545137
000160 92 84 55 bb 97 bd 85 bd 84 63 04 bd f5 74 98 3d
       -0.0032580239 -0.06530302 -0.032321468 0.07444183
000170 2e e1 20 3d eb 52 40 3d e6 ae 33 3d 58 0f e0 3d
       0.039277248 0.046954077 0.043867968 0.109404266
000180 3c 5f c9 b9 c0 d8 e7 bb b1 c1 96 3d 31 2b 33 3e
       -0.00038408663 -0.007075399 0.073611625 0.17496945
000190 73 53 2c 3d 9e bf e8 bd fb c5 53 be 78 b9 70 be
       0.04207177 -0.11364673 -0.20680992 -0.2350825
0001a0 b2 de 58 be cb 2b d8 3d 17 23 c4 3c 02 6b 87 3e
       -0.21178702 0.10555228 0.023942513 0.26448828
0001b0 e9 1f a2 3e a7 b1 40 3e bf 98 98 bd ce 5f cd bd
       0.3166497 0.18817769 -0.07451009 -0.10028039
0001c0 b2 33 5b be ba ed 99 be f3 e3 37 bd 9b ec 14 be
       -0.21406439 -0.30064183 -0.044895124 -0.14543383
0001d0 8f f8 33 bd cc 4d 70 3e 5a a3 22 3d 2b 5d d3 bc
       -0.043938216 0.23467177 0.039706565 -0.025801262
0001e0 f3 a9 5f 3d 6c ed 7e bc db f8 97 bd 0a a1 f4 3d
       0.054605436 -0.0155595355 -0.07420512 0.11944778
0001f0 79 2f bb bd ee ca 01 be df ef 76 be b3 e5 25 3e
       -0.09139914 -0.12675068 -0.24114941 0.16200905
000200 8e 62 02 3d af a6 06 bd d9 31 de bc 49 a1 3d 3d
       0.03183227 -0.032873806 -0.027123379 0.04629639
000210 66 4b 34 ba 9a 37 bf bd c8 7a 51 3d 6f de c5 3e
       -0.00068776903 -0.09336777 0.051142484 0.38646266
000220 62 3b 37 3e 0b 94 d7 bc 5a bc c4 bd a9 46 c2 bd
       0.17893746 -0.02631571 -0.09606238 -0.094861336
000230 1b cf 92 be f5 11 0d 3e 5c 7d 90 bd cc a3 92 bc
       -0.28673634 0.13776381 -0.070551604 -0.01790037
000240 fe 4c b3 3e 0e 7a 78 bb d8 8c 87 be 86 55 88 3d
       0.35019678 -0.0037914547 -0.26474643 0.06656937
000250 23 33 a5 be 01 13 55 be f7 91 8d 3e c4 87 53 3c
       -0.32265577 -0.2080803 0.27650425 0.012910787
000260 78 ae 6c 3e 33 8b 84 be b8 65 51 be 19 3d 3e be
       0.2311343 -0.2588745 -0.20448959 -0.18577994
000270 52 01 ef bd 38 55 be bd ad 3f d1 bd 3d 8b ab 3b
       -0.11670174 -0.09293598 -0.10217223 0.0052351044
000280 3a ef 3e 3d eb 90 6f 3e a0 c7 12 3e 78 cf 23 3d
       0.046614863 0.23395126 0.14333963 0.03999278
000290 31 12 93 3d db c2 76 bd 8e e9 e1 bd 6e 23 94 3d
       0.07181204 -0.060244422 -0.11030875 0.0723332
0002a0 70 9a c8 bc c3 54 7b 3d 18 d8 31 3d f0 bc e2 3d
       -0.024487704 0.061360132 0.043418974 0.11071193
0002b0 de d8 e3 3d 06 d0 37 3e 2d 99 ae 3d 95 9d 52 3e
       0.111253485 0.17950448 0.0852531 0.20567925
0002c0 a8 5e f0 3d 75 88 1e be 6c 57 3c bc f0 69 76 3d
       0.11736804 -0.15481742 -0.011495452 0.060159624
0002d0 5a 97 fd 3d ac 2c 65 3c ee b7 4d bd c8 28 a6 bd
       0.12382384 0.013987701 -0.050224237 -0.08113247
0002e0 85 bd 20 3d 97 42 51 3e 49 f6 1e 3d 3d 6a 20 bc
       0.03924324 0.20435558 0.038809095 -0.009790954
0002f0 c0 76 16 b9 b5 40 9b 3d c2 4b c1 3d 3f dc 0d 3f
       -0.00014349353 0.07580701 0.09438278 0.55414194
000300 48 b0 37 be 05 d9 52 be 38 39 85 3d ff 61 cb 3d
       -0.1793834 -0.20590599 0.06505054 0.09930801
000310 51 cf 93 be 3f be a7 bc 26 a3 b8 bb c2 b2 9d 3c
       -0.28869107 -0.020476459 -0.005634683 0.019250277
000320 0f 3b 7f 3e 25 bc 40 3c 3f 54 a7 3e 0d 51 b8 3e
       0.24924873 0.011763607 0.32681462 0.35999337
000330 10 4e 9c be 22 cc 8b be 99 e2 a4 bd 3e bf 94 bc
       -0.30528307 -0.27304178 -0.080510326 -0.018157598
000340 3e 0f 04 be 78 27 0b 3e 35 c2 36 bd 44 61 d4 bd
       -0.1289644 0.13589275 -0.044618804 -0.103701144
000350 21 58 83 bd 45 b8 84 bc 4c 5c 77 be 18 d6 2d be
       -0.06413294 -0.016201148 -0.24156302 -0.16976202
000360 c5 6b de 3d e4 83 87 3d 71 df 7d 3b 54 ea ed 3d
       0.10860399 0.06616953 0.0038737918 0.1161696
000370 5a af 8a bc 56 3f ff bd 91 26 63 3e 82 83 45 bd
       -0.016929317 -0.12463252 0.2218268 -0.04822112
000380 62 0b 95 be 94 8b c3 3c 4a e1 68 bc 0f 73 b5 3e
       -0.29110247 0.023870267 -0.014213869 0.35439345
000390 d4 72 2e be 21 6a 30 3c 92 7d 33 3e 3a 66 21 be
       -0.17035991 0.010767491 0.1752837 -0.15761653
0003a0 74 1d 7c be fc 33 54 be 0c 58 e3 3b 5e ee 28 3e
       -0.2462061 -0.20722955 0.0069379862 0.1649718
0003b0 f0 d5 15 3f 53 10 99 be 57 53 3b be b8 03 78 3d
       0.5852957 -0.29895267 -0.1829351 0.06055042
0003c0 4d 1d 1e be fd 9f 02 bf 3d 81 91 3e 9e fc 2d be
       -0.15440865 -0.5102537 0.28418913 -0.16990897
0003d0 d9 94 9e bb 43 8a a0 3d 0c 3e 0a be fd cb 91 be
       -0.0048395214 0.07838871 -0.13500232 -0.28475943
0003e0 aa 25 ea be 3e 27 4d 3d 68 c7 f8 3d f1 b4 95 3e
       -0.4573186 0.050086252 0.12147409 0.2923961
0003f0 40 57 80 3c f5 43 72 bc 80 f4 55 bd ce ce 37 3d
       0.015666604 -0.01478671 -0.052235126 0.04487496

conv_block_2.0.bias f4 [10]
000000 d8 e3 0e 3e 6b ad 45 3e 9d 68 cb bc 7b 3e c9 3d
       0.13954103 0.19304435 -0.024830157 0.0982637
000010 96 3c 4c bc db 89 7a bd 36 3e f2 bb a6 3c 28 bd
       -0.012465617 -0.061166625 -0.00739267 -0.041073464
000020 3b 0d 56 3d 0d f8 41 3e
       0.05225871 0.1894228

conv_block_2.2.weight f4 [10, 10, 3, 3]
000000 2b ce 0c be d4 ba d6 bd fe 91 57 3e 2f ac 13 3e
       -0.13750522 -0.104848534 0.21051785 0.14421152
000010 d5 07 72 3e 0e 7f 13 3e d9 74 5e be b9 97 4d be
       0.236358 0.14403936 -0.21724261 -0.20077409
000020 30 d1 22 be f3 89 48 3d 6c 7f 9b 3d b8 8d c9 3d
       -0.15900111 0.048959684 0.07592663 0.09841484
000030 3c 8c b3 3d 4c 3b 8e 3c 25 99 de bc 88 b3 72 be
       0.08766982 0.01736226 -0.027172634 -0.23701298
000040 0c 3e 25 be a5 61 8b be 26 03 5a be f9 3b 3f be
       -0.1613695 -0.27222934 -0.21290264 -0.18675222
000050 14 f3 98 be 53 8c c5 bd 0c 9a 85 3c 4c 03 81 3d
       -0.29872954 -0.09645905 0.016308807 0.06299457
000060 93 f3 a0 be f3 24 c2 bc bb b0 7b bd 4a 09 81 3d
       -0.31435832 -0.02369926 -0.06144784 0.063006
000070 f5 0f 90 bd af 96 a5 3d 2d 44 4e bd e2 cd 46 3a
       -0.070342936 0.08085381 -0.050357986 0.00075837795
000080 31 19 b3 bd fc 30 52 bd c9 cb aa 3c ff 09 39 bd
       -0.08745039 -0.051316246 0.020849125 -0.04517555
000090 5a 17 8b bc 4f 88 84 3e cf 48 e0 3b 92 cf 6c bd
       -0.016978908 0.25885245 0.006844617 -0.057815142
0000a0 5d c3 f9 3c 8c a5 de bd 2e de ee 3b 3c d8 7c bd
       0.030488664 -0.10871419 0.0072896695 -0.061729655
0000b0 47 fd c7 3d 95 fc 83 bd 87 9c 3e bd 1d fc 66 bd
       0.09765106 -0.064446606 -0.046535995 -0.056392778
0000c0 07 a4 1f be 97 0b 60 bd 68 77 96 bd 39 33 0e be
       -0.15589915 -0.054698553 -0.07346994 -0.13886727
0000d0 36 86 a4 3c 6a 28 4d ba 06 f2 3f 3d a4 b5 95 bd
       0.020083528 -0.00078261516 0.04686167 -0.07310036
0000e0 65 2f 86 3d 19 8d 94 bd 03 33 69 bd 39 57 ab bc
       0.065520085 -0.07253475 -0.056933414 -0.020915614
0000f0 db 8c 20 3e e2 fa 80 bd e6 b4 8d 3d d1 e8 92 bd
       0.15678732 -0.06297852 0.06919269 -0.071733125
000100 1c aa 4e bd ed 66 9c 3c d4 4f 92 bd 84 1d d5 3d
       -0.050455198 0.019092048 -0.07144132 0.1040602
000110 55 43 39 bd 64 80 b6 3c 32 86 8d bd 9c 3c 9a bd
       -0.04523023 0.022278018 -0.06910361 -0.075310916
000120 eb f0 14 be c5 3b 51 be d6 70 3c be e6 3b c9 3d
       -0.14545028 -0.20432957 -0.18402418 0.09825878
000130 22 f3 59 3e 6d 9b 8c 3d 24 13 92 3d c3 b8 49 be
       0.21284154 0.068655826 0.07132557 -0.19699387
000140 96 e1 0a be a1 86 3a 3d 23 0e 00 bd 04 59 64 bd
       -0.13562617 0.04553855 -0.03126348 -0.055748954
000150 fb dc 1d bc b8 c9 90 bd 61 28 14 be 0f 6d a4 3d
       -0.009635205 -0.07069725 -0.14468528 0.08028614
000160 7f 1c 5b 3c 50 2e ad 3d 17 48 14 3f b8 ea 8d 3e
       0.013373493 0.08456099 0.579225 0.2771814
000170 19 e3 38 be 9d 4e 4d 3e 74 c5 2b bf 0a a9 a7 be
       -0.18055381 0.2004952 -0.67098165 -0.32746154
000180 29 3f c4 bd df 72 84 be bd 8e 10 3e 75 48 85 bd
       -0.09582359 -0.2586889 0.1411695 -0.06507961
000190 47 af 93 be a7 fa 9c bd 70 53 76 be 82 16 bc be
       -0.28844664 -0.07664996 -0.24055266 -0.36735922
0001a0 6a 99 b5 3d 45 f8 0e be d2 60 8c bd ef 90 72 bc
       0.08867152 -0.13961895 -0.068544045 -0.014805063
0001b0 7f 5c 49 bd c6 fb 48 be 81 3f 77 be 96 64 b4 bd
       -0.049160477 -0.19627294 -0.24145319 -0.08808248
0001c0 3e 87 b9 be d9 62 d1 be 56 6d 71 be 62 26 32 be
       -0.36235994 -0.40895727 -0.23576865 -0.17397454
0001d0 88 f1 89 be 14 40 b5 3c ab cf 21 be f0 5b 2b 3d
       -0.26942086 0.022125281 -0.15801875 0.041835725
0001e0 a3 a1 c4 3c c9 d2 9a 3d 61 24 84 39 c9 1a 61 3d
       0.024002856 0.07559735 0.00025204106 0.054957185
0001f0 d8 bf ab 3d 6d b4 1e bb 82 22 79 be 44 a6 df bd
       0.08386201 -0.002421643 -0.2432957 -0.109203845
000200 3f 12 37 3e 85 c1 0c bf f0 35 56 be bc 2f eb 3e
       0.17878054 -0.5498279 -0.20919013 0.45934856
000210 94 52 55 be f6 71 82 3e 52 2b 54 3e 8d fd 47 bd
       -0.20832282 0.2547757 0.2071965 -0.04882579
000220 c9 f3 2e bd f0 00 8d bd cb b8 d7 bd 6c 7b fe bd
       -0.04271296 -0.068849444 -0.10533293 -0.124258846
000230 1a be 4a be fb 88 e4 bd f0 c5 54 3c 07 0c 35 be
       -0.1979908 -0.111589395 0.012986645 -0.1768037
000240 51 4a 83 bd c2 eb 0b bd f7 a5 94 3d cc db 20 3d
       -0.06410659 -0.034160383 0.07258218 0.039272115
000250 60 0d b3 bd 43 be 16 3e 8b 91 14 be 61 3a f1 bc
       -0.087427855 0.14721017 -0.14508645 -0.029446783
000260 82 0e db 3d 78 12 35 bc 6f 1c 0f bd f8 af 99 3d
       0.106961265 -0.011051767 -0.034939226 0.075042665
000270 f3 2f 85 bd 15 88 40 bd 37 1a 34 3c 35 79 3f 3d
       -0.06503286 -0.047004778 0.010992578 0.04674645
000280 95 77 2d bd 9a 92 17 3d f7 aa b7 be 12 ac 9f 3e
       -0.04235037 0.037005045 -0.35872623 0.31185967
000290 6f f9 11 be f8 75 06 bd 74 37 17 3e d4 7a bf bc
       -0.14255308 -0.032827348 0.14767247 -0.023373999
0002a0 88 35 b0 3d 98 d8 9e 3e 88 22 82 3e 64 21 4c be
       0.0860396 0.31024623 0.2541697 -0.19934613
0002b0 54 ea 02 3d 30 fc 07 3e b9 4e cd be aa 2a c2 3d
       0.031961754 0.13279796 -0.40099123 0.09480794
0002c0 70 86 94 3c 92 3a ba be 93 27 89 be 0c 6b 05 bf
       0.018130511 -0.3637281 -0.26788005 -0.52116466
0002d0 70 f5 93 be 5f ca 84 be 6b 11 83 be 96 5e c5 bb
       -0.2889819 -0.25935647 -0.25599226 -0.0060232384
0002e0 6a be b9 3d 1d 7c 0c 3d d0 f7 f2 bd 2e b5 c3 bd
       0.09069522 0.03429805 -0.11863673 -0.09556042
0002f0 c4 a8 0b 3e 3f d9 ce 3c 64 bb a3 3d b4 3a d4 3d
       0.13638598 0.025250075 0.07994726 0.10362759
000300 4a 49 25 bd 18 01 3c bd d6 a7 4f bd ec 71 90 3c
       -0.040353097 -0.04589948 -0.05069717 0.017632447
000310 67 56 be 3d 40 cd 4d 3d 21 0d a5 3e 3e 4f 64 3e
       0.09293824 0.05024457 0.3223658 0.22295853
000320 4c 77 98 3e a2 97 07 be 1e 44 7a be 5c 58 c4 be
       0.29778516 -0.13241437 -0.24440047 -0.38348663
000330 e0 a9 e5 bd f4 4c 26 3d 44 3c 8d bc 5b b9 ee 3a
       -0.11214042 0.040600732 -0.017240651 0.0018213199
000340 19 09 df bd b8 2d a9 bd 25 b2 b6 3d ad 70 11 3d
       -0.10890407 -0.08260673 0.08920697 0.035507847
000350 e5 2b 2e 3d 36 fd 87 3d 2f 1d cc 3b ff 0e 00 3e
       0.04252233 0.06640093 0.006229065 0.1250572
000360 09 81 4d be b4 e8 b0 ba e0 50 4d bc 00 87 89 be
       -0.20068754 -0.0013497085 -0.012531489 -0.2686081
000370 20 fd 90 be 7a 0e 2e be 3b d7 b4 3c b8 67 f5 3d
       -0.2831812 -0.1699771 0.022075286 0.119826734
000380 f7 7b ac 3e d8 89 0c bc 8e 84 f8 bc 98 5f 0e 3c
       0.33688328 -0.008577786 -0.030336645 0.0086897835
000390 67 c7 91 be 59 d9 28 be c4 6f 3a be 6e f3 68 bd
       -0.28472444 -0.16489162 -0.18206698 -0.056872778
0003a0 2b 7d 2a 3c 45 1b 25 3e 34 9b 0c 3c f4 ec 34 3d
       0.010405819 0.16123684 0.008581925 0.04417129
0003b0 a9 01 c4 bd 93 89 9b 3d e8 ac 8f bd 1c b3 f2 bd
       -0.09570629 0.075945996 -0.07015401 -0.11850569
0003c0 6f 58 3b be 1d 3a 08 be 1d 52 8d 3d 8e 7b 9d bd
       -0.18295453 -0.13303418 0.069004275 -0.07689582
0003d0 8c 04 a6 bd ee 74 4c bd d0 ba 23 bd 8f e0 c0 3b
       -0.08106336 -0.0499162 -0.03997308 0.0058861445
0003e0 3d 17 2a 3d a1 7d 62 bb f4 92 8e bd 11 c5 fe bc
       0.041526068 -0.0034559744 -0.06961623 -0.031099828
0003f0 39 20 23 be 46 26 5f be f4 35 87 be d7 a4 87 be
       -0.1593026 -0.21791944 -0.2640835 -0.2649295

conv_block_2.2.bias f4 [10]
000000 f4 a7 5e be 66 64 9b 3d d4 f2 93 bd 45 1e 80 be
       -0.21743757 0.07587509 -0.0722405 -0.25023094
000010 41 4f 24 3e 1a fc 84 3d 6c 47 f7 bd 5d 4c 62 3d
       0.16045858 0.06493397 -0.120741695 0.055248607
000020 0a 32 90 3e 96 27 83 3d
       0.28163177 0.06404035

classifier.1.weight f4 [10, 490]
000000 f5 72 11 3d 9f 65 ce bc b8 58 12 bc f9 1a 71 3d
       0.035510022 -0.025194941 -0.008932285 0.058863614
000010 1f 79 68 3d b8 88 0a bc 21 20 cd 3c 1c 3a 63 3d
       0.056756135 -0.008455448 0.025039734 0.05547534
000020 e7 9c 11 3d 52 f9 3e 3d fb b3 8c 3b a6 de 86 3c
       0.035550024 0.04662449 0.0042939163 0.016463589
000030 25 5f d6 3b 82 1c 9f ba fc 9e 5f b9 2f 5c b5 3d
       0.006542104 -0.0012139233 -0.00021326164 0.08855473
000040 85 2b 1e bd 6a 33 b7 bd 65 34 5f be cb 93 8c bd
       -0.038615722 -0.08945353 -0.2179733 -0.06864127
000050 a0 78 5f bc 6e f5 b7 bc e2 89 90 bc 7d ba f2 bc
       -0.013639599 -0.022455897 -0.017643873 -0.02962994
000060 eb 8a 1d bd 26 a9 bc bd ac 14 c6 bd 4d b0 60 bd
       -0.03846256 -0.0921195 -0.096719116 -0.054855634
000070 0f c3 b3 3c 19 69 bd bd d1 62 c4 3c 84 8d fc 3b
       0.021943597 -0.092485614 0.0239729 0.0077072997
000080 11 c4 35 bd 58 93 82 bc bb 5a f2 bc 0b 86 d4 bc
       -0.044376437 -0.0159394 -0.02958428 -0.025942823
000090 0a 0a 22 bd 9c 09 be 3c 3f 08 c8 bc 58 22 23 3c
       -0.039560355 0.023197941 -0.024417995 0.009956919
0000a0 59 9c 56 3c 9e 90 c3 bb d9 b7 ad 3c 1d 55 03 bc
       0.0130988 -0.0059681674 0.02120583 -0.008015898
0000b0 84 82 36 3d 0b 66 ce 3b 1e db ab bc 79 d3 5c ba
       0.044558063 0.0062987856 -0.020978507 -0.0008423846
0000c0 64 cf 01 bd b7 45 b8 bc d7 4d 26 bd b4 ea 49 bd
       -0.031691924 -0.02249418 -0.040601578 -0.049296096
0000d0 f1 fe c7 bb d1 60 04 bb ad 52 4f 3d 6a 75 31 3c
       -0.0061033894 -0.0020199309 0.050615955 0.010831216
0000e0 88 64 fc bc bf c5 c4 bd 3c 94 2f be 5a 62 38 be
       -0.030809656 -0.096080296 -0.1714639 -0.18006268
0000f0 34 3b 3b bd d6 82 e6 bc 8d a4 0e bd 51 ce 08 3b
       -0.045710757 -0.02813856 -0.034824897 0.0020874927
000100 17 5c 2c 3d 05 8d 57 bc 3a 79 c5 bd 66 c1 91 be
       0.04208001 -0.01315618 -0.09642263 -0.28467864
000110 54 27 9d 3d 45 79 73 bb 80 bb 81 3b df 34 a5 3e
       0.07673517 -0.003715114 0.0039591193 0.322669
000120 b9 21 33 3e a4 b7 32 be b1 63 c7 3c 52 37 f3 3d
       0.17493333 -0.17452866 0.024339529 0.11875786
000130 86 bd d4 bc dd 5c 74 3c 46 be 69 3e 2d a7 3e 3e
       -0.025969278 0.014914718 0.2282649 0.1861846
000140 94 a7 fd bd 20 fc b3 3d 8f d6 15 bd 1e a5 b5 bc
       -0.123854786 0.087883234 -0.036581572 -0.02217346
000150 ba 49 ca bc 76 25 f2 3c 01 76 b3 bd 87 9a 6a bd
       -0.024693359 0.029558878 -0.08762742 -0.057276275
000160 c7 f2 14 bd 15 d7 02 bd 61 03 3b bd d0 25 ab bc
       -0.036364343 -0.0319434 -0.04565752 -0.020892054
000170 f4 69 19 3d f5 9c da 3c 22 bb 07 bd 76 88 17 bb
       0.03745456 0.026686171 -0.033137448 -0.0023122109
000180 d8 cd 12 bd 06 e4 a5 3c 10 50 80 3c a1 82 06 3d
       -0.03584084 0.020250332 0.015663177 0.03283942
000190 c3 d4 bf 3c 16 b8 1a bc ec 43 ec bc bb 1b 0a 3d
       0.023416882 -0.009443304 -0.028840981 0.033717852
0001a0 9e 9e 84 ba 96 ae fc bc dc a3 89 bc 0b c7 4b bd
       -0.0010118072 -0.030844968 -0.016801767 -0.04975037
0001b0 87 06 ea bc e0 99 4f bc d4 b5 6c 3c ea 70 53 bd
       -0.028567566 -0.012670964 0.014447648 -0.051621355
0001c0 fe 1b 3b bd ff 8b 1a be de 5a ab bd 6a a2 71 3c
       -0.045680992 -0.15092467 -0.08366941 0.014748195
0001d0 b4 2e 6f bc c1 f0 a4 3c 1f b1 68 bd 1b f9 d6 bd
       -0.014598537 0.020134332 -0.05680954 -0.10496732
0001e0 c4 a7 58 be e7 e8 09 be 3e 54 c5 bd 09 72 81 3b
       -0.21157748 -0.13467751 -0.096352085 0.0039503616
0001f0 1e 2e f2 3c e8 a3 02 be 79 df c4 bb 7e a2 30 be
       0.029563006 -0.12757838 -0.0060080853 -0.17249486
000200 c6 b8 62 be 02 38 80 be cd a8 92 bd 83 41 47 bd
       -0.22140798 -0.2504273 -0.071611024 -0.04864646
000210 19 9e 93 bd e7 58 5d 3d 5c ae 4c 3c 0f fb 62 3c
       -0.07207889 0.054039862 0.012492742 0.013853802
000220 d2 d4 2d 3e a5 3b 71 3e 61 09 a4 3d d5 f7 66 3a
       0.16975716 0.23557909 0.080096014 0.00088107336
000230 f7 54 96 3c 08 14 c8 bc 5e 31 9d 3d 59 47 e9 3d
       0.018351061 -0.024423614 0.07675432 0.113905616
000240 0d b2 b1 3c 1c e3 7d bd 65 33 79 bc 86 3c 29 3c
       0.021691347 -0.061984167 -0.015210007 0.010329371
000250 d5 99 6e bd ec 8f a2 bc cd a6 84 bd 45 3a 8f 3c
       -0.058252174 -0.019844018 -0.06477127 0.01748384
000260 7d 15 a2 3d a9 e2 15 3d fb aa b2 bc 29 5e 8f 3d
       0.07914255 0.036593113 -0.021810045 0.070003815
000270 39 74 6c 3d 00 3c 6e 3c f1 50 31 3e de 7a 50 3d
       0.057728026 0.014540672 0.17316033 0.050898425
000280 35 0b 2b 3d 6b 62 47 3b 0c 13 79 3d c3 c6 76 bd
       0.041758735 0.0030423652 0.06080918 -0.060248148
000290 47 5e 55 be 2f 95 46 be 5b 07 ec bc 00 a8 e2 3d
       -0.20836745 -0.19392847 -0.028812101 0.110672
0002a0 ee 22 41 3c e0 a9 94 bd 6a 37 23 be ab 81 96 be
       0.011788113 -0.072589636 -0.15939108 -0.29395804
0002b0 5d 94 63 be 77 c5 80 be c0 1e 4d 3d 06 64 4b bc
       -0.22224565 -0.25150654 0.050078154 -0.012413984
0002c0 11 be e2 bd 56 5d a9 3d 7e 5b d3 3e c3 0a ca bd
       -0.110714085 0.082697555 0.4128074 -0.09865334
0002d0 06 ee e5 bd 80 4e 90 bc 3c 78 d0 3c 89 2c cd bb
       -0.1122704 -0.017615557 0.025447957 -0.0062614125
0002e0 ce e0 16 3c 60 78 85 3d 20 b1 01 bd d8 e7 ef bd
       0.009208871 0.065171 -0.03166306 -0.117141426
0002f0 0a 40 57 bd 2d ed bc bb 85 f1 89 3c 45 19 94 bc
       -0.052551307 -0.0057655782 0.016838798 -0.018078456
000300 a5 9a dc bc 48 2a 2c bd 51 71 58 bd 49 89 7b ba
       -0.026929209 -0.04203251 -0.052842442 -0.0009595347
000310 30 46 2d 3b 8b 6d b9 bd fd 79 c3 bd c6 40 12 bd
       0.002643954 -0.09054097 -0.09544752 -0.035706304
000320 c8 bd 03 3e ca 6c 7f 3d ca 3b ef bc 86 60 06 bb
       0.12865365 0.06235961 -0.029203314 -0.002050431
000330 ca 6b 4a 3d c9 69 5e 3d 1c 10 57 3e 95 10 9a 3e
       0.049419202 0.054300103 0.21002239 0.30090776
000340 90 06 95 3e 52 9c a0 3d fe cc ae 3d e5 4e 4b bd
       0.2910657 0.07842316 0.08535193 -0.049635787
000350 e9 b7 a3 be 0a 89 3c be d7 36 a2 bd 66 7b d9 bb
       -0.3197625 -0.18411651 -0.07920616 -0.0066370247
000360 85 aa ea 3c 15 f8 05 bc c4 4d f0 3d 25 3b 94 bd
       0.028645763 -0.008176823 0.117335826 -0.072378434
000370 15 f6 c8 bd 37 f2 d1 be 87 2f 05 be 4e 65 f3 3b
       -0.098125614 -0.41005108 -0.13006411 0.007427848
000380 1e dc b9 3c cc f4 1f 3d a1 97 f5 3d a4 99 0c 3e
       0.022687968 0.039051816 0.119918115 0.13730484
000390 49 49 13 be 43 68 9b bd 4c 1d 27 bd e3 cd 3a 3d
       -0.14383425 -0.07588246 -0.040799424 0.045606505
0003a0 e1 c0 01 3d 92 68 8a 3d 6c f9 f8 3d 6f 86 4d bd
       0.031678084 0.067582265 0.121569484 -0.050177034
0003b0 de e3 02 bc 56 58 22 3c 97 c4 b5 3c be 5b f3 bc
       -0.007988898 0.009908756 0.022188468 -0.029706832
0003c0 3a 6c be 3c 36 d5 f3 3c 3c 5b 1e 3c a7 18 bc 3c
       0.023244966 0.029764753 0.009665307 0.022960974
0003d0 31 e2 08 3c 5b 30 06 bc b4 55 3a 3d 65 35 3a 3c
       0.0083547095 -0.00819024 0.04549189 0.011365269
0003e0 ba 3f 1c 3e fe c7 11 3e cb 22 c7 3d c2 59 31 3d
       0.15258685 0.14236447 0.09723433 0.04329849
0003f0 e6 04 0f 3d 4b 92 82 bd 33 ca 87 bd c5 dc 0d be
       0.03491678 -0.063755594 -0.06630363 -0.13853748

classifier.1.bias f4 [10]
000000 f1 1d 80 bc 91 84 d1 3e be 9c 49 3d 03 83 2c be
       -0.015639277 0.40921453 0.049221747 -0.16846852
000010 11 de 09 bd 64 e5 18 be f8 33 99 bd ad c7 96 3d
       -0.033659045 -0.14931256 -0.074806154 0.07362304
000020 47 3e 79 bd 95 19 4e bd
       -0.060850408 -0.050317366
