checkpoints/model_epoch_3.pth (torch, 34447 bytes, 10 tensors)

conv_block_1.0.weight f4 [10, 1, 3, 3]
00000000: fd68 13bc ff2a 06be 5107 babb 6ad7 7ebe
00000010: f6b7 10be 4a30 893c 734b 253e 24e8 dc3d
00000020: 7973 3ebd fa75 5fbe 2ef5 9a3d 7d43 2dbe
00000030: a6e0 babe 492f bb3e e999 543e 935b b6be
00000040: 7545 263e 0ea0 d33e ac19 d53e 3203 c73e
00000050: cab3 b53e 16a9 15bf af44 833e cadf 65be
00000060: 5c42 40bf 47be c6be d259 b53e b6cf 823e
00000070: d99d 733e 139e a03e 4def 4b3e 142e b2be
00000080: c224 4cbd d6e8 553d 162a 57bc a4fd 06bf
00000090: 5691 eebd 926f adbe 1fc0 b3bd 3ada 253d
000000a0: 8fc2 103f e4ad 823d 5a28 b73e f1cc 143f
000000b0: 0c2a 0fbc 30a7 89be 7137 543e 5e6d 6ebe
000000c0: 58bf a4be c847 c43d 877b 593d d687 9b3e
000000d0: 2a67 f1bd bdd1 9d3e 91b7 bf3d c8ea 503e
000000e0: 3d02 c8bd a346 bcbe 124b 4b3e 43b7 b4be
000000f0: b611 87be 2876 a43e 5760 c0bc c012 9b3d
00000100: 4e90 51be 89c9 8ebe 35cb 63be 5198 26be
00000110: 354f bdbd e581 223e 4873 653d 9f53 76be
00000120: 6be4 4f3e 8c91 89be a50f 7c3e 3f5b d43e
00000130: a8d7 7b3e 6c39 683d ccb1 1f3e 20de 94be
00000140: 651e 8abd 8ab3 4d3e a0a3 623e 9be4 80be
00000150: bd19 c33b fcb9 0fbe a67f 30be dd23 7bbe
00000160: 5ed6 dfbe 139d cbbe
-0.008997199 -0.13102339 -0.0056771417 -0.24886861 -0.14132676 0.016746659 0.16142063 0.10786465
-0.046496842 -0.21822348 0.075662956 -0.16920276 -0.36499518 0.36559513 0.20761837 -0.3561674
0.16237433 0.4133305 0.4162115 0.38869625 0.3548873 -0.5846113 0.2563834 -0.2244865
-0.75101256 -0.38817045 0.3542009 0.25549096 0.23790683 0.313706 0.19915505 -0.3480078
-0.049839742 0.052224003 -0.013132593 -0.52730775 -0.116488144 -0.33874184 -0.087768786 0.04049132
0.5654687 0.06380823 0.35772973 0.58125216 -0.008738052 -0.26885366 0.20724274 -0.23283908
-0.32177234 0.09584004 0.05309632 0.30377072 -0.11787255 0.3082408 0.093611844 0.20402062
-0.09766052 -0.36772642 0.19852856 -0.35296068 -0.263807 0.32121396 -0.023483438 0.07571936
-0.20465204 -0.27888134 -0.22245486 -0.16269042 -0.09243623 0.15869863 0.056018144 -0.24055336
0.20301978 -0.26868856 0.24615343 0.41475865 0.24593985 0.056695387 0.15595168 -0.29075718
-0.067440785 0.2008802 0.2213273 -0.25174412 0.005953996 -0.14035791 -0.17236194 -0.245254
-0.43718237 -0.39768276

conv_block_1.0.bias f4 [10]
00000000: 3ee6 933d 012e 43bd 1626 dabd f8c8 413d
00000010: 8821 1fbd 8f79 9cbe 605b 53be 1d08 19be
00000020: 13c9 31bd 76f9 403e
0.072216496 -0.047651295 -0.106517956 0.0473108 -0.038850337 -0.30561492 -0.20640326 -0.14944501
-0.04340465 0.18845162

conv_block_1.2.weight f4 [10, 10, 3, 3]
00000000: f1ac 813d aa4d 6fbd 7690 bb3d 54b0 c43d
00000010: 0dec 1c3d 33ae 223d b9c9 043d ab09 a83a
00000020: ff5e 8b3d 0c69 6bbc 7533 91bd 29ab ff3d
00000030: 4158 d23d 7357 f0bd 1ffe 05be 6b31 20be
00000040: 7230 19be f6e9 913b ef2e 53bd 0fdc eebd
00000050: 47c2 1c3e 913a 38bc be6e c2bc d567 433e
00000060: 50da c73d 69b2 fb3d d09f cabc a565 05bd
00000070: 3c11 4f3d 68c0 4b3d d417 c7bd 46b8 78bd
00000080: 2956 463e b913 54bd ae7a 9f3d cb7a 88bd
00000090: be98 983c 6ef7 3b3e 099e 403e c92a 5dbe
000000a0: 7edd b9bd 2896 56bd f30d 08be 69d2 eebd
000000b0: b7a3 cbbd 8b33 c23b b641 d1ba 98d5 893d
000000c0: ad70 e0ba 7324 0b3d 6174 963d b656 57bd
000000d0: f461 c2bd 8a83 c1bd 0b53 30bd 83ca 4fbb
000000e0: fee2 553d 26ed 32bb f968 c039 23da 4e3d
000000f0: 56c7 193d 6c3a c93c 51e1 01be d6d8 c1bd
00000100: a59a a2bc 935d 593d 7846 d2bc 36f6 a73c
00000110: 3a56 cdbd c9ef 363d 3cae 89bd 8ad6 253c
00000120: d1a8 bfbd 1f91 043e 4980 633e 8508 87bd
00000130: 7b67 993d af60 0e3d 93b5 32be a464 70bd
00000140: d1db bbbd 81cc e03c 5258 a7bc 2a01 25bd
00000150: 41d5 663d 632f d93c 020a d4bd 5e6b 3b3d
00000160: 18f0 c93c 52a6 443d 998b 27bc b2dc e5bd
00000170: 8f80 ad3d 253a 03bd 0e03 7a3d 18bf d33d
00000180: 86b2 b03b 8037 ce3d d708 b23d 08a6 8fbd
00000190: 7f46 44be 7fa2 d23c 1f12 223d e90d 10be
000001a0: b9e4 70bd bc01 93bd ee32 243d 13c8 c83d
000001b0: 17c2 1c3e f131 09be df04 d9be 95b5 9f3c
000001c0: 4d30 99bd 342b 5ebe 3cb9 93bd a3be 14bd
000001d0: 1276 533d aa46 323d 0cc5 ce3c df91 223c
000001e0: 7c75 4cbe d16a 323d 77da ccbd 4830 83bd
000001f0: 09cd 98bd 3db7 e03d 8cbc 993c 41f2 0bbe
00000200: a8b0 2bbd c19b 6f3e 4f38 663e f19f 873e
00000210: 8a94 683d 13ef 503d dfb3 5a3e 6cc1 af3d
00000220: d8f5 843d a076 8c3d c863 903d 2ad9 103b
00000230: 6c51 93bd 75c8 9abd 1c17 46bd 53f9 e93c
00000240: 5243 c63d bd41 a6bd 5740 2dbe 10b0 83bc
00000250: 69e8 0bbd 3aa3 5bbd 67f0 27bd 692c 3b3d
00000260: 3a63 683d 5501 37bd 662c 1fbc d927 f03a
00000270: 2110 f7bc 4e26 ffbc 2e0d a7bd 13e9 233b
00000280: bf06 c53d ac3f 57bc 67e6 36bd 4f09 03be
00000290: 34c9 6abe 001e 303d df7d b43d b01e fe3d
000002a0: 6c4d 1c3e 4b87 203e c0a4 513d 8ab6 1bbe
000002b0: 8c94 7dbd f09d 01be 9242 0ebe 2f41 b5bc
000002c0: 6763 4b3d dace a0bd b062 0fbe 44b3 c5bd
000002d0: fe8c 4abd d272 883d d925 b93d 64a5 a5bc
000002e0: 08cd 20bd 35ca 023d e8d2 eebc 4db1 a73d
000002f0: 2794 1ebc 248e 0bbb 4928 17be 5c52 773d
00000300: a628 adbd fc3d b03d cf69 81bb 6321 8bbd
00000310: 664c 1fbe 27a1 2d3e 0a50 2dbd b99b 9cbd
00000320: 61a4 df3d bce3 8e3d 039c 833b 6dca 46bd
00000330: 8c17 bb3c a419 123e eadc 563e a9bb f7bd
00000340: 4380 30be 4b9a 3cbe 9f25 e13d 05fa 91bd
00000350: e805 373c 1532 333d 09f2 093b f13c 0bbd
00000360: 4870 853d fc9f 083e 5d78 273e ae1c 5bbe
00000370: f48d 44bd 730f 423e 90d3 f6be a22c f0be
00000380: 69ab 53be 9ad5 c2bd bb34 aebd 2914 ebbd
00000390: 57ec a03d 911e 4dbd d5a6 a0bc dead c7bb
000003a0: 45e8 acbd c5e6 bc3d 0b7c a33d 8fa9 a8bd
000003b0: 2778 b53c 8861 4dbd a22e 153d 500b cf3d
000003c0: 59af 09bd fd42 94bd 9814 853d 8572 6a3d
000003d0: 9162 35bd 609b bc3d cfc2 f1bc 9847 f8bc
000003e0: 555e cdba 49c0 c83d 4eae bb3d 6310 923d
000003f0: 252c 3bbb 5066 af3c 0e52 42bd 4287 7c3c
0.06331814 -0.058423676 0.09158413 0.096039444 0.038311053 0.03971691 0.03241894 0.0012820264
0.068052284 -0.014368307 -0.07089893 0.12483818 0.10270739 -0.117354296 -0.13085221 -0.15643851
-0.14959887 0.004452939 -0.05155843 -0.116630666 0.15308486 -0.011244432 -0.023734447 0.19082578
0.09758437 0.122898884 -0.024734408 -0.03256764 0.050553545 0.04974404 -0.09721342 -0.06072261
0.19368805 -0.05177662 0.07787071 -0.06664046 0.01862752 0.18356106 0.18810286 -0.21598352
-0.090754494 -0.052389294 -0.13286571 -0.11661226 -0.099433355 0.0059265546 -0.0015965018 0.06730193
-0.0017123424 0.033970308 0.07346416 -0.05257293 -0.09491339 -0.09448917 -0.043047946 -0.00317064
0.05221843 -0.0027301996 0.00036699304 0.050501 0.037543617 0.02456399 -0.12683608 -0.09465186
-0.01984913 0.053067755 -0.025668368 0.020503145 -0.10026212 0.04466227 -0.06722686 0.010121951
-0.09358371 0.12945984 0.22216906 -0.06593422 0.074904405 0.034760173 -0.17452078 -0.05868973
-0.09172786 0.027441265 -0.020427857 -0.040284313 0.05635572 0.026511854 -0.10353471 0.04575669
0.024650618 0.048010178 -0.010226154 -0.11223735 0.08471786 -0.032037873 0.06103807 0.103391826
0.0053923754 0.100691795 0.08693092 -0.0701409 -0.19167517 0.02571225 0.039568063 -0.14067806
-0.058811877 -0.07178065 0.040087633 0.09803786 0.15308414 -0.13397957 -0.4238653 0.019495765
-0.07479916 -0.21696168 -0.07213065 -0.036314618 0.051626272 0.04352442 0.025240444 0.009922474
-0.19966692 0.0435589 -0.10002606 -0.06405693 -0.07460982 0.1097245 0.018766664 -0.13666631
-0.04191652 0.23399259 0.22482418 0.26489213 0.056782283 0.05100925 0.21357678 0.08581814
0.064922035 0.068585634 0.07050282 0.0022102096 -0.07193264 -0.075577654 -0.048361883 0.02856127
0.09680809 -0.08118007 -0.16919075 -0.016075164 -0.03415719 -0.05362246 -0.04100075 0.04569665
0.056735255 -0.044679005 -0.009715175 0.0018322422 -0.030159058 -0.031146195 -0.08156811 0.002501075
0.09620427 -0.013137739 -0.044653323 -0.1279652 -0.22928315 0.04299736 0.088130705 0.12408197
0.15263909 0.1567661 0.05118251 -0.15206352 -0.061909243 -0.12657905 -0.13892582 -0.022125809
0.049655344 -0.07851954 -0.1400249 -0.09653333 -0.049450867 0.06662525 0.09040422 -0.020220466
-0.039258033 0.03193112 -0.029153302 0.08188114 -0.009678877 -0.002129444 -0.14761461 0.06038128
-0.08455019 0.086055726 -0.003949381 -0.067934774 -0.15556487 0.16956006 -0.04231266 -0.07646889
0.10920025 0.06977031 0.004016401 -0.048532892 0.022838376 0.14267594 0.2098271 -0.1209634
-0.17236428 -0.18418233 0.10993504 -0.071277656 0.011170842 0.043748934 0.0021048805 -0.033993665
0.065155566 0.13342279 0.16354509 -0.21397659 -0.04798694 0.18951206 -0.48208284 -0.46909052
-0.20670857 -0.095133975 -0.08506151 -0.114784546 0.07857578 -0.05007798 -0.019610802 -0.0060937246
-0.084427394 0.09223703 0.07982644 -0.08235466 0.02215202 -0.05014184 0.036421426 0.101095796
-0.03361449 -0.072393395 0.064980686 0.05723812 -0.044283453 0.09209323 -0.029511837 -0.030307576
-0.0015668372 0.098023005 0.09164105 0.07132032 -0.0028560248 0.021411091 -0.047441535 0.015413107

conv_block_1.2.bias f4 [10]
00000000: fab8 e63c ecbf 463e 52a7 a83b b5b9 7dbd
00000010: cb9b 06be df6d 4fbc 819e a63d 3e3b a0bd
00000020: 481e fa3c a7e9 923d
0.028164376 0.1940915 0.0051468993 -0.061944682 -0.13145368 -0.012660473 0.08135701 -0.078237996
0.030532017 0.07173472

conv_block_2.0.weight f4 [10, 10, 3, 3]
00000000: 9aa9 d1bb f6b1 8f3d 2e04 863e e6d8 e6bd
00000010: c5fa 983c 5715 8bbd 14cc ecbd da1b 71bd
00000020: a310 eebc 9045 4abd 6e23 77be 9240 cebe
00000030: 3fe7 f03d e765 28be daa6 4a3d 976f debc
00000040: c2dd 87bc 43fc bb3e 2196 05be 588a b1bd
00000050: 1f03 553e 9ee0 35be 7250 a8be 8230 03be
00000060: 42d7 1abe 7006 713e 4904 383e f455 bc3d
00000070: f133 70be 2b9c d9bc 54f3 3a3d ea1c 1cbe
00000080: a06f 63be 8969 c93d 14ff 23be 1015 90bd
00000090: 909a a53d 9ca8 5c3c a751 10be c5d3 7b3d
000000a0: 855c 963b 54d4 7b3e a22b 973e dc9a 7c3d
000000b0: 5b38 803c 2e15 113d 8e62 02be 2042 d43c
000000c0: 3465 873d 3706 70be b1fa 89be 96af 3c3e
000000d0: 699c 5cbd 3ca7 463e 373e 3ebe 6de2 d5be
000000e0: d78f d7be 5c4a 94bd 968a 90be 96e0 003e
000000f0: ce43 b7bd 2ccd 713d bc26 f43e 2bbc babd
00000100: 85e3 a3be 06ac b1be e009 d0bc d2c3 28be
00000110: d66e 823e 13e5 c93d 52f1 963d cdef 883e
00000120: f04b 6939 4011 7cbd 95a2 3b3d 73c2 4f3d
00000130: 7279 61bd bd1f 09bd 2887 ce3c c2bc ab3c
00000140: 5542 903d 4475 503e 5585 a73e 4a26 473e
00000150: 30e2 3bbd 4f07 c9bc b5d6 86bd 16b3 5fbe
00000160: a28d 813c d4aa 88bd c99b fcbc 7335 9c3d
00000170: daf9 483d f0a2 343d 5f5c 383d 4d16 9c3d
00000180: 358f e3bb 701b 0abd 4b8d 343d 4780 2e3e
00000190: 0d4b 213c e59a 44be d21e 8abe f5ae 85be
000001a0: 0f3b 7fbe 11da 3a3e b2f5 323d 469c 733e
000001b0: 738f c03e 02b1 163e 5bb3 7fbd 44a1 95bd
000001c0: 63b0 55be 3b26 94be 6369 c3bd 5b44 3cbe
000001d0: 78fa 88bd 9468 8f3e 4360 223d de47 64bd
000001e0: 5a35 2d3d 67d3 9ebc 290c e6bd 3b78 013d
000001f0: aa46 43be c782 29be 28bb 90be 4c01 283e
00000200: 67f4 22bc b866 fdbb b63c bcbc 8230 583d
00000210: de63 e93d 69c4 3abd 57fa 7a3d a9c6 d73e
00000220: 7e52 203e 0e1d 85bd 87b3 43be 9944 02be
00000230: 0197 c1be 59a9 d13d 84bb f8bd 7232 6cbd
00000240: bd4b c63e 205a 5bbc 9416 97be bf5d 7b3d
00000250: e710 bcbe 5455 57be f23e 663e f7b5 91bc
00000260: 9561 683e fb06 b9be 039e a5be feac 77be
00000270: cdeb 1cbe 78aa ddbd 1553 dabd 1147 40bd
00000280: 2950 113d 7dbd 693e b605 2b3e bef6 2e3d
00000290: 1534 9b3d 143f b5bd 93cb f4bd 64c6 6e3d
000002a0: 3ab5 1fbd d79a 813d efe8 013d a3ad f93d
000002b0: 7905 333e 8d28 713e f584 ea3d b273 493e
000002c0: 3bf0 af3d 03ed 1fbe b93b 3ebc 2c3e 3b3d
000002d0: 7f66 f53d 807f 28bc 3e76 76bd cc33 b6bd
000002e0: 60f8 503d c9e6 883e 97aa b03c 604c aebc
000002f0: bd06 e93c f59e bb3d 6b4d d23d 2a9d 0f3f
00000300: 46a2 8cbe be24 87be 8ac6 683d 25c3 c63c
00000310: ae69 8fbe 952d 46bd 1e8e 8b3d c4a0 ab3c
00000320: 4f77 603e a437 343d eac0 c73e 0305 c13e
00000330: fedb 9ebe 451f 8fbe 58a1 31bd ce13 7ebd
00000340: 00c3 5bbe 0324 be3d 5fa5 f4bc 7cd3 c6bd
00000350: 79ac b6bb 1b11 78bd 1606 75be 6843 10be
00000360: fdb0 f23d 681c d23d 0ac5 c8bc eeff 983d
00000370: 9371 02bd c4bf 11be e554 323e b95a f0bc
00000380: ecd5 85be 7855 423d 399c 5c3c 48f1 d33e
00000390: b3a0 40be b6e3 023d 5a97 653e ea5d 29be
000003a0: 17d9 58be 770a 4abe 8011 a13d 291f 243e
000003b0: ddbc 203f df24 95be 4c89 1abe 8e09 023d
000003c0: 77d6 75be ee9e 14bf 4f98 483e 16d8 62be
000003d0: 62ac 56bc 175a 4c3d f125 63be 4489 a3be
000003e0: b2fb 06bf 8d95 5d3d dafa 683e 9148 963e
000003f0: f71f b1bc 862f bebc a223 60bd 18ee 2f3d
-0.006398392 0.07016365 0.26175064 -0.11271839 0.018674264 -0.067911796 -0.11562362 -0.058864452
-0.029060667 -0.049382746 -0.24134609 -0.40283638 0.11762857 -0.16445123 0.04947553 -0.02715282
-0.016585235 0.36715898 -0.13045551 -0.08668965 0.20801972 -0.17761466 -0.32873875 -0.12811473
-0.15121177 0.23537612 0.17970385 0.09196082 -0.23457314 -0.026563725 0.045642212 -0.15245405
-0.2221055 0.09834582 -0.16015273 -0.07035267 0.08086121 0.013467934 -0.14093648 0.061481256
0.004588666 0.24592716 0.29525477 0.061671123 0.015651872 0.03542059 -0.12732908 0.025910437
0.066111 -0.23439871 -0.26949075 0.18426356 -0.0538601 0.19399732 -0.1857842 -0.41774312
-0.4210193 -0.072407454 -0.28230733 0.12585673 -0.089484796 0.059033558 0.47685802 -0.091179214
-0.3200952 -0.34701556 -0.025395334 -0.1648095 0.25475186 0.098581456 0.07370247 0.26745453
0.000222489 -0.06153989 0.045809347 0.05072255 -0.05504746 -0.033477534 0.025210932 0.02096403
0.07043902 0.20357233 0.32718912 0.194482 -0.045870006 -0.024539618 -0.06583921 -0.2184566
0.015814606 -0.06673208 -0.030836003 0.07627382 0.049066402 0.0441007 0.045009967 0.07621441
-0.006944562 -0.033717573 0.04408006 0.17041121 0.009844554 -0.19199713 -0.2697664 -0.26110044
-0.24924873 0.18247248 0.043691345 0.23790082 0.37609443 0.1471596 -0.062426906 -0.073061496
-0.20868067 -0.28935418 -0.09541585 -0.1838545 -0.06688398 0.28009474 0.039642584 -0.0557326
0.04228721 -0.019387914 -0.11232788 0.0316088 -0.19069925 -0.16553794 -0.2826779 0.16406745
-0.009945965 -0.0077331923 -0.022978168 0.052780636 0.11396001 -0.045597468 0.0612739 0.42143753
0.15656468 -0.06499682 -0.19111453 -0.1272148 -0.3781052 0.102373786 -0.12145141 -0.057665296
0.3872966 -0.013388187 -0.29509413 0.0613687 -0.36731645 -0.21028644 0.22484949 -0.017786963
0.22693475 -0.36138138 -0.32347116 -0.24187085 -0.15324326 -0.1082353 -0.10660378 -0.046942774
0.035476837 0.2282619 0.16701397 0.04271578 0.07578293 -0.08849922 -0.11952891 0.05829467
-0.03899119 0.063283615 0.031716283 0.12191322 0.17482556 0.23550625 0.11451141 0.1967304
0.08590742 -0.15617757 -0.011610919 0.04571359 0.1198244 -0.010284305 -0.06017136 -0.08896598
0.05101812 0.26738575 0.021565719 -0.021276653 0.028445596 0.09161178 0.102686726 0.5609919
-0.27467555 -0.2639522 0.056829967 0.024262974 -0.28010315 -0.048383314 0.06814216 0.020950682
0.21920513 0.043998376 0.3901437 0.37699136 -0.31027216 -0.27953544 -0.04336676 -0.062030606
-0.21461105 0.092842124 -0.029864011 -0.09708306 -0.0055747596 -0.060563188 -0.23928103 -0.14088213
0.11850164 0.10259324 -0.024508018 0.0747069 -0.031846594 -0.14233309 0.17415197 -0.029340135
-0.26139772 0.04744479 0.013464981 0.4139502 -0.18811302 0.031955443 0.22421017 -0.16539732
-0.21176563 -0.19730555 0.07864666 0.16027512 0.6278818 -0.29129693 -0.15091437 0.031747393
-0.24007593 -0.5805501 0.19589351 -0.22152743 -0.013102623 0.049890604 -0.22182442 -0.31940663
-0.52727807 0.0540977 0.22751942 0.2935224 -0.021621687 -0.02321602 -0.054721482 0.042951673

conv_block_2.0.bias f4 [10]
00000000: e2d8 3b3e 0b25 513e 3697 9cbd f964 1b3e
00000010: 0969 d2bd e7fb 70bc e71c fe3c 0095 2cbd
00000020: f3d6 ce3d 901d 123e
0.18344453 0.20424287 -0.07646029 0.15175237 -0.1027394 -0.014708496 0.031019641 -0.042134285
0.10099592 0.1426909

conv_block_2.2.weight f4 [10, 10, 3, 3]
00000000: f9af 2ebe 4a9e c0bd 834b 9a3e 3bf5 153e
00000010: 286e 9a3e c37b 1e3e c5fa 79be 06e0 64be
00000020: a094 5fbe 52bb b33d 178b c93d 3c26 3b3e
00000030: 4e72 c43d c470 773c 674b fcbc 5b76 aabe
00000040: b132 88be 8d9d a6be 523e 5fbe f2fc 62be
00000050: 5e27 a0be 9825 00be 712b 6b3c f8bc 1f3d
00000060: 99f3 e5be 7f13 f7bd 74ad 7abd 4820 a53d
00000070: d7dd 7dbd e9e3 c33d 6db3 5bbd bb1a aabc
00000080: 5e16 d6bd 625a 8fbd ec6e 3cbc 7cd2 89bd
00000090: e261 84bd 620b 943e a99b 873d 1ae4 32bd
000000a0: 70ca b73d 5f2e efbd 2047 d7bc e4f9 5cbd
000000b0: c0bc a43d 959e 92bd 1d7a 99bd e959 7dbd
000000c0: 8511 24be 31e8 76bd 5f79 c5bd 3f84 50be
000000d0: ccad 8fbc 3765 833c 9e41 533d 56d3 adbd
000000e0: f414 2b3d 552b 06be 93d0 babd 6976 dbbc
000000f0: 5550 423e a0f6 11bd 8956 ed3d e058 96bd
00000100: 98a1 54bd 91dc 5e3c 6df6 90bd d9a0 d03d
00000110: 315f 66bd 47ce 973c 4d25 91bd 3339 9bbd
00000120: 277e 4dbe 2245 4dbe fc4e 68be 47a5 ee3d
00000130: 98ee a73e 780b 273e 4641 643d cead 8ebe
00000140: 9c77 5bbe 3c91 7abb 8205 32bc 8dc4 43bd
00000150: 242e adbd ed58 ddbd 246f 46be 0c54 1c3e
00000160: b9d1 e13d f99a 273e ce3d 2c3f 4e35 aa3e
00000170: a754 61be 3ac5 843e 5b5c 3ebf ff05 c5be
00000180: b6e6 05be 97b4 9fbe b06c 3c3e 5fa8 423c
00000190: 40ae b6be cb22 e9bd 9a44 77be 21e4 cabe
000001a0: 9897 a23d 8643 06be 26f7 173c 3551 45bd
000001b0: f169 a7bd f2cc 2abe 1949 65be 7d33 36be
000001c0: e4e8 c8be a541 c1be 4000 75be 6417 41be
000001d0: 40e2 90be fc6a 803c c3c0 22be f6b7 823d
000001e0: ea41 b03c be87 933d dd8f bdbb 1259 563d
000001f0: 419e b23d eece 42bd 5780 62be a950 14be
00000200: a850 333e eff2 14bf cc1c 82be 20be bb3e
00000210: e846 78be b1af 813e 1a65 383e 9887 b8bd
00000220: 3440 58bc 86f5 3dbd 3108 3dbe f59b 08be
00000230: b97b 22be 590d 24be 90ea f03b 4043 54be
00000240: 190b 79bd 53e3 8abd 1644 d3bc c3c7 983d
00000250: 6488 8cbd 64f5 b83d 5ec4 02be 343a 0dba
00000260: d640 403d 53ca c3bc 20e1 27bd bc75 a13d
00000270: 5e20 b4bd a92a 42bd 5e79 933c 1b09 0c3d
00000280: 1c96 2dbd c469 193d 5d41 95be 8815 933e
00000290: 8158 fbbd 4497 383c 728f f73d 7d74 45be
000002a0: d4e3 6c3e 9c10 c03e 633b 2b3e bbbc 58be
000002b0: 9a61 3d3d ebb5 2b3e 92d4 e3be e705 493d
000002c0: 9974 d73d dde2 bdbe 9dcc 32be a755 fabe
000002d0: c44e a2be 4e29 89be 3635 8cbe 5497 65bd
000002e0: ca5a 913d 6d3f a83d 31a0 acbd fc23 24bd
000002f0: 4277 223e 60ab 5f3d 8f77 043e 3c6f 223e
00000300: 4467 10bd 9c15 a9bc 1f6c 4bbd b636 143d
00000310: cfed b33d c26e 7f3c a366 bb3e 4178 5a3e
00000320: 0991 923e 9108 0fbe ab75 9bbe 6de3 00bf
00000330: 7985 01be f221 c73d 8c0a 8bbc 757b 063c
00000340: f4ef bdbd 6239 80bd 6585 d03d 902c 393d
00000350: 0508 723d 3fd3 b23d a45b 833c f1a3 263e
00000360: 6f9f 78be 28c5 bfbc 513f a3bd 3eef b1be
00000370: 72b5 a2be 0b12 37be 9817 f83c c21b 1e3e
00000380: 4303 be3e ebc5 6abb 12b5 9ebc 0d59 c139
00000390: 4912 9dbe e8ac 45be e806 54be 5a4a 40bd
000003a0: 3e95 553d 2a07 3b3e db05 2f3c b590 1d3d
000003b0: a057 f5bd 57b0 873d aba0 b6bd fa03 f9bd
000003c0: 553e 32be e084 22be f5aa 873d 1966 aabd
000003d0: ee88 a8bd 8057 6fbd c56d 2fbd 7f87 afbb
000003e0: 44d6 fd3c 9e5c 823c 9bf7 67bd 625d febc
000003f0: 1e74 3cbe 71a7 91be 605a bfbe d03d 9bbe
-0.17059316 -0.09405191 0.30135736 0.14644329 0.30162168 0.15476899 -0.24412067 -0.22351083
-0.2183404 0.08775963 0.098409824 0.18276304 0.095921144 0.015102569 -0.030797673 -0.33293423
-0.26601174 -0.32542077 -0.21801117 -0.22166803 -0.31280035 -0.12514341 0.014353619 0.038998574
-0.44912413 -0.120642655 -0.061200574 0.08062798 -0.06197914 0.09564955 -0.05363791 -0.0207647
-0.10453485 -0.06999661 -0.011501055 -0.067296 -0.06463982 0.28914934 0.06621487 -0.043674566
0.08974159 -0.116787665 -0.026279032 -0.05394925 0.08043814 -0.07159153 -0.074939944 -0.061853323
-0.16022308 -0.06028003 -0.0964229 -0.20362948 -0.017538927 0.016039474 0.05157625 -0.08487575
0.04176803 -0.13102467 -0.091218136 -0.02678986 0.18975957 -0.03563559 0.11588771 -0.0734117
-0.05191192 0.013602392 -0.07078252 0.10186929 -0.056243125 0.018530978 -0.07087193 -0.07579269
-0.20067655 -0.20045903 -0.2268638 0.11652618 0.3279922 0.16312969 0.055726312 -0.27866977
-0.21432346 -0.003823354 -0.010865571 -0.047794867 -0.08456066 -0.10807977 -0.19378334 0.15266436
0.110263295 0.16367711 0.67281806 0.33243793 -0.22004949 0.25931722 -0.74359673 -0.38481137
-0.1307629 -0.31192467 0.18400836 0.011880963 -0.35679817 -0.11383589 -0.24147263 -0.39627174
0.079390705 -0.13111696 0.009275233 -0.04817315 -0.081745036 -0.16679743 -0.22391166 -0.17793079
-0.3924018 -0.37745395 -0.23925877 -0.18856579 -0.28297615 0.015676014 -0.15893845 0.06382744
0.021515805 0.07203625 -0.005784972 0.052331038 0.08721591 -0.047560625 -0.2211927 -0.14483894
0.17511237 -0.5818319 -0.25412595 0.3666849 -0.24245799 0.25329354 0.18007317 -0.090102375
-0.013198901 -0.046376728 -0.18460156 -0.13340743 -0.15867509 -0.16020717 0.007352181 -0.20728779
-0.0608016 -0.0678164 -0.025789302 0.074599765 -0.06861952 0.090311795 -0.1277022 -0.0005387396
0.046936832 -0.023900187 -0.04098618 0.07883784 -0.08795236 -0.047403965 0.018002208 0.03418837
-0.042379484 0.03745438 -0.2915143 0.28727365 -0.1227274 0.011266533 0.12087907 -0.19282718
0.23133785 0.37512672 0.16721873 -0.21165745 0.04623566 0.16768615 -0.44498116 0.049077895
0.10520286 -0.37087145 -0.17460866 -0.48893473 -0.31700718 -0.26789325 -0.27384347 -0.05605252
0.07097395 0.082152225 -0.084289916 -0.04007338 0.15865806 0.054606795 0.12936233 0.15862745
-0.03525473 -0.020640187 -0.04966366 0.03618499 0.08785593 0.015590372 0.36601743 0.21334936
0.28626278 -0.13968112 -0.3036321 -0.50347024 -0.12648572 0.097232714 -0.016972803 0.008208145
-0.09274283 -0.06260945 0.10181693 0.045208514 0.05908968 0.08731698 0.016034909 0.16273476
-0.24279569 -0.023409441 -0.07971061 -0.3475284 -0.31779057 -0.17877977 0.030284688 0.15440276
0.37111863 -0.0035823535 -0.01937345 0.00036878177 -0.30678013 -0.1930424 -0.2070576 -0.046945907
0.05214428 0.18264452 0.010682548 0.03846808 -0.11979604 0.06625431 -0.08917364 -0.121589616
-0.1740659 -0.15871 0.06624404 -0.08320255 -0.08229242 -0.058433056 -0.042829294 -0.0053567286
0.030985959 0.015913304 -0.05663262 -0.031050388 -0.1840367 -0.2844806 -0.37373638 -0.30320597

conv_block_2.2.bias f4 [10]
00000000: bebd 76be d095 983d 1913 4cbd e55d a0be
00000010: d438 693e 976f f13d b692 d9bd 758e 7b3d
00000020: 1da1 b43e 38bb 433e
-0.24095818 0.074504495 -0.0498229 -0.31321636 0.22775584 0.11788862 -0.10623686 0.061415154
0.3527917 0.19114387

classifier.1.weight f4 [10, 490]
00000000: 30ee e93c 502b 49bd 6204 81bd 8ba8 083d
00000010: 4125 763d f205 c4bb adf5 b53c c0ad 7f3d
00000020: adea 563d d583 b53d 561f 1dbb 4b28 99b8
00000030: f7a3 5f3c b31f a73b 40cb ce3a 798d c33d
00000040: c842 80bd b961 13be de5b 9bbe 49b5 bebd
00000050: 6edc b1bb aaae 33bc d28d 68bc 84ae 98bd
00000060: 7e06 3dbd 4aaa 8cbd c7e9 10be ed80 80bd
00000070: 6478 c13c e35a a3bd 372b a23d b9d6 1b3d
00000080: da3f d6bd f00a 1ebd 12c3 f9bc 04d0 05bd
00000090: 5a63 4cbd fa5f ec3c d481 a6bb 8d69 c43c
000000a0: 026b 873c 46ad c8bb 8c30 bb3c 19cb cabb
000000b0: 8329 413d d74f c13b 66c0 91bc 0f2b 3abb
000000c0: 54e5 00bd 0458 c3bc a443 4cbd a166 47bd
000000d0: 6095 e0bc 2ba4 5e3a 6330 cc3c 31e8 1e3c
000000e0: f626 01bd 5e8f cdbd 18a1 3abe d0b5 1fbe
000000f0: c816 3ebd 3541 9cbd df12 31bd d8b7 4ebc
00000100: 64f1 95bb 7c74 d03c 9765 d0bc 94e5 a6be
00000110: dc0f 8b3d ae30 403c 48f6 f93b 18c5 9b3e
00000120: 1cdd 763e 43e9 38be 5725 8b3d ea32 b83d
00000130: f8ad c4bc f814 ba3c 99ba 953e 7d4a fc3d
00000140: bfce 0fbe a8dd e53d 455d a8bd c63b b5bc
00000150: 7370 c9bc da25 223d a678 b1bd 7119 7ebd
00000160: bc83 10bd 4ac5 dcbc 3c18 41bd 535e a9bc
00000170: 7557 193d 16be de3c 15c5 07bd 2cd7 1abb
00000180: 4116 14bd 7db4 9f3c 5889 4f3c 96b0 173d
00000190: 38e8 fe3c 9a07 91bb 755e b4bc e7b8 0e3d
000001a0: 379a 51ba e194 f3bc eddb 03bc f41c 7fbd
000001b0: 605a 60bd 29d2 d8bc 1715 6d3c d3b7 52bd
000001c0: 2a0b 53bd b697 40be d53b 04be 0b15 59bc
000001d0: 0e3c 4cbd a5ae fc3c acac 50bd 450c e1bd
000001e0: 54ba 71be 32ec 53be 621d 2abe 0989 22bd
000001f0: 86b0 0b3d 6183 04be f01c 93bc 6ed9 65be
00000200: 6f0b 84be 99e4 88be d39a bbbd 4997 cdbc
00000210: 2e07 93bd 95ba 793d f061 d3bc d6ee 8fbd
00000220: f832 1a3e 8b3f 6a3e ac27 873d 70d3 7bbb
00000230: ad1e ca3c 9242 28bd a2f8 6f3d ac67 113e
00000240: cda0 afba fa46 d6bd 3dad 87bc 572a 243c
00000250: da90 afbd 80db 49bd 5b37 ecbd 83a6 1b3c
00000260: 7bea ae3d 7a48 7c3d efd9 c9bc 89f8 b23d
00000270: 7ac2 b93d fd5d 983d fb69 453e 7daf 383d
00000280: 8dab 993d dc1d c83b d43f 213d 34b2 bbbd
00000290: e97f 61be 62e8 52be e51e 14bd 191b 013e
000002a0: 6d72 b73b eb52 ccbd 167b 28be 788b 92be
000002b0: 2e57 58be 7213 90be 7ff6 1d3d 10e1 49bc
000002c0: 47ed e1bd a871 7a3d d0a8 fd3e 6814 efbd
000002d0: 6dd1 b3bd 84a1 b3bc 9f09 c63c 19e8 f4bb
000002e0: 58e8 2b3d f238 b13d 55fd b1bc 665f d8bd
000002f0: 76ff 6dbd 2ded bcbb 85f1 893c b78e 93bc
00000300: c354 ebbc 7c02 30bd a0a4 46bd e3ba 40bb
00000310: ba6c 813b b4e1 d5bd 1ed6 05be 9d28 90bd
00000320: b5af a03d 0591 163d e573 d4bc ced8 aeba
00000330: e131 5f3d fcf5 1a3d f2ee 313e 80e0 913e
00000340: 613c ae3e ef73 c63d 6f17 a33d df0e 11bd
00000350: 8623 b7be c8a7 41be 7c16 64bc 3d1d adbb
00000360: 3d74 6b3d f904 783b 5078 133e 0e28 bdbd
00000370: 1cf4 cabc 8249 e7be 8ea9 26be 2db4 e63c
00000380: 98c7 0c3d c82d 633d f09f 303e 837c 043e
00000390: ccc9 4abe 0889 ddbd c531 1dbd e7e0 3a3d
000003a0: b169 993d 7e28 9e3d bfd1 293e bab1 3ebd
000003b0: 77ad 683a 5a99 193c 073c c83c 1b70 02bd
000003c0: e9f5 733c f590 8e3c 659c da3b cff4 a43c
000003d0: c3d4 1e3c 01a1 12bc 6ba7 6e3d e3fe 9dbc
000003e0: eb8c 223e f093 0b3e aa94 b33d a717 423d
000003f0: 0126 0a3d 50d8 9dbd acda b0bd 77c1 33be
0.02855596 -0.04911357 -0.06299664 0.03336386 0.06009412 -0.005982154 0.022211874 0.06242156
0.052469898 0.088630356 -0.0023974977 -7.303114e-05 0.013649932 0.0051002144 0.0015777126 0.09548468
-0.062627375 -0.14392747 -0.30343527 -0.09311921 -0.0054278886 -0.010966936 -0.014193969 -0.07455161
-0.04614877 -0.068684176 -0.14151679 -0.06274591 0.023616977 -0.0797632 0.07918399 0.038046572
-0.104613975 -0.03858465 -0.030488525 -0.032669082 -0.049899437 0.028854359 -0.0050813947 0.023976112
0.016530517 -0.0061241714 0.022850297 -0.006188762 0.04715873 0.00589941 -0.017791938 -0.0028407013
-0.031468704 -0.02384568 -0.049869195 -0.04868186 -0.027414978 0.0008493091 0.024925416 0.009698913
-0.031531297 -0.10037111 -0.18225515 -0.155967 -0.046408445 -0.07629625 -0.043230888 -0.012617074
-0.004575895 0.02544617 -0.025439067 -0.3259703 0.06790134 0.011730356 0.007628236 0.30423808
0.24107784 -0.18057732 0.067942314 0.08994086 -0.024008736 0.022715077 0.29243925 0.12318895
-0.14043711 0.11223918 -0.08220915 -0.022123229 -0.024589753 0.03958688 -0.0866559 -0.06203598
-0.03528188 -0.026949544 -0.047142252 -0.02067486 0.03743692 0.02719025 -0.033146936 -0.0023626788
-0.036154035 0.019495243 0.012667023 0.03703364 0.03111659 -0.004425955 -0.022017697 0.034844305
-0.0007995697 -0.029734077 -0.00804804 -0.06228347 -0.05477369 -0.0264674 0.01447036 -0.05144484
-0.05152432 -0.18807873 -0.12913449 -0.013249646 -0.04986196 0.030844996 -0.050945923 -0.10988668
-0.23606235 -0.2069557 -0.16612771 -0.03968147 0.034103893 -0.12940742 -0.017958134 -0.22446224
-0.25789973 -0.26736906 -0.0916039 -0.025096552 -0.07179104 0.060968954 -0.025803536 -0.07027976
0.15058506 0.22875802 0.06599364 -0.0038425587 0.02467283 -0.04107911 0.058586724 0.14199704
-0.0013399363 -0.104627565 -0.016562099 0.01001986 -0.0857255 -0.049281597 -0.11533996 0.009500149
0.08540817 0.061592557 -0.024640052 0.087388106 0.090702966 0.07439802 0.1927871 0.045089234
0.07503424 0.006107075 0.039367512 -0.09164849 -0.2202145 -0.2059646 -0.036162276 0.12607993
0.0055983574 -0.09976753 -0.16453204 -0.2862203 -0.21127006 -0.28139836 0.038565155 -0.0123217255
-0.11031585 0.061143547 0.49542856 -0.11673814 -0.08780179 -0.021927603 0.02417451 -0.0074739573
0.041969627 0.086534396 -0.021727243 -0.10565071 -0.058104955 -0.0057655782 0.016838798 -0.018012388
-0.028726941 -0.04297112 -0.048496842 -0.0029408268 0.003949729 -0.1044344 -0.1306996 -0.07038996
0.078460135 0.036759395 -0.02593417 -0.0013339759 0.054490928 0.037832245 0.17376307 0.28491592
0.3403044 0.09690081 0.07963454 -0.035414573 -0.3576929 -0.1891166 -0.013921376 -0.0052830265
0.0574839 0.003784476 0.14401364 -0.092361555 -0.024774604 -0.4517327 -0.16275617 0.028162086
0.034370035 0.055463582 0.17248511 0.12938122 -0.19803542 -0.10817152 -0.038377542 0.04562464
0.07490862 0.07722567 0.16583918 -0.046556212 0.0008875946 0.009374941 0.024442686 -0.031845193
0.0148901725 0.017403105 0.0066714757 0.020136265 0.009694281 -0.008949519 0.05826513 -0.019286579
0.15874068 0.13630652 0.0876859 0.047385838 0.03372765 -0.07707274 -0.08635458 -0.1755427

classifier.1.bias f4 [10]
00000000: 6835 bdbb 75f3 f03e e1c0 903d fd1f 45be
00000010: 68c9 68bd 3d0d 08be 6a2a 95bd 5680 e43d
00000020: 35db d1bd 7d77 e2bd
-0.005774189 0.47060743 0.07068039 -0.19250484 -0.0568327 -0.132863 -0.072834805 0.11157291
-0.102468885 -0.11057947
