checkpoints/model_epoch_7.pth (torch, 34447 bytes, 10 tensors)

conv_block_1.0.weight f4 [10, 1, 3, 3]
00000000: 1876 6cbd b9cc 13be 0ba3 56bc 0180 95be
00000010: aadd 4dbe a797 cdbd 5d83 9c3e 5cd7 1e3e
00000020: d40e 0ebe c43d 61be 78dc edbd 941e 25be
00000030: 0c24 17bf 2e3c e13d b3e7 df3e e8eb e2be
00000040: 3cb0 033d b06e d23e fafd 043f de40 033f
00000050: 4df3 eb3e efa7 08bf 1947 b43d 02e2 903b
00000060: f1bb 81bf b46d 01bf 6904 fa3e ce48 733e
00000070: aa24 da3e c748 e63e baa1 973e 8664 cdbe
00000080: 6819 2fbe fd2d 6f3e 1a9a 98be e16c 41bf
00000090: 7caf c8bd cf5b d0be be2e 52be 985e a5bd
000000a0: 6479 1f3f 5967 d7bc 9a66 033e ea0c 3a3f
000000b0: c29a 0bbe c272 96be 0362 973e d735 6bbe
000000c0: a642 c8be bae1 b73d 34aa 273d fd09 883e
000000d0: c187 18be 4dd1 913e e946 de3d 0bf2 773e
000000e0: 52e1 6ebe 2aad c3be 7b25 bd3e 7111 cebe
000000f0: 8d22 bebe 06a1 b63e 2e49 c8bd d5a0 a73d
00000100: 8ff2 51be d2f8 8ebe 7fcb 5ebe 1914 28be
00000110: 7430 bebd 6108 4b3e 612c b03d b026 6dbe
00000120: f143 993e 96cb 0abf 5d04 233e 2797 ff3e
00000130: f9b2 853e d821 723d 07c9 0b3e 4c6f cabe
00000140: 1480 4bbc 274d a03e c7c9 883e a255 78be
00000150: 10e4 60bd fbaa 57be 044e bebe 1203 e4be
00000160: 9863 1cbf 0a5d 04bf
-0.05772981 -0.14433564 -0.013100396 -0.29199222 -0.2010409 -0.10038691 0.30568972 0.1551184
-0.13872844 -0.21996218 -0.11614317 -0.16124946 -0.5903938 0.109978065 0.4373146 -0.44320607
0.032150492 0.41100073 0.5195004 0.51270854 0.4608406 -0.53381246 0.08802623 0.0044214735
-1.013548 -0.5055802 0.4883149 0.23758242 0.42606097 0.449774 0.29615575 -0.40115756
-0.17099535 0.23357387 -0.2980507 -0.7555676 -0.09799096 -0.40695044 -0.20525643 -0.08074683
0.622946 -0.026294397 0.12832108 0.72675955 -0.13633254 -0.29384428 0.29566965 -0.22969757
-0.3911335 0.08978601 0.040933803 0.2657012 -0.14895536 0.28479996 0.10853369 0.24213426
-0.2332814 -0.3821805 0.36942658 -0.40247682 -0.37135735 0.35669726 -0.09779583 0.08184973
-0.20502685 -0.2792421 -0.21757315 -0.16413917 -0.092865855 0.19827415 0.086022146 -0.2315929
0.29934648 -0.542169 0.15919633 0.49920008 0.26113108 0.059114307 0.13650905 -0.39538038
-0.012420673 0.31308863 0.26716444 -0.24251416 -0.054904997 -0.21061318 -0.37168896 -0.44533592
-0.6108947 -0.51704466

conv_block_1.0.bias f4 [10]
00000000: b975 48bd 887a 6abd 7493 583d bb0d cf3d
00000010: 9197 93bd 46e2 a7be 4bdc 56be bcd4 e7bd
00000020: bfc0 42be 26f9 c33e
-0.048940394 -0.05724576 0.052874997 0.10110041 -0.072066434 -0.3278982 -0.20982473 -0.11319873
-0.1901884 0.38276023

conv_block_1.2.weight f4 [10, 10, 3, 3]
00000000: 5085 843d 9c76 81bd 8781 a43d 5a38 bb3d
00000010: db55 163d ecd6 193d 47b4 fc3c 5850 aabb
00000020: 8f37 6e3d 4368 943d 6f93 0dbd 0dc8 713e
00000030: aa8a 043e f51d 41be 7e28 ecbd bb29 2fbe
00000040: cc2b 46be fc5d 553d 047f aebd f78b 16be
00000050: 94d0 743e 450d a5bd 6ac5 2bbe 1ba5 603e
00000060: 892f 0f3e ef9c 163e b283 ebbc d9a1 5bbe
00000070: 30c8 71bd 6820 553d 66a4 2bbe 6199 bf3c
00000080: cc2e 8e3e 9ec2 473d eb7b 883d 0003 08be
00000090: 5d63 8c3d ee1a 853e eedd e63d b4fd 52be
000000a0: f4dc 73bd 34a4 57be 439c 98be 7544 6dbe
000000b0: cedb 32be 6b01 2e3c 23e2 3fbc 9d85 af3d
000000c0: d2d4 c93b 6bc2 073d 9e0d bd3d 37d7 4ebd
000000d0: bffa bbbd 2c25 ccbd 289a 3fbd d698 bebb
000000e0: 65fa 3e3d 1cba 9abc 16f8 2f3c 669e 263d
000000f0: 188f 6e3c 3042 173d b95c 13be e67b c1bd
00000100: e7ef a2bc 3d0f 573d e265 d6bc 39f6 a73c
00000110: b45c cdbd cc9d 343d cbf3 8abd 0da4 243c
00000120: a860 4dbe d62a b13d 306f 623e 06ae 7dbd
00000130: e02a b73d ecc1 743b 33c5 47be b5a3 e3bd
00000140: dd9d 1ebe 1fca dfbc 9fd1 14be c353 16be
00000150: 81a4 9dbc c45e 163d de35 86bd e176 c83d
00000160: 83de f03d 4834 773d ee8e 573c a3e7 0abe
00000170: 684a ca3c 2b07 adbc d5ee 633c e305 8f3d
00000180: 44b9 e33b 9e94 d13d d175 d53d 96dd 3dbd
00000190: a090 68bd 1c77 3b3e 766a d7bc 6e49 2abe
000001a0: 936a 8abd 067b 3dbe a319 fabd 82eb 0dbd
000001b0: 977d 1c3e b68d 4dbe 401e dcbe 2a7e 93bd
000001c0: a521 44be 0f00 8cbe d960 d63d ba5a 3bbe
000001d0: 14f0 a0bd f615 de3d 912b 8a3e 26df 8a3d
000001e0: 5163 8dbe 019e a2bd c8f6 37be fc75 f9bd
000001f0: 558d e0bd 6971 9e3e cfa1 e0bd 28d1 bcbe
00000200: b695 debc c4b5 293e f52e 903e e379 9f3d
00000210: 227a d5bd 95b6 743b f4bd 3f3e 1109 763d
00000220: 65a9 ca3d e567 023e 2b62 fe3d ce98 f93c
00000230: 9dbb 74bd 46f6 f4bd 9498 553c e8ad 9f3c
00000240: 544d ce3d dc8a e1bd 6eae 2dbe 0b20 763c
00000250: 43c3 49bc b65a 6bbd e8a9 05bd fc1a 323e
00000260: 73e7 3e3d b936 3bbd d709 bdbb 3e36 aabc
00000270: ec9c 06bd 71d9 fdbc b3be c0bd 2a17 b73b
00000280: f890 ba3d f895 81bb c213 d0bb 0a2d a7bd
00000290: baca acbe e52a 923d 087e 983d 5e1d 343e
000002a0: c012 413d 3534 93bc f5a4 48bd 46f5 6dbe
000002b0: 427e 4bbe 352a b5bd 379c 9bbe 886a 2dbe
000002c0: b8dc 0bbe 6521 0abe 2774 a9be 3679 6fbd
000002d0: fe9e cabc 8a50 c43d d12e 0a3e 1502 b7bc
000002e0: 55a2 35bd 3e17 933c 3a57 1fbd 88aa 983d
000002f0: fc24 a6bc 4471 873d 24b8 e5bd 01eb 61bc
00000300: 703f bbbd 253d 333e a2b9 36ba fb42 adbd
00000310: 5d72 fcbd f1a7 4e3e 11e3 88bd 3c79 69bd
00000320: 39a6 e13d 6fa0 383e aa42 103e 76c3 d8bd
00000330: f99c 7abd b5df 273e 957e 803e 4c22 bebe
00000340: 4897 a8be 58fc 50be 1c7e 113e bd94 3abe
00000350: 7d15 cabd ae22 923e da5f f03d ecfa 72be
00000360: 3028 773b a28b 8b3e eea4 253e 3e87 76be
00000370: 6719 903d eff3 8d3e c30f 18bf d035 f9be
00000380: dc7a 03be f901 46bd 091e 8abd d66d efbd
00000390: 6907 b33d 5258 e7bc 83e3 c83c 370f bfbb
000003a0: 5592 50bd d7e3 093e a133 c23d 7182 c8bb
000003b0: 5396 b33c 0c24 9cbd 8cba 9e3d 10d8 223e
000003c0: 1ac6 0fbd b14a 9dbd 0329 923d 1fc7 713d
000003d0: dc0d 2bbd 2d9f cf3d 2e1f f4bc 9847 f8bc
000003e0: e26d c9ba 2c1a c83d dfaa bb3d 094d 933d
000003f0: 7282 a0bd 9ffd 6ebd aa77 993c f953 993d
0.0647074 -0.06321451 0.08032518 0.091416076 0.036702972 0.03755848 0.030847682 -0.005197566
0.058158454 0.07246449 -0.03456443 0.2361147 0.12943521 -0.18859084 -0.11531161 -0.17105763
-0.19352645 0.052091584 -0.0852032 -0.1470183 0.23907691 -0.080591716 -0.16774526 0.21937983
0.13982977 0.14708303 -0.02874932 -0.21448459 -0.059028804 0.052032858 -0.16761932 0.023388566
0.27770078 0.048769586 0.066642605 -0.13282394 0.068548895 0.25997108 0.112727985 -0.20604593
-0.05953689 -0.21058732 -0.29806718 -0.23170646 -0.17466661 0.010620455 -0.01171163 0.085704066
0.0061594034 0.033144396 0.09231113 -0.050498214 -0.091786854 -0.099680275 -0.046777874 -0.0058165593
0.046625514 -0.018887572 0.010740301 0.040678404 0.014560483 0.036928356 -0.1439084 -0.0944746
-0.019889785 0.052504767 -0.026171628 0.02050315 -0.10027447 0.0440958 -0.06784781 0.010048878
-0.20056403 0.086507484 0.22112727 -0.06193354 0.08943725 0.0037347032 -0.1950882 -0.11115209
-0.15489908 -0.027318059 -0.14533089 -0.1468039 -0.01924348 0.03671147 -0.06553243 0.09788299
0.11761191 0.060352594 0.013156636 -0.13564925 0.024693683 -0.021121582 0.013911922 0.06983545
0.0069495756 0.102334246 0.10422862 -0.0463539 -0.05677855 0.18307155 -0.026295882 -0.16629574
-0.06758609 -0.18503961 -0.12211921 -0.034648426 0.15282284 -0.2007359 -0.4299183 -0.07201798
-0.1915346 -0.27343795 0.10467691 -0.18296328 -0.07858291 0.108440325 0.26986364 0.067808434
-0.27614835 -0.07940293 -0.17965233 -0.12180707 -0.10964457 0.309459 -0.109683625 -0.36878324
-0.027170997 0.16573244 0.28160825 0.0778692 -0.104236856 0.0037340273 0.18724805 0.06006724
0.09895591 0.12734945 0.12421068 0.03046837 -0.059749234 -0.119610354 0.013036866 0.019492105
0.10073343 -0.110128134 -0.16961071 0.015022288 -0.01231462 -0.057459556 -0.03263274 0.17393106
0.046607446 -0.045706484 -0.0057689953 -0.020777818 -0.032864496 -0.030987473 -0.09411373 0.005587478
0.09109682 -0.0039546452 -0.0063500116 -0.081628874 -0.33748418 0.07137088 0.074459136 0.17589328
0.047137022 -0.01796923 -0.04898544 -0.23238096 -0.19872382 -0.08845941 -0.3039262 -0.1693517
-0.13658416 -0.13489302 -0.3309643 -0.058465205 -0.024734017 0.09585674 0.13494422 -0.02233986
-0.044344265 0.017955419 -0.038901545 0.07454401 -0.020281307 0.066134006 -0.11216763 -0.013788939
-0.09142959 0.17503794 -0.00069704105 -0.08460041 -0.123265006 0.20181252 -0.066839345 -0.057000384
0.110180326 0.1802995 0.1408793 -0.10584156 -0.061184857 0.16393931 0.25096574 -0.3713554
-0.32927918 -0.20408762 0.14208263 -0.18220802 -0.0986738 0.28542084 0.11737032 -0.23728532
0.0037713163 0.2725497 0.16176197 -0.24075028 0.07036095 0.2772517 -0.5939905 -0.48673868
-0.12839836 -0.048341725 -0.0674401 -0.116908714 0.08741648 -0.028240357 0.024522549 -0.005830671
-0.050920803 0.1346582 0.09482504 -0.0061190655 0.021922266 -0.07624063 0.07750425 0.15902734
-0.035101034 -0.07680262 0.071367286 0.059027787 -0.041761264 0.10137782 -0.029800024 -0.030307576
-0.0015367831 0.09770617 0.091634504 0.07192428 -0.078373805 -0.05834734 0.018733818 0.0748672

conv_block_1.2.bias f4 [10]
00000000: 5dea afbd c5b0 923e 1dcf ac3d 392e 88bd
00000010: 1546 5bbb 0701 63bd 9869 873e 4a80 d3bc
00000020: 2a64 afbc e2af 88bd
-0.08589623 0.2865049 0.08437941 -0.06649441 -0.003345852 -0.0554209 0.2644775 -0.025818009
-0.021410067 -0.06674172

conv_block_2.0.weight f4 [10, 10, 3, 3]
00000000: 9b27 42bd 77b9 6fbd 30d2 903e e28c 5cbe
00000010: 3825 8dbd 8750 67be f1bb 42be aa34 5dbd
00000020: 51cb 78bd 7ad8 ba3c 3930 72be bb9b e9be
00000030: db34 c43d 509c 03be 16c5 613d a761 b8bd
00000040: 3bfe 223c 57b2 013f 71ea 8abe ef6d 68be
00000050: 551c 0a3e 7537 60be ff70 9bbe ae92 55be
00000060: 622b 74be fa67 fc3e 49c6 143e 5906 89bd
00000070: d5a7 90be c6ec e0bd 151e b23c 46ce 55be
00000080: eafe c9be 0cac d23d 6509 8bbe 99b7 7ebe
00000090: 3670 623e d650 f63b 2e0a b8bd adde 3c3d
000000a0: 3572 453c 4b68 a93e 5aad 783e 7170 373d
000000b0: b187 f53d 69bd ba3b a9d6 63be ffd6 393c
000000c0: d327 203d 5ae4 5fbe b085 66be 1f74 313e
000000d0: b195 d9bd 5755 323e 0135 acbe c95d debe
000000e0: 92bb b7be ce19 f9bc c670 22be 2ca7 9eb9
000000f0: dae5 abbd ce73 883d 1e7d e23e 0274 04be
00000100: 21f8 d9be a657 b7be 3544 19be cfda b3bd
00000110: 2ff4 b33d 4871 323e c8c5 3e3e 6800 a13e
00000120: 4382 77bd 2fbb 22be 9ed8 91bc b7da 813c
00000130: 4f1a 59bd 3354 b9bd 9fc6 f3ba 9b4a 053d
00000140: a11d 213e d65d f93d 6d0b 393e 593d b53c
00000150: 9816 b53c 1a9c 26bd df77 01be 2a47 5cbe
00000160: 8922 2e3d 9457 debd caf4 73bd cebf 6e3d
00000170: e7a2 84bc e8d1 9a3d 7d60 a73d edd0 933c
00000180: f209 02bd a329 e9bd aa9f ddbc b50d 443e
00000190: 9c73 b5bd 1b93 a8be 57f3 85be 53f0 80be
000001a0: 5987 afbe 8a49 783e 119b 013d 0fa7 9c3e
000001b0: d2dd 983e b3ca a23d 6524 8abd 19bc bdbc
000001c0: e98b 5bbe 87fe b6be 98a8 04be 207d 89be
000001d0: f496 d8bd a922 d73e 6894 793e 0288 82bd
000001e0: 9033 8f3d 9e15 8c3d 49b8 d3bd bb27 0fbe
000001f0: f891 73be f5f3 56be 26b8 38be 18db 8c3e
00000200: 55b4 d3bd dfe0 84bd d3b9 7a3d ed5e f03b
00000210: 24e4 1c3d 4ef1 41bc 17a4 e1bc 3841 ac3e
00000220: 6ea2 743d 3a8b d8bd 505b 2fbe 9e20 653b
00000230: d64f dbbe f08f d13d 81fd 4ebd ae95 67bd
00000240: c4f8 023f 28f1 0fbb 4967 a8be 5d4a 563e
00000250: d04b 05bf 58e5 59be ffa5 323e 74f0 c6bd
00000260: 2e7b a73e 3df6 d2be 03a7 c8be 7627 abbe
00000270: ae75 81be 302d 5abe 9ae1 19be 17f6 27be
00000280: ea6d 013e 55d3 a23e 32b8 3b3e 0454 c4bc
00000290: 64a0 9a3d ebc7 83be 4fec 39be b7eb 733d
000002a0: da94 97bd 5dba 1e3e f4aa 5c3d 416d 9d3d
000002b0: 940b c43e 6cd4 533e deb1 003e 9ad2 633e
000002c0: 2522 a03d c2e3 aabd 1a3c 223c bf0e 51bd
000002d0: 2ebf cb3d 66e7 ae3d 076a 9d3d 9a07 32be
000002e0: 0a04 343c 5e52 b63e 2f88 80bd 5e78 1abe
000002f0: 733c 1e3d a605 1e3d 267e 163e 7a4d f63e
00000300: 8a7a 85be 7bf4 a7be 0c3d 543e 4a87 e73c
00000310: bb9e 93be 7fc4 a4bd ade0 ac3d ee0f 19bd
00000320: 7c80 3f3e aae8 803d cace e83e 1e27 cf3e
00000330: 5af0 aabe 9b65 9ebe cf4b b53d 65e4 84be
00000340: 2a7d 31be e638 fd3d 12fa b2bc 0339 29be
00000350: 97c7 afbd 9b4f a3bd c75e b3be 6a37 4bbe
00000360: a577 193e 2c90 2f3d 0f8c 77be fb24 8d3d
00000370: ceb0 093a ae8b c6bd be8b 4a3e c68c 9d3c
00000380: 074d 5abe 9243 4bba 00a2 923d aec5 c53e
00000390: 0350 52be 93b0 123c fff6 273e e93b 28be
000003a0: 4fdb 5bbe bdd8 47be 6035 163e 0e04 433e
000003b0: d7d1 123f b750 55be 7859 23be a771 1fbb
000003c0: 8990 9cbe 562d 3dbf b066 4d3e 1c74 26be
000003d0: 6971 803c c5e6 a13d 1bcc aebe 922a fbbe
000003e0: ed1e e2be 7391 213e 3013 9d3e 2455 cc3e
000003f0: f904 f7bc 959c 15bd 2281 41bd 593d 58bd
-0.047401052 -0.058526482 0.2828536 -0.21538118 -0.068918645 -0.22589312 -0.19017006 -0.054005302
-0.060740773 0.022808302 -0.23651208 -0.45626625 0.09580394 -0.12852597 0.055119596 -0.09003001
0.009948309 0.5066275 -0.2713199 -0.22698186 0.1348737 -0.21896155 -0.30359647 -0.20856735
-0.23844674 0.49298078 0.14528765 -0.06690664 -0.28253046 -0.10982661 0.02174286 -0.20879468
-0.39452296 0.102867216 -0.27155605 -0.24874724 0.22113118 0.0075169606 -0.089863166 0.046110798
0.012051155 0.33087382 0.24284878 0.044784967 0.11988772 0.005698849 -0.22249855 0.011342763
0.03910048 -0.21864453 -0.22511935 0.17329453 -0.106242545 0.17415367 -0.3363419 -0.43430927
-0.35885292 -0.030407812 -0.15863332 -0.0003026066 -0.0839345 0.06662713 0.44236082 -0.12934878
-0.4257212 -0.35809058 -0.14967425 -0.08781969 0.08786809 0.17426026 0.18630135 0.31445622
-0.06042696 -0.15891717 -0.017803486 0.015851362 -0.053003605 -0.09049263 -0.0018598622 0.032541852
0.15733959 0.12176101 0.18070765 0.02212398 0.0221055 -0.040676214 -0.12643383 -0.21511522
0.042513404 -0.10856548 -0.05955962 0.058288388 -0.01619096 0.07559568 0.081727006 0.01804396
-0.031747766 -0.11384895 -0.027053673 0.19145854 -0.08859941 -0.32924733 -0.26162216 -0.25183353
-0.3428295 0.24246803 0.031642023 0.30596206 0.29856735 0.07948818 -0.06745223 -0.023160981
-0.2144009 -0.35741064 -0.12954938 -0.26853275 -0.10575667 0.4201863 0.24373019 -0.06373598
0.06992257 0.06840061 -0.10337884 -0.1398 -0.23786151 -0.209915 -0.18038997 0.27510905
-0.1033713 -0.06488203 0.061212372 0.007335535 0.03830351 -0.011837317 -0.027544064 0.33643508
0.059725218 -0.1057343 -0.17124677 0.0034962068 -0.42834347 0.10232532 -0.05053473 -0.05653923
0.51160836 -0.0021963809 -0.328913 0.20926805 -0.52068806 -0.21278894 0.17446135 -0.097138315
0.32711166 -0.4120349 -0.3918992 -0.33428544 -0.25285095 -0.213063 -0.15027466 -0.1640247
0.12639585 0.3180186 0.18331984 -0.023965843 0.07550123 -0.25738463 -0.18156551 0.059550967
-0.07401438 0.1550078 0.05387397 0.07686854 0.38290083 0.20686501 0.12567851 0.22248307
0.078190126 -0.083442226 0.009902025 -0.051039454 0.09948574 0.085402295 0.07686239 -0.17385712
0.010987291 0.35609716 -0.06275975 -0.15084979 0.038631868 0.038579606 0.1469656 0.48105985
-0.26070052 -0.3280371 0.20726413 0.028262753 -0.2883204 -0.08045291 0.08441291 -0.037368707
0.18701357 0.06294377 0.45470268 0.40459532 -0.333865 -0.30936894 0.0885235 -0.259555
-0.17332903 0.12364368 -0.021847758 -0.16525654 -0.085829906 -0.07974168 -0.35033247 -0.19845358
0.14987047 0.042862102 -0.24174522 0.06891819 0.0005252481 -0.096946105 0.1977987 0.019232165
-0.21318446 -0.0007753904 0.07159805 0.3862738 -0.20538335 0.008953231 0.16402815 -0.16429104
-0.21470378 -0.19516273 0.14668798 0.19044515 0.5735144 -0.20831572 -0.15952098 -0.0024329217
-0.30579022 -0.738973 0.20058703 -0.1625523 0.015679078 0.07905344 -0.34140095 -0.49055916
-0.4416422 0.1577814 0.306787 0.39908707 -0.030153738 -0.03652628 -0.04724229 -0.05279288

conv_block_2.0.bias f4 [10]
00000000: 4c0f ba3e 9209 de3d db80 5a3d df8a 8c3e
00000010: 4228 e5bc 3374 353e 2fb7 8e3d 473f 8cbd
00000020: d187 993d c440 23bd
0.36339796 0.10841669 0.053345542 0.274497 -0.027973298 0.17720108 0.06968533 -0.06848007
0.07496608 -0.039856687

conv_block_2.2.weight f4 [10, 10, 3, 3]
00000000: a490 a6be 6351 61be b729 ba3e 91b5 383e
00000010: 73c5 003f 01d2 813e 3db8 a5be 984a 9bbe
00000020: 34b6 55be 1ba7 fc3d caac 343d 4ce2 8c3e
00000030: 62ab 7f3e 4d61 493e 8b11 5f3c b745 f0be
00000040: cf6d e6be 2e93 edbe 736a a8be c4c7 88be
00000050: 5ec8 9cbe 0c17 06be 0522 c33c ee59 2d3c
00000060: a536 30bf ec24 86be 09e1 19be a147 383e
00000070: e606 323b 0b95 163e 97b4 93bd a6da 7bbd
00000080: 2dda 13be 4683 09be 19ed d1bd 5010 2abe
00000090: abb4 3e3c 5bdd b73e b6ca c13d 9342 ab3d
000000a0: 1818 493d 56db 34be 1fa8 ebbd 6bc7 0a3c
000000b0: 6ddb 5d3d 7c24 dcbd 5dc7 fbbd 052a 86bd
000000c0: 367b 52be b210 9dbd f244 00be 1acd d6be
000000d0: 99b2 8fbd 8a92 a6bd 62a6 e83d 2c80 a9bd
000000e0: 30ec 1dbd 84cb 9ebe 4e92 5dbe ee85 2dbe
000000f0: ef58 1e3e 7804 7fbd 8057 f83d db9b d0bd
00000100: 6d46 a5bd 67f5 ffba 8afd c3bd 8ffe d53d
00000110: ccd9 e3bd 4340 0dbb 4ef8 b0bd 1422 d3bd
00000120: a696 99be cdab 74be a103 b2be fbb6 703e
00000130: 276d cf3e 51fc bf3d 0055 bc3d 8046 46be
00000140: 325e 84bb f00e 0a3d 5f2a b83c db98 ecbc
00000150: 2e4c 84be 8700 87be 6b55 69be 406e 3c3e
00000160: 0e5a 863e b2ad 6f3e f0cf 193f d783 873e
00000170: 3fab c3be 2db3 7a3e 9851 65bf 0f11 efbe
00000180: a24f 4fbe 149a cfbe 1a7b f83d b350 633e
00000190: 938b bfbe 0b0d adbd 408a 80be 17f6 edbe
000001a0: 1034 c9bc a458 0dbe 105e c63d 884e b03c
000001b0: 6105 f2bd 1276 4bbe 7d02 a3be c531 66be
000001c0: 3f4d bbbe 3d63 d4be 00b8 92be 31cd 7cbe
000001d0: 88ca c7be 6892 17bd 8e3a 20be cdc0 2a3e
000001e0: 680e 463c 5a79 b33d 6bbf 343d 8a5c 4e3d
000001f0: 91b2 303d ed3f cdbd dd80 ccbe c87e 2fbe
00000200: 869a 0a3e b1fa 3cbf 8ad9 62be f8bb 823e
00000210: 38da 65be c959 923e b1e5 913e c013 2abe
00000220: b24c 9b3d f65b 353d 2bcb 30be 1084 c0bd
00000230: ae32 4abe 12cc 94be 060f 94bd f33c 6ebe
00000240: 899e 0cbe 9800 34be c656 8cbd 7302 b13d
00000250: c2b9 c0bc 9969 2b3e 72d6 9cbd 4ccd 5d3a
00000260: 946f 9a3d 5456 2db9 2e39 8d3b f238 de3d
00000270: 8f90 2fbe b8c8 e9bc 1a8f df3c 297e 34bd
00000280: 70ff 85bd 944f 6d3d ccdf e4be acc0 943e
00000290: ea4c 10be ac7f a13c 9d1c 7b3d 463b 41be
000002a0: 9f51 653e 71f4 543e b260 90bc 127f c7be
000002b0: 9a31 47bd 9ce8 7d3e e27d f4be 9eea 1f3d
000002c0: 03de 993d c2a1 b7be aa05 79be c2a3 08bf
000002d0: 3e87 a1be 1592 aabe eeed aabe 5c0a fabd
000002e0: 5076 8d3d 5f76 5d3e c622 b1bd 8139 d3bc
000002f0: 224b 333e b787 c73d 4c25 723e 4f7b c93d
00000300: b3bb 9cbd abd9 dabd 2835 23be d4ee 943d
00000310: 11fd ff3d 7580 e03c 91dd f53e fe9c 893e
00000320: 6a32 793e c823 cdbd a7c5 e6be bedf 19bf
00000330: 1afe e8bd c322 7e3e 2b34 5a3e c9bf c1bc
00000340: b20b 9cbd a7c5 88bd 59ac 1a3e 308a a93d
00000350: 231a da3d eb4b 283e 2408 a73c 08ef 873e
00000360: f4a4 98be aa06 30bc f743 80be 9301 f7be
00000370: 8900 b0be 8c89 02be de1b 913c 2032 5d3e
00000380: 98f0 db3e 58ed 00be f70e b9bc 8636 2bbd
00000390: b043 c1be 51f5 76be 768a 90be 0886 b4bd
000003a0: 014e e23d 0eda 8c3e 2e33 673d 00b5 c53d
000003b0: f327 59bd 311c e83d 9467 0dbe a885 36be
000003c0: 1073 ecbc 89a4 57be 752b 813b 2193 12be
000003d0: 0e6d 37bd f06c d0bd 2618 ebbc e973 b2bc
000003e0: e1e7 623d bbf7 febc 2706 32bd c20b 2c3d
000003f0: 4434 3bbe c213 c3be b91a fdbe c7d5 85be
-0.32532227 -0.22003703 0.3635995 0.18038012 0.50301284 0.25355533 -0.32367125 -0.30330348
-0.20870286 0.1233656 0.044110097 0.275164 0.24967721 0.19666024 0.013615022 -0.46928188
-0.45005652 -0.46401352 -0.32893714 -0.2671491 -0.30621618 -0.13094729 0.023819933 0.010580523
-0.6883338 -0.26200044 -0.1502725 0.17996074 0.0027164756 0.14705293 -0.07212179 -0.061487816
-0.14438696 -0.13428983 -0.10250301 -0.16607785 0.011639754 0.35911068 0.09462492 0.083623074
0.049095243 -0.17661795 -0.11506676 0.0084703965 0.05416434 -0.10749146 -0.12293885 -0.06550983
-0.20554814 -0.076692 -0.125263 -0.41953355 -0.07016487 -0.08133419 0.1135986 -0.082764
-0.038555324 -0.31014645 -0.21637842 -0.16945621 0.15463613 -0.06226012 0.12126064 -0.10185977
-0.08070073 -0.0019528092 -0.09569843 0.10448944 -0.11125526 -0.0021553196 -0.0864111 -0.10309234
-0.29997748 -0.23893662 -0.34768394 0.23507302 0.40512964 0.093742974 0.091959 -0.19362831
-0.0040395493 0.03370565 0.022481142 -0.02888148 -0.2583937 -0.2636759 -0.2278649 0.18401432
0.2624058 0.23406103 0.6008291 0.26467773 -0.38216588 0.24482413 -0.8957763 -0.46692702
-0.20245221 -0.4054724 0.12132855 0.22198753 -0.37411174 -0.084497534 -0.25105476 -0.46476814
-0.024560958 -0.13803345 0.0968591 0.021521822 -0.11817432 -0.19869259 -0.31837836 -0.22479923
-0.36582372 -0.41481963 -0.28656006 -0.2468765 -0.39021707 -0.03700486 -0.15647337 0.1667511
0.012088396 0.0876338 0.044127863 0.05038122 0.043139044 -0.100219585 -0.39942065 -0.17138207
0.13535509 -0.73820025 -0.22153297 0.25534034 -0.22446525 0.28584126 0.28495553 -0.16609097
0.07582988 0.044277154 -0.17265002 -0.09400189 -0.19745895 -0.29061943 -0.07229428 -0.23265438
-0.13732351 -0.17578351 -0.06852488 0.08643045 -0.023526076 0.16739501 -0.0765809 0.00084610726
0.07540813 -0.00016530725 0.004309795 0.10850705 -0.17144988 -0.028538093 0.027289916 -0.04406563
-0.065428615 0.05793722 -0.44701993 0.29053247 -0.1409184 0.019714199 0.061306585 -0.18870267
0.22394417 0.20796372 -0.017624233 -0.38964134 -0.048631288 0.24795765 -0.4775229 0.039042108
0.075130485 -0.358656 -0.24318567 -0.53374875 -0.31548494 -0.33314577 -0.3338465 -0.12209007
0.06907332 0.21627186 -0.08649211 -0.025784256 0.1750913 0.097426824 0.2364704 0.098379724
-0.07652988 -0.10686048 -0.15938246 0.07272115 0.124994405 0.027405003 0.48020604 0.26877588
0.24335638 -0.1001659 -0.45072672 -0.6010703 -0.11376591 0.24817948 0.21308963 -0.02365102
-0.07619418 -0.06678324 0.15104808 0.0827831 0.106495164 0.1643521 0.020389624 0.26549554
-0.2981335 -0.010743776 -0.25051853 -0.4824339 -0.34375408 -0.12747782 0.017713483 0.21601152
0.42956996 -0.1259054 -0.022590144 -0.041800044 -0.37746954 -0.24117018 -0.28230637 -0.08814627
0.11050034 0.27510113 0.056445293 0.09653664 -0.053016614 0.11333502 -0.13809043 -0.17824423
-0.02886346 -0.21058859 0.003941948 -0.14313938 -0.044781737 -0.10177028 -0.028698038 -0.021783786
0.05539692 -0.031123986 -0.0434629 0.0420034 -0.18281657 -0.38101012 -0.4943445 -0.26139662

conv_block_2.2.bias f4 [10]
00000000: 0e35 4dbe 8383 003e edf2 b73b 6533 8cbe
00000010: 552e 3e3e 393d 2f3e 973f aebd d5fd 433d
00000020: 3a64 fb3e d52d 133e
-0.2003977 0.12550168 0.005613676 -0.2738296 0.18572362 0.17113198 -0.085082226 0.047849495
0.49099904 0.14372952

classifier.1.weight f4 [10, 490]
00000000: 7895 b33c bd96 63bd e09a e8bd 8468 e4b9
00000010: 073f b33c e58c 4b3c 0e5c 9f3c 7154 913d
00000020: b291 b53d 0a0f 583d 109c 02be a4bc 44bc
00000030: 3413 783d 33e0 e03c 96b0 183d 0e02 0a3e
00000040: 94fa e9bd 2ce3 82be 71b7 f9be 6b62 22be
00000050: 4b67 043b f9cc f4bc cae4 863b 53bf cebd
00000060: b8e8 b4bd 7146 25bd 811a 59be 5fba acbd
00000070: 8f1d e6bb bce8 c0bd c584 cf3d 550f 023d
00000080: a53d 4fbe cfc2 8bbd c186 2abd 2c04 4ebd
00000090: 7956 3bbd 76cc a53d cf53 edbc b3d5 ff3c
000000a0: 5be3 0d3d b65c 9fbb 2dbe 8a3c 2bae a2bb
000000b0: 8370 4a3d 6d03 d0bc ba46 09bd 6842 20bc
000000c0: bbf9 fcbc efd2 b5bc 9f41 9bbd 2e88 5abd
000000d0: 0d61 8ebd a5f3 03bd af01 e13c 65b2 50bb
000000e0: a64d eebc 27ad 20be 4d65 53bd 1130 60be
000000f0: 224d 9ebd 6d37 bdbd 2c96 29bd 9699 4fbc
00000100: bada 67bb dc11 b13d 82af 0bbc 49d6 f2be
00000110: 6a17 a2bd a111 663c b959 7a3c 6022 b23e
00000120: ece6 5d3e f649 18be 8f6e cf3d 2024 a63d
00000130: 6a51 16bd c091 383d 60d7 853e 3c83 c73d
00000140: e85a 70bd 851c 2d3e 98a4 7ebd 823b b1bc
00000150: 0683 b6bc dcb5 a83d 663a 07be b3f4 cdbd
00000160: b201 2ebc 5416 abbc 5261 4cbd 4620 9dbc
00000170: 4c5e 163d 0e33 db3c 4d6f 14bd cf6c 1cbb
00000180: bdff 14bd 2fc0 723c 9cac e33c fa88 f23c
00000190: 1fd5 573d 6a91 34bb 396d 42bc 50e2 133d
000001a0: d899 903b 8962 3f3c 38a8 fa3a 87bb 1cbd
000001b0: 7357 dabd 94b0 20bd f10f 7c3c 3254 35bd
000001c0: 7243 16bd 352c 44be 819e 1cbe 4167 99bd
000001d0: dc6d 17be 9c88 dcbb ce61 2abd 3d47 b6bd
000001e0: 9164 6fbe 6615 57be 78f2 61be 63bd debc
000001f0: fef3 d73d 4f03 27be 3565 59bd 8849 c4be
00000200: b60a a4be bf9c c4be d376 40be 6711 03bd
00000210: 6e16 d8bd 6e6b bd3d 615a 92bd 583e 35be
00000220: d11c 2d3e 61fa c63e fa80 ec3d ff55 50bc
00000230: b202 053d 72bc 89bd fd5f 8e3d d395 2c3e
00000240: 9e6e ea3c 4a93 cbbd 044b 4bbc 6b6f d63b
00000250: 33a9 a4bd fcbb e9bc c553 fcbb 36ea ec3b
00000260: de90 083e e577 c13d 86ed ebbc dd61 0f3e
00000270: 4c8b b53d 71e1 8d3c 3cc8 ad3e 921e bf3c
00000280: 4adb ac3d b3ee ea3b c826 bf3c dde1 02be
00000290: b734 59be 6646 79be 1f25 c3bd 5794 8c3d
000002a0: dedd edbb 18f0 09be 5559 7dbd e65a 67be
000002b0: d41e 32be 362b 96be e377 0fbc 7a62 76bc
000002c0: 07cf a1bd e034 f1bb 6578 033f e928 8fbe
000002d0: 238f 31bd b402 4dbd ef7c b53c eef8 f7bb
000002e0: a59a 493d bc54 dd3d 60c4 03bc 1e70 b2bd
000002f0: 50c2 43bd 2ded bcbb 9bfc 893c 88a5 93bc
00000300: a719 07bd f4f4 50bd 0f73 3ebd a52a 9fbb
00000310: 0473 b83b 4379 e0bd 78f6 27be 2091 1bbe
00000320: ddfb 113c ad8f 913d 3b4d a9bc 95b1 583b
00000330: 2d41 ac3d deee a0bd 289d 123e 44b8 5f3e
00000340: 668c b43e 6ce6 983d f435 a93d 4894 07be
00000350: 21e1 babe 5de3 37be ece3 94bd 3fae 8d3a
00000360: 0372 013e 7434 303c b7a2 0f3e 30e7 bfbd
00000370: 47d7 a13d 4cbb 0abf d2f2 b8bd 2e89 cb3c
00000380: a520 893d 754d 4f3c 1e9e 5e3e 86b0 1f3e
00000390: 75a8 84be bbf1 1ebe 310e 47bd 6be5 2d3d
000003a0: b1fe d13d 8561 de3d 09f6 603e cff8 75bd
000003b0: 21fc b43b 9464 6f3c 7126 ea3c 8fd7 dcbc
000003c0: e155 48ba c844 273c 1200 af3c f9e5 2d3c
000003d0: ed2b 353c 3a7b eebb 73fb 9b3d 56e9 76bd
000003e0: 501e 133e f3f1 213e 190b c63d 305c 623d
000003f0: 91c8 143d f8ff 9ebd 288a 9dbd 4cfa 4abe
0.021921858 -0.055563677 -0.11357665 -0.0004356542 0.02188064 0.012423729 0.019453075 0.07096184
0.0886568 0.052748717 -0.12754846 -0.012007866 0.06056519 0.027450657 0.03727778 0.13477346
-0.11424747 -0.25563943 -0.48772767 -0.15857856 0.002020317 -0.029882895 0.0041166293 -0.10095086
-0.0883345 -0.04035038 -0.21201517 -0.08433985 -0.0070225666 -0.094193906 0.10132746 0.031752903
-0.2023836 -0.06824266 -0.041632418 -0.050296947 -0.045736764 0.080956385 -0.028970627 0.03122983
0.03464065 -0.004863347 0.016936386 -0.00496461 0.049423706 -0.025392259 -0.033514716 -0.0097814575
-0.0308808 -0.022195308 -0.075808756 -0.053352527 -0.06952105 -0.03221478 0.027466623 -0.0031844613
-0.02908976 -0.15691052 -0.05161028 -0.21893336 -0.07729556 -0.09239087 -0.04140298 -0.012670895
-0.0035378174 0.086459845 -0.008525731 -0.47429112 -0.07914622 0.014042289 0.015280181 0.3479185
0.21670121 -0.14871964 0.10128509 0.08112359 -0.036698736 0.045060873 0.2614088 0.09741828
-0.058680445 0.1690541 -0.062168688 -0.02163482 -0.022279274 0.08237812 -0.13205871 -0.10056438
-0.010620521 -0.02088467 -0.0498975 -0.019180428 0.036711022 0.026757743 -0.036238957 -0.0023868566
-0.036376704 0.014816328 0.027792268 0.029606331 0.052693482 -0.0027552494 -0.011866861 0.0361045
0.004412871 0.011681207 0.001912362 -0.038264778 -0.10661211 -0.039230898 0.01538466 -0.044269748
-0.036685415 -0.19157489 -0.1529484 -0.07490397 -0.14788002 -0.0067301523 -0.04159718 -0.089003064
-0.23378207 -0.21004257 -0.2206515 -0.027189916 0.10544585 -0.16309856 -0.053075034 -0.3833735
-0.32039422 -0.38400838 -0.18795328 -0.031999018 -0.10551153 0.09249006 -0.07146145 -0.17699564
0.16905524 0.388629 0.11548038 -0.012715816 0.032473274 -0.06725396 0.06951902 0.16854028
0.0286172 -0.099402025 -0.012408022 0.006544044 -0.08040085 -0.02853202 -0.007700416 0.0072300686
0.13336512 0.09446696 -0.028799783 0.14002176 0.088644594 0.017319413 0.3394183 0.023330007
0.084402636 0.0071695684 0.023333922 -0.12781473 -0.21211515 -0.24343261 -0.09528565 0.06864231
-0.0072591146 -0.13470495 -0.06185277 -0.22593269 -0.17394572 -0.29329842 -0.008756611 -0.015038127
-0.079008155 -0.0073610395 0.5135558 -0.279609 -0.043349396 -0.050051406 0.0221543 -0.0075675165
0.049219746 0.108071774 -0.008042425 -0.08712791 -0.047792733 -0.0057655782 0.016844084 -0.018023267
-0.03298345 -0.051014856 -0.046496447 -0.0048573785 0.0056289453 -0.10960629 -0.16402614 -0.1519208
0.008910147 0.07107482 -0.02066671 0.0033064832 0.08410869 -0.0785806 0.14317763 0.21847636
0.35263366 0.074658245 0.08262244 -0.13240159 -0.36499885 -0.17957826 -0.07270035 0.0010809376
0.12641148 0.010754693 0.14026915 -0.093702674 0.07902389 -0.5419204 -0.09030689 0.024845686
0.066956796 0.012652745 0.21740004 0.15594682 -0.25909773 -0.155219 -0.04859752 0.04245512
0.10253657 0.10858444 0.21968855 -0.060051735 0.00552322 0.014611382 0.028582783 -0.026958255
-0.00076421915 0.01020927 0.021362338 0.010613912 0.011057836 -0.0072778733 0.076163195 -0.06028112
0.14367032 0.15814953 0.096700855 0.055263698 0.036324088 -0.07763666 -0.07692367 -0.19822043

classifier.1.bias f4 [10]
00000000: 6ffe f83c d94e 1f3f 4113 333e 5caf 62be
00000010: baeb 8fbd 892c 21be 346e b7bd a60d 153e
00000020: e1c7 6abe 3aae 67be
0.03039476 0.62229687 0.17487814 -0.22137207 -0.07027383 -0.15739645 -0.089565665 0.14555988
-0.2292781 -0.22625056
