checkpoints/model_epoch_10.pth (torch, 34459 bytes, 10 tensors)

conv_block_1.0.weight f4 [10, 1, 3, 3]
000000 91 2a 06 be 4e 51 3b be f0 ad 05 bd f0 44 c2 be
       -0.13102175 -0.18292734 -0.032636583 -0.3794322
000010 53 7b 74 be ad f6 cf bd 55 e5 af 3e fe de 1e 3e
       -0.2387517 -0.101544715 0.34354654 0.15514752
000020 fc 3c 9b bd 4d 9e 92 be 4a ef 3c bd 12 30 4a be
       -0.07579991 -0.286364 -0.04612664 -0.197449
000030 98 a3 29 bf 0a ba 3e 3e 36 d8 10 3f ba 98 2c bf
       -0.6626525 0.18625656 0.5657991 -0.6742054
000040 05 9f ed 3d 32 06 fd 3e 3c d7 f5 3e 3e 6a dc 3e
       0.11602596 0.4941879 0.48015773 0.43049806
000050 90 48 02 3f 5f f5 d5 be 0c d5 bf bc 54 e2 6a 3b
       0.5089197 -0.41788766 -0.023417018 0.0035840468
000060 dd 9e 8f bf cf 44 9e be 1e d4 30 3f fc cd a7 3d
       -1.1220356 -0.30911872 0.69073665 0.08193585
000070 a5 17 d9 3e 9a 9d fb 3e b5 f4 97 3e f4 55 d4 be
       0.42400852 0.49143678 0.29678884 -0.41471827
000080 d9 c9 6a be 86 ed bf 3e 3e f2 e1 be 38 4c 48 bf
       -0.22928561 0.37485904 -0.4413013 -0.782413
000090 ee 37 77 be ff 77 0d bf 08 26 8a be 4c 4c 2a be
       -0.24142429 -0.55261225 -0.2698214 -0.16630667
0000a0 63 54 0f 3f 59 22 f9 bc 0a 44 24 3d 8b f6 2e 3f
       0.5598814 -0.030411886 0.04010395 0.68344945
0000b0 72 fb a0 be d5 f6 ad be 50 f4 b2 3e 22 60 66 be
       -0.31441838 -0.3397738 0.3495202 -0.2249761
0000c0 48 bd de be 86 2d bd 3d bd 0a 35 3d b6 91 95 3e
       -0.43503785 0.092371985 0.044199694 0.2921273
0000d0 b9 46 2e be 26 3f 9e 3e cd 3e 2e 3d 5b 8e 52 3e
       -0.17019166 0.30907553 0.04254036 0.20562117
0000e0 0f f6 80 be a8 5e d8 be 3a f9 cd 3e d2 fa e0 be
       -0.25187728 -0.42259717 0.40229207 -0.4394136
0000f0 b2 b9 c6 be 40 2c c4 3e af dc 98 bd 9c 5c c5 3d
       -0.3881355 0.3831501 -0.07463967 0.096368045
000100 9d f4 4f be 3f 20 8f be 9f 1b 60 be 88 64 2b be
       -0.20308156 -0.2795429 -0.21885537 -0.16737568
000110 44 2c bc bd 11 3e 5d 3e 5c c2 c4 3d e2 90 63 be
       -0.091881305 0.21605708 0.096073836 -0.22223237
000120 c8 a6 94 3e 0e db 1b bf 9f f7 34 3e d8 b6 1e 3f
       0.29033494 -0.60881126 0.17672585 0.6199775
000130 75 3d e7 3e de d8 12 3d b7 ea 80 3e 5b 75 8b be
       0.45164075 0.035851352 0.25179073 -0.27237973
000140 d8 4a 5a 3d 49 0b a3 3e c7 84 a2 3e 67 d7 a7 be
       0.053294033 0.31844547 0.31741926 -0.32781526
000150 98 06 e8 bd 51 db 43 be 3a d2 f9 be d7 43 1a bf
       -0.11329383 -0.19126631 -0.48793203 -0.60259765
000160 a7 2a 37 bf 04 0d 16 bf
       -0.7154946 -0.5861361

conv_block_1.0.bias f4 [10]
000000 63 31 4d bd c9 a6 90 bd e2 29 d3 bc ca c0 3f 3e
       -0.050095927 -0.07063062 -0.025776807 0.18725887
000010 9e 4b 0c be 12 0a 9b be 7b 17 63 be 6b eb ef bd
       -0.1370072 -0.3028112 -0.22176926 -0.11714824
000020 f3 cb c2 be 25 2e 87 3e
       -0.38046226 0.26402393

conv_block_1.2.weight f4 [10, 10, 3, 3]
000000 33 6a 78 3d 42 53 79 bd 9d e4 8e 3d c9 c4 b6 3d
       0.060648154 -0.060870416 0.06977198 0.089242525
000010 a4 86 10 3d 89 b7 14 3d 72 30 10 3d 55 c3 9b 3a
       0.035284653 0.036307845 0.03520245 0.0011883775
000020 f2 73 70 3d 30 79 3d 3d 52 8b 5f bc ce 75 a6 3e
       0.058704324 0.04625815 -0.013644056 0.32511753
000030 63 7c dc 3d 6f 9e 70 be e2 29 8e bd 53 68 51 be
       0.107659124 -0.23497938 -0.06941582 -0.20449953
000040 76 58 6c be fd 9c f3 3d a2 c0 65 be 88 3f 15 be
       -0.2308062 0.118951775 -0.22436765 -0.14575016
000050 44 dd b9 3e 04 38 14 be 7e 7b 6b be 39 f2 79 3e
       0.36301625 -0.14474493 -0.22996327 0.24408807
000060 ec 0f 37 3e 1e 45 41 3e 05 74 3b 3d 3a 3c 9a be
       0.17877167 0.18874022 0.04576494 -0.30124074
000070 90 3c 62 bd 03 25 6b 3d ab 95 46 be 52 bc d0 3b
       -0.05523354 0.057408344 -0.19393031 0.006370106
000080 38 44 83 3e 71 be 1d 3e 88 dd 9f 3c 71 c5 57 be
       0.25637984 0.15404679 0.019514814 -0.21071412
000090 13 57 17 3e c9 c3 a4 3e 91 d3 e2 3d 6c 83 34 be
       0.1477931 0.32180622 0.11075509 -0.17628258
0000a0 49 f1 0d bd da f1 9f be 9c 0f b0 be bb 1a 73 be
       -0.034653936 -0.31239206 -0.3438691 -0.23740666
0000b0 85 1e 59 be 7f 29 09 3c 60 72 3f bc a9 5c d1 3d
       -0.21203049 0.00837171 -0.011684984 0.10222752
0000c0 93 6b f3 3a f7 03 00 3d 95 a5 d4 3d 8d 79 4e bd
       0.0018571488 0.03125378 0.10383145 -0.05040889
0000d0 be dd bd bd c9 51 d1 bd 1b eb 10 bd b4 58 b9 bb
       -0.092708096 -0.102206774 -0.035380464 -0.005656326
0000e0 a1 9f 55 3d 79 2e b4 bc 68 e2 74 3c 8f e7 34 3d
       0.052154187 -0.021994816 0.014946558 0.044166144
0000f0 52 f1 03 3c 88 dc 2e 3d f3 1b 0e be 58 89 c0 bd
       0.008053141 0.042690784 -0.1387785 -0.09401196
000100 09 af 8c bc 36 ff 5f 3d 4b 29 d7 bc f5 b3 a6 3c
       -0.017173307 0.054686747 -0.026264807 0.020349482
000110 e4 a5 cd bd c5 53 33 3d 2e 4a 8a bd 41 ef 4a 3c
       -0.10041407 0.04378106 -0.0675243 0.012386144
000120 a9 7c 65 be f0 0a 85 3d 04 8f 32 3e 64 71 cf bb
       -0.22410835 0.06496227 0.17437369 -0.006330656
000130 33 8c fa 3d 31 0e c7 3c 4f c9 88 be 0a 51 16 be
       0.12233772 0.02429876 -0.26716086 -0.14679351
000140 d0 55 40 be 2b f9 04 3d bb a6 57 be e7 2d 5f be
       -0.18782735 0.032464188 -0.21059696 -0.21794854
000150 56 68 08 bd d9 e4 26 3d e9 f5 13 be e6 8b fc 3d
       -0.033302628 0.04074559 -0.14449276 0.12331371
000160 2d e0 cb 3d a2 06 d7 3c e7 e7 35 3d 21 e8 5e bd
       0.099548675 0.02624828 0.044410612 -0.054420594
000170 4f 7d 93 3c cb 13 da bc 1d d0 aa bc 65 b7 a7 3d
       0.018004088 -0.026620766 -0.02085119 0.081892766
000180 9a 80 3e ba 4e 0e 0b 3e 18 ca 04 3e b7 73 fe bd
       -0.0007267088 0.13579676 0.12967718 -0.124244146
000190 4f 63 aa bd 00 43 82 3e 5d 47 f5 bd c4 cd 0d be
       -0.08319723 0.25441742 -0.11976502 -0.13848025
0001a0 1b 89 af bd 5d 16 33 be a2 5d 48 be c6 74 51 bd
       -0.08571073 -0.17489 -0.19566968 -0.051136754
0001b0 20 af 38 3d a0 04 82 be 0d 47 f8 be 78 3f fc bd
       0.045088887 -0.25394154 -0.48491707 -0.12316793
0001c0 66 bd 9b be b0 e2 9a be b0 5f 13 3c a4 0d 45 be
       -0.30417937 -0.30251074 0.008994982 -0.19243485
0001d0 50 41 e8 3c ff f1 9b 3d f6 3f fd 3d 4e 51 50 3e
       0.028351456 0.076145165 0.12365715 0.20343515
0001e0 0b a5 9a be f8 1f 8e bd 53 1a 17 be 4a 91 85 bd
       -0.30204043 -0.06939691 -0.14756136 -0.06521852
0001f0 93 3e ad 3d d3 0a b0 3e 81 99 48 be 9d c0 d9 be
       0.08459201 0.34383258 -0.19589807 -0.42529765
000200 69 5b 0d be d0 da 0c 3e 22 94 a9 3e 8d e1 8c 3d
       -0.13804401 0.13755345 0.3312083 0.06878958
000210 83 75 7d be 27 ab ed bd 41 0f 66 3e 80 92 4f 3c
       -0.24751858 -0.1160491 0.22466756 0.012669206
000220 97 05 c1 3d f5 33 17 3e 44 2c c0 3d 50 34 e1 3b
       0.09424894 0.14765914 0.09383443 0.006872691
000230 42 a9 aa bd 2c 93 04 be ee b6 2d 3d 3f e2 c7 3c
       -0.083330646 -0.12946767 0.042410783 0.024399875
000240 40 bb 30 3d 26 06 c1 bd c9 29 39 be 36 a6 2c 3c
       0.043147326 -0.09425001 -0.18082346 0.010537675
000250 9d de 44 3c 11 21 83 bd d4 f5 07 bd dc 15 5c 3e
       0.012015966 -0.06402791 -0.033193424 0.21492714
000260 d0 78 78 3d ca 3f 21 bd cc 19 f5 3a da 2e 36 bd
       0.06066209 -0.039367475 0.0018699705 -0.044478275
000270 fc f2 04 bd 8b 60 21 bd 6f b0 cb bd 25 fe 95 3b
       -0.03245829 -0.03939871 -0.099457614 0.0045774155
000280 e7 a5 bf 3d 63 81 6b bb 6f e8 e7 3b f6 23 a6 bd
       0.09357815 -0.0035935275 0.007077269 -0.08112328
000290 d0 74 90 be 55 85 f4 3d 4d 97 33 3d 27 da a6 3e
       -0.2821412 0.119394936 0.043845464 0.32588312
0002a0 57 08 04 3c 02 ee ca bd ad 7f 01 be f7 6a 23 be
       0.008058629 -0.09908678 -0.1264636 -0.15958773
0002b0 60 45 09 be 77 fc 92 3c 60 0d ac be d7 2d 7f be
       -0.1340537 0.01794265 -0.33603954 -0.2491983
0002c0 76 bf 46 be 32 2d 99 bd 9d 6f c5 be 38 2f 38 3d
       -0.19408974 -0.074793234 -0.38561717 0.044966906
0002d0 4c 44 fa bc ff 63 0f 3e c2 06 43 3e e0 28 c3 bc
       -0.030550145 0.14002989 0.19045547 -0.023823202
0002e0 6d 88 2d bd 0e 3d a2 3c 64 c0 31 bd 1f be 89 3d
       -0.042366434 0.019804504 -0.04339637 0.06725716
0002f0 3e 1f d6 bc cf 7b 12 3c b0 fc 70 bd e2 a4 0f bd
       -0.026137944 0.008940651 -0.05883473 -0.035069354
000300 b4 65 ed bd 3f 87 54 3e 66 c8 64 bd ff fc 10 be
       -0.11591664 0.20754717 -0.055855177 -0.1415901
000310 e0 e3 80 be 93 32 0b 3e 32 2c dc bd 0c 4f ed 3d
       -0.25173855 0.13593511 -0.10750617 0.115873426
000320 0a e9 83 3d bb 01 df 3d 5e 60 4e 3e f4 69 7a be
       0.06440933 0.10889002 0.20153949 -0.2445448
000330 4c cf 1b be 61 b3 e9 3d 69 07 b7 3e 84 9d ce be
       -0.15215796 0.11411167 0.3574784 -0.4035455
000340 e2 27 be be b1 8d 98 be bb 29 ec 3d 20 4e 97 be
       -0.37139803 -0.29795602 0.11531397 -0.29551792
000350 68 c5 71 be b7 88 a8 3e 77 fb 00 3e 11 00 96 be
       -0.23610461 0.32916805 0.12595926 -0.29296926
000360 4f 5a 95 bc 1e e2 83 3e 87 56 6b 3e e2 a2 40 be
       -0.018231539 0.2575845 0.22982226 -0.18812135
000370 14 6a 24 bc f9 07 6b 3e 31 53 18 bf df ca 0f bf
       -0.010035057 0.2295226 -0.5950194 -0.5616893
000380 3f 88 63 be 59 fd 0b bd b8 ad 7e bd b1 b1 ec bd
       -0.22219943 -0.034177158 -0.06217739 -0.115573294
000390 75 58 c3 3d 82 06 57 3b fa 7e 3b 3d bc 69 46 bb
       0.09538356 0.0032810275 0.04577539 -0.0030275425
0003a0 cb 4d 7e bd ae 15 2b 3e 13 2a db 3d 26 a7 ab 3c
       -0.062085908 0.16707489 0.107013844 0.020953726
0003b0 43 65 25 3d 08 b4 98 bd 7a 30 8a 3d cf 98 54 3e
       0.040379774 -0.07456213 0.067475274 0.20761417
0003c0 66 ad 14 bd 1a c0 bb bd 44 44 d2 3d 52 65 76 3d
       -0.036298178 -0.091675 0.10266927 0.06015522
0003d0 b6 99 0f bd fd 7c e7 3d 72 59 f8 bc 98 47 f8 bc
       -0.0350587 0.113031365 -0.030316088 -0.030307576
0003e0 d3 df ec ba 37 1a c4 3d a2 6e bb 3d 21 9a 93 3d
       -0.0018072076 0.095753126 0.09151961 0.07207132
0003f0 70 e8 ca bd 06 a4 5d bd 84 2a cb bd 82 92 8b 3d
       -0.09907615 -0.054111503 -0.099202186 0.068150535

conv_block_1.2.bias f4 [10]
000000 b0 cc a3 bd c9 d2 07 3f 96 5a e8 3d 05 d1 f8 bd
       -0.079980254 0.5305601 0.11345403 -0.12149242
000010 10 cd 9c 3d b3 7c 84 3e b9 43 d1 3e a7 d0 88 bd
       0.076563 0.25876388 0.4087198 -0.06680422
000020 67 10 da bc cc 3b e7 bd
       -0.02661915 -0.11290702

conv_block_2.0.weight f4 [10, 10, 3, 3]
000000 e4 18 b0 bd 1f ea 3d be fc a2 ae 3e b6 7e 8d be
       -0.085984975 -0.18546341 0.34108722 -0.27635735
000010 34 26 f1 bd e9 a8 9b be 4a d0 9f be ff 21 90 bd
       -0.11774865 -0.30402306 -0.312136 -0.07037734
000020 0a 1f 44 bd 9e 80 98 3d 81 0b 74 be c2 48 04 bf
       -0.047881164 0.07446407 -0.23832513 -0.5167352
000030 90 a7 02 3d 63 9c 14 be 0e 19 7e 3d 52 7e d6 bd
       0.03189808 -0.14512782 0.062035613 -0.104733124
000040 d5 51 86 3d 3a 11 f4 3e 10 87 a0 be b4 38 9d be
       0.06558577 0.47669393 -0.31353045 -0.30707324
000050 e5 35 a3 3d f1 c5 78 be c3 61 a5 be b8 30 23 be
       0.07969264 -0.24294259 -0.3230115 -0.15936553
000060 d5 de b4 be 76 e1 01 3f ee 1c 2a 3e 7b 9f a6 bd
       -0.35326257 0.5073465 0.16612598 -0.08135887
000070 52 bd a5 be 87 8f 3a be 6f 49 88 3d f5 e7 68 be
       -0.32371002 -0.18218814 0.06654631 -0.22744735
000080 29 43 cc be 75 c6 36 3e d4 fe 77 be 90 c5 8d be
       -0.3989499 0.17849143 -0.24218303 -0.2768979
000090 0e 93 6c 3e 86 2a 96 bc 14 20 0b be 90 1d d1 3d
       0.23102972 -0.018330824 -0.13586456 0.10210717
0000a0 d3 35 af bd 62 70 b0 3e b9 5d a5 3e 12 c6 99 3c
       -0.08555188 0.3446074 0.32298067 0.018771205
0000b0 13 ee fa 3d 92 c8 d3 bb 78 a1 66 be f5 fb 5d bd
       0.1225244 -0.006463119 -0.22522533 -0.054195363
0000c0 78 0a 3f bb 1b 2d 96 be 13 e4 43 be 5e f5 30 3e
       -0.0029150527 -0.29331288 -0.19129972 0.172811
0000d0 66 3b 0a be 1b ce 55 3e a3 cb a3 be cf f6 04 bf
       -0.13499221 0.20879404 -0.319913 -0.519391
0000e0 d5 e9 00 bf 28 0d 75 bc 7f 8c c0 bd 4f 5f 01 be
       -0.503568 -0.01495675 -0.094017975 -0.12634014
0000f0 a2 a8 8f bd 88 6d 82 3c 3f 26 b6 3e ec ed f2 bd
       -0.07014586 0.01592137 0.35576054 -0.11861786
000100 e3 7b fd be 31 2b fc be 1b e2 81 be 80 d4 2a 3d
       -0.4950858 -0.49251702 -0.25367817 0.041706562
000110 5f ac 23 3e 7c e7 10 3e c2 1e 88 3e f9 47 cc 3e
       0.15983723 0.14150804 0.26585966 0.3989866
000120 d5 41 87 bd c1 72 5c be f0 d5 8e bd 83 76 85 bc
       -0.06604353 -0.2152815 -0.06974399 -0.016291862
000130 1e 85 a6 3b c0 7b 97 b9 0e a3 e1 3c 78 aa f4 3c
       0.005081787 -0.00028893165 0.02754357 0.029866442
000140 8f ca 73 3e 80 e0 12 3e 88 3d 96 3d c5 b5 d8 3c
       0.23807739 0.14343452 0.07335955 0.026453862
000150 78 f1 24 3d 2c 9a f9 bc 31 f2 4d be 58 c2 6e be
       0.040269345 -0.030469023 -0.2011192 -0.23316324
000160 43 26 ac 3d 65 db e7 bd 8f f0 ca 3c 7e 8f 91 3d
       0.08405735 -0.11321143 0.02477291 0.07107447
000170 5b 10 a2 bd 34 02 c3 3b a8 45 58 ba 19 b9 0d bd
       -0.07913276 0.0059511904 -0.00082501257 -0.03460035
000180 37 e5 93 bd ce 4a 29 be 33 83 44 3c 7e af 9d 3d
       -0.07221454 -0.16532442 0.011994171 0.07699488
000190 ce f5 dd bd 17 31 c4 be 80 b4 91 be f0 8f 3d be
       -0.10837899 -0.38318703 -0.28458023 -0.18511939
0001a0 4c 95 9f be 39 61 6c 3e 99 54 b4 3d 1b 19 d7 3e
       -0.31168592 0.23083963 0.08805198 0.4201134
0001b0 3c 42 bb 3e 63 7a e7 3c c7 10 12 be 7c 35 30 bd
       0.3657397 0.0282566 -0.14264213 -0.043019757
0001c0 f1 00 a0 be e4 6e e2 be d8 ee cc bd ba b3 83 be
       -0.31250718 -0.44225228 -0.10006493 -0.25723058
0001d0 f0 12 14 be 97 93 de 3e 96 05 9c 3e b0 40 09 be
       -0.14460349 0.43471977 0.30473012 -0.13403583
0001e0 0e 18 6d 3d d8 50 fe bb 20 fd 97 bd 73 d4 7f be
       0.05788427 -0.007761102 -0.07421327 -0.24983387
0001f0 ae 77 bd be 59 db 8c be 01 c5 4f be fa d2 c2 3e
       -0.3700537 -0.275111 -0.20289995 0.38051587
000200 54 da 0f be 97 74 18 bd a0 f9 01 3e 65 24 10 bd
       -0.1404813 -0.037220564 0.1269288 -0.03519096
000210 86 ad 00 bc dd 05 23 3c c1 f7 a6 3c 8b 91 3a 3e
       -0.007853871 0.009950128 0.02038181 0.18219583
000220 da 38 43 3c 00 e2 ef bd 14 4e 41 be 61 99 8c 3d
       0.01191541 -0.11713028 -0.1887744 0.06865192
000230 01 bb e0 be 42 6f 38 3e 4b 87 03 3d 31 e6 15 3c
       -0.43892673 0.18011191 0.032111447 0.00914912
000240 97 ea 18 3f b7 25 db bc e2 94 da be 37 31 78 3e
       0.59732956 -0.026751382 -0.42691714 0.24237524
000250 b3 6e 13 bf d7 eb 94 be ff 81 48 3e f8 12 11 be
       -0.5759079 -0.29086182 0.1958084 -0.14167392
000260 96 70 81 3e 55 ce d6 be 5a e5 03 bf b7 96 9c be
       0.2528121 -0.41954294 -0.5152184 -0.30583736
000270 e5 86 a7 be 35 c3 40 be a2 78 99 be de 50 59 be
       -0.32720104 -0.18824466 -0.29974848 -0.21222255
000280 ad 38 0b 3e 69 c9 9f 3e b0 65 24 3e 2f 13 27 bd
       0.13595839 0.3120835 0.16054416 -0.04078978
000290 08 e5 cc 3d f5 5d 97 be 58 47 80 be f2 eb a1 3c
       0.10004622 -0.2956387 -0.2505443 0.019765828
0002a0 77 5e 90 bd 88 82 88 3e 74 b3 b6 3d 3d 15 22 3d
       -0.07049268 0.26662087 0.08920947 0.039571036
0002b0 c7 6a b1 3e d9 cc 49 3e e6 7f fd 3d ba 04 3a 3e
       0.34651777 0.1970705 0.1237791 0.18165866
0002c0 09 ec 34 3d ca 9a 4e bd 5c 96 15 3d 5f 3a a3 bd
       0.044170413 -0.050440587 0.036520347 -0.07970118
0002d0 46 2f f9 3d 63 20 f1 3d 66 91 95 3d 1d dd 9d be
       0.1216722 0.117737554 0.07303123 -0.3083276
0002e0 58 c5 86 bd 62 d1 e9 3e 8e 04 e2 bd f8 69 17 be
       -0.06580609 0.4566756 -0.11036025 -0.14786518
0002f0 06 4b 5d 3d 87 6a 6c 3d 06 4f 32 3e ee ec f6 3e
       0.054026626 0.05771878 0.17412958 0.48227638
000300 d4 c3 89 be 04 77 a4 be 85 ed 63 3e c9 6f b8 3d
       -0.26907218 -0.32122052 0.22258575 0.09005696
000310 5f 04 ac be 04 7d 52 be 78 d1 c5 3d 8b 6c d3 bd
       -0.33597085 -0.20555502 0.096590936 -0.10323437
000320 05 cc 9c 3e 10 6b 48 3d aa 9a ae 3e 95 49 00 3f
       0.30624405 0.048930228 0.34102374 0.5011228
000330 73 6c b5 be e8 e1 b2 be 16 35 31 3e 67 2c ca be
       -0.35434303 -0.34937978 0.17305407 -0.39487
000340 f8 c8 b8 be 5f 14 0e 3e 63 fd 25 3b 5d 5b 38 be
       -0.36090827 0.13874958 0.0025328032 -0.18003602
000350 43 f0 07 be 4d cf 14 3d ac 31 7e be d4 da 1d be
       -0.13275246 0.03633051 -0.24823636 -0.15415508
000360 28 fa 7a 3d 83 23 1c 3d 1d 8f 7d be 14 31 60 3d
       0.061273724 0.038119804 -0.24761625 0.054734305
000370 68 50 46 bd e9 b1 37 be 91 40 7d 3d 2a 99 7e bb
       -0.048416525 -0.17938961 0.061829153 -0.0038848617
000380 2b 7a 6c be e5 4c 07 bd 85 8c ed 3d e2 29 ca 3e
       -0.23093478 -0.033032317 0.115990676 0.3948508
000390 11 28 4b be 28 6f a2 3d ed b8 68 3e 67 8a 08 be
       -0.19839503 0.079313576 0.22726794 -0.13334046
0003a0 15 57 6b be e9 89 5c be ba 07 00 3e 49 68 f7 3d
       -0.22982438 -0.21536984 0.12502947 0.12080438
0003b0 c6 f9 12 3f 9e 40 17 be 13 1b a9 bd 12 35 9a 3c
       0.57412374 -0.14770743 -0.08257117 0.018824134
0003c0 9d bf 58 be 70 a6 35 bf 3a c1 b6 3d 93 27 3d be
       -0.21166845 -0.7095709 0.08923574 -0.18472128
0003d0 cb 2f b9 bc ba fe d1 3d 14 3f a1 be 10 a3 ed be
       -0.022605797 0.10253663 -0.31493437 -0.4641347
0003e0 da d1 f1 be ec e0 32 3e e5 5b 9f 3e 46 d9 d9 3e
       -0.47230417 0.17468613 0.31124797 0.4254858
0003f0 cc 7d f3 bc ed 82 8a bc 5a d5 52 bd 41 3c a0 bd
       -0.02972307 -0.016908133 -0.051473 -0.078239925

conv_block_2.0.bias f4 [10]
000000 7d ad 8b 3e c4 86 ce 3d 21 ab cf 3d cf b6 a6 3e
       0.272808 0.10084298 0.10140062 0.32561347
000010 6e f0 db bd 79 97 8d 3e af 29 c8 3d ae 03 c8 bd
       -0.10739218 0.27654627 0.097735755 -0.09766327
000020 3e 45 bb 3b 49 0a c8 3b
       0.0057150414 0.0061047417

conv_block_2.2.weight f4 [10, 10, 3, 3]
000000 62 b6 d1 be a0 8d 20 be a7 96 ef 3e 4e 6b 1a 3e
       -0.4095946 -0.15679026 0.46794626 0.15079996
000010 80 7d 09 3f 44 41 64 3e 19 e4 c1 be 02 eb e7 be
       0.5370712 0.22290522 -0.37869337 -0.45296484
000020 d0 57 8b be 84 00 7d 3d 9c 7f 83 3d 3f 8b bf 3e
       -0.27215433 0.06176807 0.06420824 0.37410924
000030 2f cf 85 3e 1d 99 23 3e e9 f0 19 bc c8 c0 15 bf
       0.2613463 0.15976377 -0.009395816 -0.58497286
000040 5c 50 05 bf b1 4f e1 be bc 3e c9 be 15 54 70 be
       -0.52075744 -0.44006112 -0.39305675 -0.23469575
000050 f1 5d 83 be b2 6f 0a be 30 83 25 3b 79 7f 28 bc
       -0.2565761 -0.13519171 0.0025255196 -0.010284298
000060 90 28 3f bf c4 ce 8a be 13 e4 d9 bd 39 17 6d 3e
       -0.7467127 -0.27110875 -0.10639205 0.2315339
000070 05 82 53 3c 81 b6 39 3e 69 46 0d be 42 7f eb bd
       0.012909417 0.18136026 -0.1379639 -0.11498882
000080 71 83 43 be 7d 2b 6e be e1 32 21 be 0e 42 67 be
       -0.1909311 -0.23258777 -0.15742065 -0.22583792
000090 93 64 75 3d b8 99 b7 3e 70 b0 d6 3d 52 77 32 3d
       0.05991037 0.35859466 0.104828715 0.043570824
0000a0 e7 27 c4 3d 4a f6 45 be 34 00 d4 bd b7 bf 04 3d
       0.09577923 -0.19332233 -0.10351601 0.032409396
0000b0 2b 9e 5e 3d 6a 63 32 bd 94 cd 08 be 81 2a 79 bd
       0.05435006 -0.04355184 -0.13359672 -0.06083155
0000c0 5e 45 41 be 9f 99 ae bd eb 8f 15 be b7 28 f0 be
       -0.18874118 -0.08525395 -0.14605682 -0.46906063
0000d0 0b cc 4c bb 4c 77 e5 bd 4d b8 2b 3e 0b a2 90 bd
       -0.0031249549 -0.11204395 0.16769524 -0.07062157
0000e0 44 8a d6 bc 93 d1 e6 be 97 ef af be 23 16 6f be
       -0.026188977 -0.45081767 -0.3436248 -0.23348288
0000f0 54 7f 1c 3e 6a c2 df bd 7b a0 ea 3d 68 1b 2b be
       0.15282947 -0.109257534 0.114563905 -0.16709673
000100 27 e3 f3 bd a8 9e 96 bc c4 52 ff bd a9 eb 95 3d
       -0.1190856 -0.0183862 -0.12466958 0.07320339
000110 36 a2 ec bd f1 d8 a5 bc 39 ac 05 be d4 f2 0e 3c
       -0.11554377 -0.020245047 -0.13053979 0.008724887
000120 51 ef 91 be e5 a5 5d be 70 2e e3 be bb e0 68 3e
       -0.28502896 -0.21645315 -0.44371367 0.22741978
000130 97 1f e2 3e 5e c7 ae 3d bf 64 b6 3c 77 d0 bf be
       0.44164726 0.0853412 0.022264836 -0.37463734
000140 89 86 dc bd de 33 87 3a 20 46 39 3d 7a a7 3c bd
       -0.10767848 0.001031514 0.045232892 -0.046058156
000150 40 d8 a3 be 60 f2 a8 be b4 81 7f be 73 44 7a 3e
       -0.32000923 -0.32997417 -0.24951822 0.24440174
000160 5d 07 35 3e 5a 26 8a 3e d9 a3 30 3f c0 6b 82 3e
       0.1767859 0.26982385 0.6900001 0.25472832
000170 c9 76 bb be 80 64 b3 3e 27 22 74 bf 4f 0b ff be
       -0.36614063 0.35037613 -0.9536461 -0.49813315
000180 76 c5 40 be dc d8 d6 be 8c 14 fd 3d 78 b3 96 3e
       -0.18825325 -0.41962326 0.12357435 0.294338
000190 3c c1 ed be b4 a2 b1 bd 9d f9 5f be f0 d3 f9 be
       -0.4643649 -0.08673611 -0.21872564 -0.48794508
0001a0 57 b1 bd bd e0 18 1b be 0e fe 37 3c c5 5a f3 3c
       -0.092623405 -0.15146208 0.011230005 0.029706368
0001b0 fe fc e3 bd 57 69 38 be b4 97 b2 be 58 06 34 be
       -0.11132239 -0.18008934 -0.34881365 -0.17580545
0001c0 ba ad cf be b1 de e3 be 12 67 80 be c5 fd 51 be
       -0.4056223 -0.44505838 -0.25078636 -0.20506962
0001d0 fe a2 cd be a0 9c 89 bd be 50 2d be fd a9 85 3e
       -0.40163416 -0.06719327 -0.16925332 0.26106253
0001e0 aa 7b ae 3b e9 b1 c2 3d ce 66 00 3e d9 ec b1 3c
       0.0053248005 0.0950659 0.12539217 0.021719383
0001f0 72 f0 1f bd eb 3c e3 bd 95 40 eb be 70 da 12 be
       -0.039047666 -0.110956036 -0.4594771 -0.1434114
000200 ab b8 d8 bc cb 03 59 bf b9 1c 85 be c3 d1 85 3e
       -0.026455244 -0.8477141 -0.25998476 0.26136598
000210 65 b5 40 be 1a 1b ac 3e aa b1 a4 3e d7 b1 20 be
       -0.18819197 0.33614427 0.32166797 -0.1569284
000220 81 ce 4a 3e b2 2e 02 3e d7 78 16 be ca e0 0a 3d
       0.19805337 0.12713125 -0.14694534 0.03390578
000230 19 4a 64 be 20 6a 8d be 50 c3 f2 bc e3 90 9d be
       -0.22293891 -0.2762003 -0.029634148 -0.30774602
000240 7b 6e 31 be 68 45 2a be 28 f5 7d bc 28 7a 24 3e
       -0.17327301 -0.16628039 -0.015500344 0.16062224
000250 23 0c b0 bd 80 fb a1 3e 1a dd 0d bd 49 fd 79 3d
       -0.08596065 0.31637192 -0.034634687 0.061032567
000260 5a 84 35 3d 25 06 b8 3b 1f b4 59 3d 12 ae 2b 3e
       0.044315673 0.005615967 0.053150292 0.16765621
000270 3b 37 66 be 2e 1d 0e 3b b9 a4 90 bb b0 24 98 bd
       -0.22482006 0.0021684873 -0.0044141677 -0.074288726
000280 7c 4b b0 bd f7 0b 55 3d 48 ef 02 bf e0 97 e4 3e
       -0.086081475 0.052013364 -0.51146364 0.4464712
000290 da a1 fc 3b b2 d5 26 3d 77 02 80 bd c8 b7 33 be
       0.007709724 0.04073114 -0.0625047 -0.17550576
0002a0 a8 22 4c 3e 32 4e f8 3d 45 12 27 3e bc 90 c9 be
       0.19935095 0.121242896 0.16315563 -0.39368236
0002b0 62 ea 3a bd ee 9a 61 3e 0d 77 10 bf bf 10 09 3d
       -0.04563368 0.22031757 -0.5643166 0.033463236
0002c0 94 d2 b4 bb 93 47 8e be c0 53 7d be a1 b4 eb be
       -0.005518267 -0.27788982 -0.2473898 -0.46036246
0002d0 d1 4e e4 be d5 c7 cb be bb 1a b0 be 28 a3 21 be
       -0.44591382 -0.39800897 -0.34395394 -0.15784895
0002e0 1d c4 2f 3e 78 32 7a 3e a8 c4 fd bc 03 58 e3 3c
       0.17164655 0.24433315 -0.030977562 0.027751928
0002f0 f8 97 ed 3d 84 d5 cb 3d 06 88 4b 3e 36 4b 96 3c
       0.11601251 0.09952834 0.19876108 0.01834641
000300 09 ea f1 bd 39 fb 40 be 3c 2d 2a be 43 ba b7 3d
       -0.11812217 -0.18845834 -0.16618818 0.089710735
000310 80 84 d6 3d fb 74 94 bd 83 b5 1a 3f e7 56 a5 3e
       0.10474491 -0.07248875 0.60433215 0.32292864
000320 37 97 a5 3e a6 53 b7 bb ea bc f2 be b8 51 0c bf
       0.3234193 -0.0055946885 -0.47409755 -0.5481219
000330 76 8e e5 bd 15 94 35 3e 3f 9f 5f 3e 22 e4 3e bd
       -0.11208813 0.1773227 0.21838091 -0.046604283
000340 b4 76 e5 bd 91 b4 c8 bd 5c 15 38 3e 81 50 a7 3d
       -0.112042814 -0.09800065 0.17976898 0.08169652
000350 ee 8f 4b 3e 7c 6b 52 3e 16 d2 90 bc a7 96 b9 3e
       0.19879124 0.20548815 -0.017678302 0.3624775
000360 df 50 a0 be ff 60 27 bc c5 3d a0 be ac 9b 0a bf
       -0.313117 -0.010215997 -0.31297126 -0.54143786
000370 d4 7f b7 be bd c5 f3 bd 95 44 11 3d c3 32 56 3e
       -0.35839713 -0.1190295 0.035465796 0.20917802
000380 36 12 ec 3e 91 34 0b be 9e 6d 04 bb 65 25 01 be
       0.46107644 -0.13594271 -0.0020206938 -0.12611921
000390 e0 d2 e0 be c5 51 9a be 76 02 a6 be 9b 8f 79 bd
       -0.43910885 -0.3014051 -0.32423753 -0.06092797
0003a0 cd c3 21 3e 67 91 90 3e be fd 72 3c f8 71 b5 3d
       0.15797348 0.28235933 0.014831005 0.088596284
0003b0 28 35 ee 3d aa 9c 0a 3e 23 79 2f be 38 30 84 be
       0.116312325 0.13536325 -0.17136054 -0.25818038
0003c0 ba 91 ba 3d d5 51 76 be 5e 3c 86 3c b2 04 32 be
       0.091098264 -0.24054654 0.016386207 -0.17384604
0003d0 f5 85 2d bc d2 1c 45 be 75 6b 84 bc a5 ce 7f bc
       -0.01059102 -0.19249275 -0.01616452 -0.015613233
0003e0 95 54 b3 3d 61 87 d1 bc 50 c5 0c 3d 5d ea dd 3d
       0.08756367 -0.025577249 0.03436786 0.10835717
0003f0 18 e2 33 be e3 76 f3 be 43 65 04 bf 2d 97 9f be
       -0.17566717 -0.4755164 -0.51717013 -0.31170025

conv_block_2.2.bias f4 [10]
000000 70 39 2e be ba c2 3b 3e 6a 63 e1 3c 67 79 39 be
       -0.17014098 0.18336001 0.027513225 -0.18112718
000010 0d 22 56 3e 16 8f 2d 3e 32 5a f1 bd 78 56 6c 3c
       0.20911427 0.16949114 -0.117847815 0.014424913
000020 a6 67 10 3f 0f ed 8e 3e
       0.56408155 0.27915236

classifier.1.weight f4 [10, 490]
000000 94 12 10 3d d0 8a 31 bd c2 0e 0d be 4f 7b d7 3c
       0.035173967 -0.043345273 -0.13775161 0.026303915
000010 ea d7 57 3d 5b 01 40 3d ba 65 b3 3c cd db ab 3d
       0.052696146 0.046876293 0.021899093 0.08391533
000020 90 22 95 3d 0f 6f a5 3d 2d d2 64 be a8 c5 d3 bc
       0.07281983 0.08077823 -0.223458 -0.025851086
000030 28 ae b6 3d 4f a4 49 3d c8 9b 5d 3d e1 46 11 3e
       0.089199364 0.049228963 0.054103643 0.14187194
000040 00 36 cb bd c5 18 c4 be 27 70 1b bf 3b 7f 55 be
       -0.09922409 -0.38300148 -0.60718006 -0.20849316
000050 15 48 03 3c 70 ee 0a ba d2 59 ac bb 34 c8 d7 bd
       0.008012791 -0.0005299812 -0.005259731 -0.105362326
000060 5a 7d e6 bc 88 2a bf bc 6d a1 57 be 30 33 b2 bd
       -0.028135944 -0.02333571 -0.21057673 -0.087011695
000070 fe 8d 16 bd 80 57 6e bd 65 99 9d bc 56 3a 72 bd
       -0.036756508 -0.058188915 -0.019238183 -0.059137665
000080 ee 3f 93 be fe 34 d0 bd fb 1f 53 bd b4 13 55 bd
       -0.28759712 -0.101663575 -0.05154417 -0.052020743
000090 bd c0 50 bd 25 70 2e 3e 68 b3 97 bd 16 e3 0d 3c
       -0.05096506 0.17034967 -0.07407266 0.008660099
0000a0 56 cd 2d 3d 9f b9 90 bb 5c bc ad 3c e4 be 1a 3b
       0.04243215 -0.004416659 0.02120798 0.0023612315
0000b0 99 81 9a 3d fd 15 84 bc d0 47 48 bd 01 29 c6 ba
       0.0754425 -0.016123766 -0.04889661 -0.0015118421
0000c0 c4 2c ec bc 9f eb cd bc 45 de b1 bd 7b 41 93 bd
       -0.02882994 -0.025136767 -0.08684973 -0.07190224
0000d0 fe c4 0e be 97 d5 0e bd b3 75 d7 3c 27 af cf bc
       -0.13942334 -0.034871664 0.02630124 -0.025352074
0000e0 9e cf de bc 31 d6 2d be 54 06 be bd 46 9c 39 be
       -0.027198609 -0.16976239 -0.09278551 -0.1812602
0000f0 4c e9 07 be 78 de dd bd 88 96 85 bd 5b a3 0a bc
       -0.1327259 -0.10833448 -0.06522852 -0.008461799
000100 45 d5 8b 3d 8a d4 d8 3d 96 57 b8 3d 68 5f ed be
       0.06827787 0.105874136 0.09001081 -0.46361852
000110 46 43 eb bd 80 48 01 3d 7e 4b 2f 3d 3f bf d8 3e
       -0.11487441 0.031563282 0.042796604 0.4233341
000120 1c 1b 3b 3e a2 7b 13 be 7e 62 e5 3d 2a 3f 28 3e
       0.1827206 -0.14402631 0.112004265 0.16430345
000130 87 39 27 bd 09 37 4c 3d b9 2f 95 3e 5e a6 57 3d
       -0.040826347 0.049857173 0.29137972 0.052648894
000140 43 ac 06 bd ad de 41 3e f8 98 12 bd 2c 63 f0 bc
       -0.032879125 0.189326 -0.035790414 -0.029344164
000150 82 52 ad bc 69 bd e6 3d 79 c2 0f be 4d ae f4 bd
       -0.021157507 0.11266596 -0.14039029 -0.11947308
000160 89 a1 b1 ba 64 88 74 bc ee 7a 47 bd 0c 03 a4 bc
       -0.001355217 -0.014925096 -0.04870122 -0.020020984
000170 fb 20 14 3d fb dd dc 3c ca a6 11 bd 9b a2 7d ba
       0.036164265 0.026961317 -0.035559453 -0.0009675414
000180 c8 ad 22 bd 23 5f 22 3c 1b b2 0f 3d ea a4 a1 3c
       -0.039716512 0.009910378 0.035081964 0.019731957
000190 8f 30 5f 3d d4 8f dd 3a 29 42 67 bb ef 4e 1c 3d
       0.05448967 0.0016903826 -0.0035287237 0.038161214
0001a0 02 0e e8 3b e3 e0 db 3c e8 9d 92 3b 70 1c f2 bc
       0.007081748 0.026840633 0.0044743903 -0.029554576
0001b0 ee ce f7 bd e2 06 24 bd 12 9a 88 3c 11 23 11 bd
       -0.121000156 -0.040045626 0.016675029 -0.035433833
0001c0 0c ba 15 bc 80 58 44 be 1c a3 28 be 45 76 a3 bd
       -0.009138595 -0.19174385 -0.16468471 -0.079815425
0001d0 7a 03 3f be 83 7b 14 3d 42 e4 bb bc 8f 97 a1 bd
       -0.1865367 0.036250602 -0.02293599 -0.07890236
0001e0 19 1c 70 be 0f 8d 43 be da ee 64 be b3 22 a5 bd
       -0.23448218 -0.19096778 -0.2235674 -0.08063259
0001f0 8f e4 35 3e 1e e2 3f be 9a df 89 bd 72 55 e5 be
       0.1776297 -0.187386 -0.06732102 -0.44791752
000200 0c a2 c0 be f4 39 a5 be 3a 01 16 be ea bc a1 bd
       -0.37623632 -0.32270777 -0.14648905 -0.078973606
000210 73 a0 f3 bd ea 5e 07 3e a5 e3 0d bd cd 36 60 be
       -0.11895838 0.132198 -0.034640927 -0.21895905
000220 de 3e 45 3e 94 a2 ef 3e 76 aa 1d 3e 18 31 5a bc
       0.19262263 0.46803725 0.15397057 -0.013317369
000230 a5 5e f3 3c 70 d8 09 be 39 d3 f0 3c 15 0c 26 3e
       0.029708216 -0.1346147 0.029397594 0.16215546
000240 e4 e1 b1 3c 37 ae d1 bd 1f 5c a0 bc e3 57 a0 3b
       0.021714158 -0.10238307 -0.019575177 0.0048932894
000250 df 0f a1 bd 57 d7 fa bc 21 c3 eb bc 3e 70 e5 bc
       -0.07864355 -0.03062026 -0.028779568 -0.028007623
000260 5e 97 5b 3e 41 f3 09 3e 6f 48 1d bd f7 ab 12 3e
       0.21444461 0.134717 -0.038399156 0.14323412
000270 4a cf 48 3d 1e fa 10 bd 43 b8 c2 3e 18 7f 0d 3d
       0.04902581 -0.03539478 0.38031206 0.034545034
000280 c2 fb ca 3d 9c 72 13 3c df 2b 89 3c e3 00 02 be
       0.099113 0.008999493 0.016744552 -0.12695651
000290 27 cf 4c be 93 63 83 be 2c 22 08 be 8b 9a d2 3d
       -0.20000897 -0.25661907 -0.13294286 0.10283383
0002a0 ba ea 3c bc 43 f2 0b be e3 cc 3b 3d ee 76 57 be
       -0.011530573 -0.13666634 0.045849692 -0.21041462
0002b0 4b 57 ef bd 54 6d a0 be 47 79 6d bb 09 c4 90 bc
       -0.11686572 -0.3133341 -0.0036235617 -0.017671602
0002c0 9a d7 ca bd c4 5e e3 bd ed 2c e7 3e b3 ab 94 be
       -0.09904404 -0.111020595 0.45151463 -0.29037246
0002d0 21 68 74 bd 88 b9 79 bd 40 73 ae 3c 86 73 be bb
       -0.059669618 -0.060967952 0.02129519 -0.0058121113
0002e0 1a df 8a 3d 1a f6 d5 3d 0a 88 78 3b da f2 be bd
       0.067808345 0.10447331 0.0037922882 -0.09323664
0002f0 2e e6 28 bd 82 ac bd bb c3 fb 89 3c 37 74 90 bc
       -0.04123514 -0.005788387 0.016843682 -0.01763354
000300 fe bc ff bc 0e fb 65 bd 3d b2 56 bd 07 01 b8 bb
       -0.031218048 -0.056147628 -0.052416075 -0.005615357
000310 00 fb 13 3c 68 5b e4 bd 49 05 34 be f8 d1 4e be
       0.009032011 -0.11150247 -0.17580141 -0.20197284
000320 d7 a0 dc 3b 60 04 ab 3d 67 4f 9d bc a8 64 0a 3b
       0.006733041 0.08350444 -0.019202901 0.0021117125
000330 05 2c b1 3d 96 04 4d be 2e 4d a7 3d 37 41 27 3e
       0.08650974 -0.2002128 0.08169018 0.16333471
000340 90 e6 92 3e 52 af c6 3d 24 d7 b8 3d 4c ef 3a be
       0.2869153 0.097014084 0.0902541 -0.18255347
000350 6c 5e b7 be c2 d5 10 be 38 ad 56 bd a4 e1 8d bc
       -0.35814226 -0.14144042 -0.052411288 -0.017319508
000360 02 05 1b 3e 99 93 4e 3c de 00 b8 3d 02 33 98 bd
       0.15138629 0.012608432 0.089845404 -0.07431604
000370 cf c1 07 3e 09 fb 1b bf c4 5b bb bd 19 98 ce 3c
       0.13257526 -0.60929924 -0.09148362 0.02521901
000380 72 22 98 3d ec 05 04 bc 56 51 44 3e 66 39 5c 3e
       0.07428445 -0.0080580525 0.19171652 0.21506271
000390 29 24 83 be bc 33 34 be a8 09 2e bd 1e 92 27 3d
       -0.25613526 -0.1759786 -0.042489678 0.040910833
0003a0 40 b8 ff 3d 79 f6 04 3e 36 4b 5a 3e 26 75 95 bd
       0.12486315 0.12984647 0.21317753 -0.07297735
0003b0 a2 12 48 bb 0c 60 7f 3c 04 52 bf 3c d0 a1 92 bc
       -0.0030528684 0.015586864 0.023354538 -0.017899424
0003c0 0e a9 56 3c a1 59 e5 3b 80 f1 76 3c 21 da 74 3c
       0.013101829 0.00699921 0.0150722265 0.014944584
0003d0 e0 9f 35 3c 40 28 a5 3b 01 95 cd 3d 7a d2 07 be
       0.01108548 0.0050401986 0.10038186 -0.13263884
0003e0 ec aa 03 3e 41 b4 58 3e db f8 c8 3d e0 57 8a 3d
       0.1285817 0.21162511 0.098130904 0.06755042
0003f0 0c 0e 42 3d ef 70 67 bd 54 64 2f be 96 c6 7f be
       0.047376677 -0.056504186 -0.17128116 -0.24978098

classifier.1.bias f4 [10]
000000 68 44 3e 3d c1 84 38 3f 5d 36 40 3e b5 7a 77 be
       0.046451956 0.72077566 0.18770738 -0.24167903
000010 4d 5c 9f bd 91 a9 2a be b4 68 b7 bd d4 78 47 3e
       -0.07781277 -0.16666247 -0.089555174 0.19479686
000020 6b fd a7 be be aa 88 be
       -0.3281053 -0.26692766
