checkpoints/model_epoch_8.pth (torch, 34447 bytes, 10 tensors)

conv_block_1.0.weight f4 [10, 1, 3, 3]
0	0xbdab04ab	-0.083505
1	0xbe202933	-0.15640716
2	0xbd0abab8	-0.033869475
3	0xbea54279	-0.32277277
4	0xbe4f1754	-0.20223743
5	0xbdf06f01	-0.11739922
6	0x3ea40bb7	0.32040188
7	0x3e1f31d3	0.1554635
8	0xbe0d870d	-0.13821049
9	0xbe4db4b5	-0.20088466
10	0xbd8fd59d	-0.070231654
11	0xbe32c827	-0.17459165
12	0xbf22edfc	-0.63644385
13	0x3e19958c	0.14998454
14	0x3ede85dd	0.43461505
15	0xbf07b2aa	-0.53006995
16	0x3d8cdd42	0.06878139
17	0x3ecffe61	0.40623763
18	0x3ee7eca3	0.45297727
19	0x3ecf29c1	0.40461543
20	0x3ed1f93e	0.4101047
21	0xbf11b0ba	-0.5691029
22	0x3c80d546	0.015726697
23	0xbd3b2240	-0.04568696
24	0xbf89618c	-1.0732894
25	0xbed17f5f	-0.4091749
26	0x3f0e37e7	0.5555405
27	0x3e315f74	0.17321569
28	0x3eca4390	0.3950467
29	0x3ee64ce0	0.44980526
30	0x3e8516bf	0.25993916
31	0xbedc01c5	-0.429701
32	0xbe80d76b	-0.2516435
33	0x3e7ea056	0.24865851
34	0xbebd767a	-0.37004453
35	0xbf49186f	-0.7855291
36	0xbea02734	-0.3127991
37	0xbee8dc82	-0.45480734
38	0xbe4a94a5	-0.19783266
39	0x3b85e048	0.0040855743
40	0x3f313e58	0.69235754
41	0x3d52ad6b	0.051434916
42	0x3df3cbeb	0.11904129
43	0x3f44a409	0.768128
44	0xbe6ab67d	-0.22921176
45	0xbe944ec7	-0.28966352
46	0x3ead22e9	0.33815697
47	0xbe44cd7c	-0.19219011
48	0xbecc8eba	-0.39952642
49	0x3dda2e39	0.106533475
50	0x3d54116f	0.05177444
51	0x3e8ddc29	0.2770703
52	0xbe23aa74	-0.15982991
53	0x3e96cc8b	0.2945293
54	0x3e0e3d16	0.1389049
55	0x3e9ae741	0.30254558
56	0xbe44c39b	-0.19215243
57	0xbeb672e5	-0.35634533
58	0x3edc8fcc	0.43078458
59	0xbecfc45b	-0.40579495
60	0xbeaef611	-0.3417211
61	0x3ec78518	0.3896873
62	0xbddd81dc	-0.10815784
63	0x3dacf646	0.084454104
64	0xbe514ea8	-0.20440161
65	0xbe8ed599	-0.27897337
66	0xbe5a065c	-0.21291488
67	0xbe288e06	-0.16460428
68	0xbdbde035	-0.0927128
69	0x3e5729c4	0.21012026
70	0x3dc8cb5f	0.09804415
71	0xbe66d047	-0.22540389
72	0x3e694551	0.22780348
73	0xbf121210	-0.5705881
74	0x3d814cc4	0.0631347
75	0x3f033d9e	0.51265895
76	0x3ea714b3	0.3263298
77	0x3c83c5be	0.016085502
78	0x3dd25154	0.10269418
79	0xbeda3918	-0.42621684
80	0xbd9de6ec	-0.077100605
81	0x3e8b15e0	0.27165127
82	0x3eaf8a15	0.34285036
83	0xbe60f56c	-0.21968621
84	0xbe1bf0be	-0.15228555
85	0xbe6c3ef0	-0.23070884
86	0xbeed507b	-0.46350464
87	0xbf050812	-0.5196544
88	0xbf222808	-0.6334233
89	0xbf0ee6cf	-0.55820936

conv_block_1.0.bias f4 [10]
0	0xbd892c4e	-0.066979036
1	0xbdbfe75e	-0.09370302
2	0xbd28ebd8	-0.041240543
3	0xbdd003e0	-0.10156989
4	0xbe0ca601	-0.137352
5	0xbea8faea	-0.33003932
6	0xbe1cecda	-0.15324727
7	0xbdd5826f	-0.10425269
8	0xbe8910c1	-0.26770595
9	0x3ea67bb8	0.32516265

conv_block_1.2.weight f4 [10, 10, 3, 3]
0	0x3d81a9e3	0.063312314
1	0xbd7b7d60	-0.061398864
2	0x3d97594c	0.07390079
3	0x3db9b102	0.09066965
4	0x3d165cf3	0.036709737
5	0x3d19b0e7	0.037522223
6	0x3cfed45a	0.031107116
7	0xba5b0f04	-0.00083564245
8	0x3d81026c	0.0629929
9	0x3d963482	0.07334234
10	0xbccc30cc	-0.024925612
11	0x3e6dc69c	0.23220295
12	0x3dd4288c	0.10359296
13	0xbe54e9a8	-0.20792258
14	0xbdeef6da	-0.11668177
15	0xbe417f06	-0.18896112
16	0xbe6629db	-0.22476904
17	0x3d8ac421	0.0677569
18	0xbe287dd6	-0.16454253
19	0xbe09daca	-0.13462368
20	0x3e92f7a5	0.28704563
21	0xbe0e5ad4	-0.13901836
22	0xbe4de04b	-0.20105092
23	0x3e7a539f	0.24445961
24	0x3e29b98b	0.16574685
25	0x3dfef857	0.12449711
26	0x3d2a74b5	0.041615207
27	0xbe6e393c	-0.2326402
28	0xbd857e9c	-0.065182894
29	0x3d012901	0.031533245
30	0xbe22fe6a	-0.15917364
31	0x3d905ec7	0.07049327
32	0x3e916de8	0.28404164
33	0x3dbe7d12	0.09301199
34	0x3dd20970	0.10255706
35	0xbe09df9f	-0.13464211
36	0x3dbc90ad	0.09207282
37	0x3e995300	0.29946136
38	0x3e0f883f	0.14016818
39	0xbe3728c4	-0.17886645
40	0xbdb87104	-0.09005931
41	0xbe8d3274	-0.27577555
42	0xbe98d3d9	-0.29849127
43	0xbe75ad3a	-0.23991862
44	0xbe6591c2	-0.22418883
45	0x3c236c1e	0.009974508
46	0xbc4d47e7	-0.01252935
47	0x3dbab5af	0.09116685
48	0x3b914942	0.004433782
49	0x3d095963	0.03353251
50	0x3dc5d803	0.096603416
51	0xbd516415	-0.051120836
52	0xbdbac96d	-0.0912045
53	0xbdcf7a85	-0.101307906
54	0xbd1d44a3	-0.038395535
55	0xbbe285c6	-0.0069129197
56	0x3d45db69	0.04830495
57	0xbc97062c	-0.01843556
58	0x3c4b99b3	0.0124267815
59	0x3d381206	0.044939063
60	0x3c81156f	0.01575729
61	0x3d22b91c	0.039727315
62	0xbe103c8f	-0.14085601
63	0xbdbfcd44	-0.09365323
64	0xbc9b59d0	-0.018963724
65	0x3d540190	0.051759303
66	0xbcd7dba4	-0.02634985
67	0x3ca7f639	0.02050315
68	0xbdcd6b3e	-0.100302204
69	0x3d327bbf	0.043575045
70	0xbd8a2278	-0.06744856
71	0x3c37c653	0.011216718
72	0xbe54b243	-0.20771126
73	0x3da4bcc6	0.08043818
74	0x3e4e972c	0.20174855
75	0xbd80a2de	-0.062810645
76	0x3dccb94e	0.099962816
77	0x3a6b7d23	0.00089831854
78	0xbe7da507	-0.24769984
79	0xbe03b475	-0.12861808
80	0xbe492887	-0.19644366
81	0xbccd8cce	-0.025091555
82	0xbe1b8b6f	-0.15189908
83	0xbe3ca42d	-0.18422003
84	0xbcb33612	-0.021876369
85	0x3d169a75	0.036768395
86	0xbdbe8985	-0.093035735
87	0x3de7e490	0.11322892
88	0x3df54628	0.11976272
89	0x3d671eef	0.056425985
90	0x3cf9ed38	0.030508623
91	0xbdc29afd	-0.09502218
92	0x3d83b546	0.064310595
93	0x3b857f91	0.004074045
94	0x3c9ac8ae	0.01889452
95	0x3d8d2eef	0.068937175
96	0x3a5ac27a	0.00083450193
97	0x3e021c6c	0.12706155
98	0x3e0b6b92	0.13615254
99	0xbdc8eb2b	-0.0981048
100	0xbd9bc697	-0.076062374
101	0x3e2a3026	0.1661993
102	0xbdab8766	-0.083754346
103	0xbe400514	-0.18751937
104	0xbdabb979	-0.083849855
105	0xbe3b3a55	-0.1828397
106	0xbe2b3d70	-0.16722655
107	0xbd09b915	-0.033623774
108	0x3dc875a8	0.09788066
109	0xbe787178	-0.24262035
110	0xbec66470	-0.38748503
111	0xbdafa18f	-0.08575737
112	0xbe76a5c4	-0.24086672
113	0xbe8b71b8	-0.27235198
114	0x3d46d1a3	0.04853977
115	0xbe3a22ca	-0.18177333
116	0xbc80ccdc	-0.015722685
117	0x3de2c17d	0.11072061
118	0x3e7a5f3e	0.24450395
119	0x3dd94390	0.1060859
120	0xbe8d14ec	-0.27555025
121	0xbe088901	-0.13333513
122	0xbe598666	-0.21242675
123	0xbda30235	-0.07959405
124	0xbe15a4cd	-0.14613648
125	0x3e6e3e85	0.23266037
126	0xbe1f6597	-0.15566097
127	0xbebe2108	-0.37134576
128	0xbddc2a84	-0.10750297
129	0x3e1b5284	0.15168196
130	0x3e95a5b8	0.29227996
131	0x3d90e05f	0.070740454
132	0xbe65667a	-0.22402373
133	0xbd641cf9	-0.055691693
134	0x3e178395	0.14796288
135	0x3d6e605a	0.058197357
136	0x3dd7f673	0.10545053
137	0x3e05b492	0.13057163
138	0x3e018222	0.12647298
139	0x3c8dc2aa	0.017304737
140	0xbd7443ad	-0.059634853
141	0xbdef90da	-0.1169755
142	0x3ca2e31e	0.019883689
143	0x3cd74e08	0.026282325
144	0x3da60b89	0.08107669
145	0xbdbcdf24	-0.09222248
146	0xbe31fbe7	-0.1738125
147	0x3c04814f	0.00808747
148	0xbbb5e766	-0.0055512665
149	0xbd6526b2	-0.055945106
150	0xbd3af447	-0.045643117
151	0x3e49d831	0.19711377
152	0x3d553375	0.052051026
153	0xbd28b0d5	-0.041184265
154	0xbaf57117	-0.001872572
155	0xbca1445d	-0.019685918
156	0xbcfc8c5a	-0.030828644
157	0xbcfb9b75	-0.030713776
158	0xbdc112c0	-0.094274044
159	0x3ba871de	0.005140527
160	0x3dbb7ff5	0.09155265
161	0x3a4144e7	0.0007372633
162	0xbd03911e	-0.032120816
163	0xbde80582	-0.113291755
164	0xbe8e10e7	-0.2774727
165	0x3dfb6b1c	0.12276289
166	0x3da06208	0.07831198
167	0x3e8b5565	0.27213588
168	0x3d9c10e7	0.07620411
169	0xbd958145	-0.07300047
170	0xbd8d8acb	-0.06911238
171	0xbe3ad54d	-0.1824543
172	0xbe2d1adc	-0.16904777
173	0xbda41c2e	-0.08013187
174	0xbea1abaa	-0.31576282
175	0xbe3b4eed	-0.18291827
176	0xbe1b9e83	-0.15197186
177	0xbde9e46e	-0.11420523
178	0xbeb9d4c3	-0.36295137
179	0xbd8294e1	-0.06376053
180	0xbcdb68f4	-0.026783444
181	0x3df033a0	0.11728597
182	0x3e2d83ec	0.16944855
183	0xbcbb7e43	-0.022887355
184	0xbd367747	-0.044547345
185	0x3c858a82	0.016301397
186	0xbd260788	-0.040534526
187	0x3d936cf4	0.071985155
188	0xbcb7490f	-0.022373704
189	0x3c8299e3	0.01594252
190	0xbda604d7	-0.08106392
191	0xbd001ba9	-0.03127638
192	0xbe200899	-0.1562828
193	0x3e273b2d	0.16331168
194	0xbd5ceb32	-0.053935237
195	0xbdf8dc6f	-0.12151419
196	0xbe313fcb	-0.17309491
197	0x3e22b6f8	0.1589011
198	0xbe493487	-0.19648944
199	0xbd150509	-0.036381755
200	0x3d7d809e	0.061890237
201	0x3dc840e2	0.097780004
202	0x3e1c81db	0.15283911
203	0xbe481efd	-0.19543071
204	0xbde50f5b	-0.111845694
205	0x3e0d8af2	0.13822535
206	0x3eb1eda4	0.34751618
207	0xbec8da4f	-0.39229056
208	0xbebf169b	-0.37321934
209	0xbe82bfb9	-0.25536898
210	0x3decf504	0.115701705
211	0xbe745d25	-0.23863657
212	0xbe13f035	-0.144471
213	0x3ea22f80	0.31676865
214	0x3e2fa835	0.1715401
215	0xbe4629ca	-0.19351879
216	0xbd483eab	-0.04888789
217	0x3e8710db	0.26380047
218	0x3e82a905	0.25519577
219	0xbe656305	-0.22401054
220	0x3c413854	0.011793215
221	0x3e6a2913	0.22867231
222	0xbf187e8c	-0.59568095
223	0xbf0e84b7	-0.55671257
224	0xbe7eaa3c	-0.24869627
225	0xbd59237a	-0.05301235
226	0xbd7a5085	-0.061111946
227	0xbdedd0fb	-0.116121255
228	0x3da34e0a	0.07973869
229	0xbc92b738	-0.017909631
230	0x3d1c0b37	0.038096633
231	0xbbb1f959	-0.005431336
232	0xbd414cbe	-0.047192328
233	0x3e180d23	0.14848761
234	0x3dbfae2c	0.093593925
235	0xba1f442d	-0.00060755276
236	0x3d03c6bf	0.03217196
237	0xbd9cd106	-0.076570556
238	0x3d8008f0	0.06251705
239	0x3e4af3cd	0.19819565
240	0xbd1709b8	-0.036874503
241	0xbdb90ca2	-0.09035613
242	0x3dc006bb	0.09376284
243	0x3d7430c3	0.059616815
244	0xbd2a73a7	-0.0416142
245	0x3dde2d7c	0.10848519
246	0xbcf39e9a	-0.029738713
247	0xbcf84798	-0.030307576
248	0xbacc6a36	-0.0015595618
249	0x3dc6d6c9	0.09708936
250	0x3dbbaade	0.0916345
251	0x3d934b19	0.07192058
252	0xbd556e08	-0.052106887
253	0xbd5406ba	-0.051764227
254	0xbc8c4014	-0.017120399
255	0x3dd2db3b	0.10295721

conv_block_1.2.bias f4 [10]
0	0xbdc43dd9	-0.09582109
1	0x3ead8b74	0.33895457
2	0x3cfc32bc	0.03078591
3	0xbdae34b3	-0.08506145
4	0x3e09e6f4	0.13467008
5	0x3e25f870	0.16208053
6	0x3edbd70c	0.42937505
7	0xbda2bebd	-0.07946537
8	0xbdc8093d	-0.09767387
9	0xbb23c8a6	-0.0024991422

conv_block_2.0.weight f4 [10, 10, 3, 3]
0	0xbdbeae89	-0.09310634
1	0xbe10fd4a	-0.14159122
2	0x3e85aa90	0.2610669
3	0xbe78fc24	-0.24314934
4	0xbd8e11be	-0.06936978
5	0xbe5eefb9	-0.21771134
6	0xbe6a02d0	-0.22852635
7	0xbd8ffff5	-0.07031242
8	0xbd13ad18	-0.036053747
9	0x3c835aa0	0.016034424
10	0xbe8a426b	-0.27003798
11	0xbeeb8e25	-0.46006885
12	0x3d2a7aac	0.041620895
13	0xbe388e4d	-0.18023033
14	0x3d9a936e	0.07547651
15	0xbd2db1ce	-0.042405896
16	0x3c0d8ee4	0.008640025
17	0x3ef73058	0.4827907
18	0xbea2308f	-0.31677672
19	0xbe829516	-0.2550437
20	0x3e1d6044	0.15368754
21	0xbe9724f1	-0.29520372
22	0xbe9e5da8	-0.3093083
23	0xbe4eeedd	-0.20208307
24	0xbe88bfe1	-0.26708892
25	0x3f0464e7	0.51716465
26	0x3e12adc2	0.14324096
27	0xbd8aff6b	-0.06786998
28	0xbe984121	-0.2973719
29	0xbe142795	-0.14468224
30	0x3d4da6b9	0.050207827
31	0xbe70c60d	-0.2351305
32	0xbec752b3	-0.38930282
33	0x3e1c414a	0.15259281
34	0xbe867668	-0.26262212
35	0xbe7c7812	-0.24655178
36	0x3e35392c	0.1769759
37	0xbca3978d	-0.019969726
38	0xbd993334	-0.07480469
39	0x3d89de8d	0.06731901
40	0xbd1fb7ef	-0.038993772
41	0x3ead5aba	0.3385828
42	0x3e8004c7	0.25003645
43	0x3cb5823d	0.022156829
44	0x3d9e524c	0.07730541
45	0x3c432659	0.011910998
46	0xbe6f9efe	-0.23400494
47	0xbcec6c2c	-0.028860174
48	0x3c404e68	0.0117374435
49	0xbe818f8f	-0.2530484
50	0xbe53b1e3	-0.20673327
51	0x3e8279af	0.25483462
52	0xbd8f7142	-0.07004024
53	0x3e3a0310	0.18165231
54	0xbeb33a1e	-0.35005277
55	0xbee46072	-0.44604832
56	0xbec68ff4	-0.38781703
57	0xbd5b97e6	-0.05361166
58	0xbe0b9f8b	-0.1363508
59	0xbce9446d	-0.02847501
60	0xbe069211	-0.13141657
61	0x3cc1e630	0.023669332
62	0x3edea74c	0.43487012
63	0xbe03b6b9	-0.12862672
64	0xbef454f6	-0.4772107
65	0xbed32e58	-0.41246295
66	0xbe0e14a0	-0.13875055
67	0x3cf783b3	0.030214166
68	0x3e448b1c	0.19193691
69	0x3d8faf55	0.07015864
70	0x3e56877a	0.20950118
71	0x3eb48072	0.35254246
72	0xbd7d6f99	-0.061874006
73	0xbe30e47a	-0.17274657
74	0xbd08a909	-0.03336433
75	0xbb8db9a7	-0.00432511
76	0xbcf777ad	-0.030208433
77	0xbd589816	-0.052879415
78	0xbcb29896	-0.021801274
79	0x3d1db5f6	0.03850361
80	0x3e449e03	0.19200902
81	0x3dd341cb	0.103152834
82	0x3e066f75	0.13128455
83	0x3cad6968	0.021168426
84	0x3c82a903	0.015949732
85	0xbd52888a	-0.051399745
86	0xbded2399	-0.11579055
87	0xbe807658	-0.2509029
88	0x3d3cd03c	0.046097025
89	0xbde13c07	-0.109977774
90	0xbcc216aa	-0.023692448
91	0x3dacf253	0.08444657
92	0xbccf3c3b	-0.025297275
93	0x3dca616e	0.098818645
94	0x3db0f245	0.08639959
95	0x3cac854c	0.021059655
96	0xbcc9dbfa	-0.024641026
97	0xbe13f9ad	-0.14450713
98	0xbb95b076	-0.004568155
99	0x3e2a5300	0.16633224
100	0xbd403243	-0.046922933
101	0xbead803e	-0.33886904
102	0xbe7f656a	-0.2494103
103	0xbe7bbb0e	-0.24583074
104	0xbea725d0	-0.32646036
105	0x3e5dda75	0.21665366
106	0x3d482b27	0.04886928
107	0x3ea432cb	0.32070002
108	0x3eab4cee	0.3345713
109	0x3d627bd8	0.055293888
110	0xbdbe08d2	-0.09279026
111	0x3cce7cb4	0.025205947
112	0xbe76ab5d	-0.24088807
113	0xbeccf3c5	-0.4002973
114	0xbe36b2ce	-0.17841646
115	0xbe8cefc1	-0.27526668
116	0xbdf12127	-0.117739014
117	0x3edbc7d7	0.42925903
118	0x3ea38f11	0.31945089
119	0xbddb3bcf	-0.10704767
120	0x3d912e82	0.07088949
121	0x3d8bb15e	0.068209395
122	0xbdbf934f	-0.09354269
123	0xbe3e9de3	-0.18614917
124	0xbe8fb534	-0.28067935
125	0xbe6ed4c1	-0.23323347
126	0xbdecbf7b	-0.115599595
127	0x3ec2286a	0.37921458
128	0xbdfcfb43	-0.12352612
129	0xbd3bb200	-0.04582405
130	0x3d880931	0.06642378
131	0xbc1241e7	-0.008926845
132	0x3bbde625	0.0057952576
133	0xbca3860e	-0.019961383
134	0xbc51a3d3	-0.012795406
135	0x3e9ac5cd	0.30229035
136	0x3dc4f501	0.09617043
137	0xbd9822f5	-0.074285425
138	0xbe02e63e	-0.12783143
139	0x3d9b1430	0.0757221
140	0xbed1702a	-0.40905887
141	0x3da5de02	0.08098985
142	0xbca7da00	-0.020489693
143	0xbd8d5671	-0.06901253
144	0x3f1c0222	0.60940754
145	0xbd0acf9a	-0.03388939
146	0xbebb68bd	-0.36603346
147	0x3e9a3ddd	0.30125323
148	0xbf0f668b	-0.56015843
149	0xbe7cc635	-0.24684985
150	0x3e841d62	0.25803667
151	0xbdc656ca	-0.096845224
152	0x3e9b81b7	0.30372402
153	0xbebb987e	-0.3663978
154	0xbed84d26	-0.4224636
155	0xbe9f1130	-0.310678
156	0xbe89ac56	-0.26889294
157	0xbe5280d2	-0.20556954
158	0xbe38744b	-0.18013112
159	0xbe310e3a	-0.17290583
160	0x3e0af9d2	0.13571861
161	0x3e80f8e5	0.2518989
162	0x3e3edf2b	0.1863982
163	0xbd1872e3	-0.03721894
164	0x3dbdccfe	0.09267615
165	0xbe8e0ffd	-0.27746573
166	0xbe42b978	-0.19016063
167	0x3d6ce586	0.057836078
168	0xbd66afab	-0.056319874
169	0x3e4610ee	0.19342396
170	0x3d3078f4	0.0430841
171	0x3d41239d	0.047153104
172	0x3ec0dd11	0.3766866
173	0x3e7dcfe7	0.2478634
174	0x3df63b6b	0.12023052
175	0x3e4f452d	0.20241232
176	0x3db525f5	0.0884513
177	0xbc5bec92	-0.013423102
178	0x3d38bf14	0.0451041
179	0xbd9305ee	-0.071788654
180	0x3e11a5b5	0.14223368
181	0x3e45446a	0.19264379
182	0x3e00650b	0.12538545
183	0xbe6b9369	-0.23005451
184	0xbd693b1b	-0.056941133
185	0x3ea8481f	0.32867524
186	0xbdcce587	-0.10004716
187	0xbe395332	-0.18098143
188	0x3d9d6061	0.076843984
189	0x3ae4f9f3	0.001746951
190	0x3df7ae09	0.120937414
191	0x3ef8dae6	0.48604506
192	0xbe969aae	-0.29414886
193	0xbea1776e	-0.3153643
194	0x3e49dd80	0.19713402
195	0xbc0aeeef	-0.008479818
196	0xbeae51e3	-0.3404685
197	0xbe15ac02	-0.14616397
198	0x3e15fca6	0.14647159
199	0x3d5a722f	0.05333155
200	0x3ebe606d	0.37182942
201	0x3c747bdd	0.014922109
202	0x3eb1216c	0.3459581
203	0x3ef787d4	0.48345816
204	0xbeb156b0	-0.3463645
205	0xbead733a	-0.33876973
206	0x3dbb9cbb	0.09160753
207	0xbe9a89ca	-0.3018325
208	0xbe8b326a	-0.271869
209	0x3dab1a1e	0.08354591
210	0x3d77864d	0.060430814
211	0xbe2a1087	-0.16607867
212	0xbd8bb2fa	-0.068212464
213	0x3c8c8407	0.0171528
214	0xbe8edf8e	-0.27904934
215	0xbe53d081	-0.20685007
216	0x3dcaa7f1	0.098953135
217	0x3d8a37a4	0.06748894
218	0xbe45749e	-0.19282767
219	0x3d1936df	0.037405845
220	0x3c4ca320	0.012490064
221	0xbdf67a63	-0.12035062
222	0x3dd2fa2a	0.10301621
223	0xbd15b6df	-0.036551353
224	0xbe633364	-0.22187573
225	0xbd7c4818	-0.06159219
226	0x3dbb4301	0.09143639
227	0x3edeef8b	0.43542132
228	0xbe70ea18	-0.235268
229	0x3d40727a	0.046984173
230	0x3e6788ce	0.2261078
231	0xbe382456	-0.17982611
232	0xbe716890	-0.23575044
233	0xbe5e4981	-0.21707727
234	0x3e18cd01	0.14921953
235	0x3e16355f	0.14668797
236	0x3f21a2f3	0.63139266
237	0xbe0d5267	-0.13800965
238	0xbdfb7bc5	-0.122794665
239	0xbc059395	-0.008152862
240	0xbe73ff00	-0.23827744
241	0xbf2d5bb5	-0.6771806
242	0x3dd705cd	0.10499153
243	0xbe21bed0	-0.15795445
244	0xbd83bb98	-0.06432265
245	0x3da3bf37	0.07995456
246	0xbece7407	-0.40322897
247	0xbefc3db6	-0.49265832
248	0xbefd83ba	-0.49514562
249	0x3e1d0b15	0.15336259
250	0x3e8c47f9	0.2739866
251	0x3ec2a25c	0.38014495
252	0xbd430ba8	-0.04761854
253	0xbd311dc5	-0.04324128
254	0xbd5bf277	-0.05369803
255	0xbda5aae6	-0.08089237

conv_block_2.0.bias f4 [10]
0	0x3eaeb82c	0.34124887
1	0x3e3c77b0	0.18405032
2	0x3d0f3270	0.03496021
3	0x3e879ec5	0.2648832
4	0x3c948934	0.01813183
5	0x3e95ab28	0.29232144
6	0x3cf9bc27	0.030485226
7	0xbdb25254	-0.08707109
8	0xbaf4fba9	-0.0018690723
9	0xbd86176d	-0.06547437

conv_block_2.2.weight f4 [10, 10, 3, 3]
0	0xbeb3367a	-0.350025
1	0xbe4bce1d	-0.19902845
2	0x3eca98ec	0.39569795
3	0x3dc08f95	0.09402386
4	0x3f06d988	0.52675676
5	0x3e87350d	0.26407662
6	0xbeb1642e	-0.34646744
7	0xbeac3b7b	-0.3363913
8	0xbe490714	-0.19631606
9	0x3d831557	0.064005546
10	0x3c8a59f1	0.01688859
11	0x3e952530	0.29129934
12	0x3e6c2099	0.2305931
13	0x3e36e9db	0.17862646
14	0xbb1cd166	-0.0023928522
15	0xbefa036f	-0.48830745
16	0xbef5829b	-0.47951207
17	0xbee7c498	-0.45267177
18	0xbeb54f2d	-0.3541197
19	0xbe826e18	-0.2547462
20	0xbe976aac	-0.29573572
21	0xbe03e973	-0.12882023
22	0x3c63d2b5	0.013905217
23	0x3b97419c	0.0046159755
24	0xbf3c9619	-0.7366653
25	0xbe80f8c4	-0.25189793
26	0xbe1e3dd4	-0.15453273
27	0x3e4bc453	0.1989911
28	0x3c91d039	0.017799484
29	0x3e26edd1	0.16301657
30	0xbdb4c39b	-0.08826371
31	0xbd881611	-0.06644834
32	0xbe260ee1	-0.16216613
33	0xbe1d9e86	-0.15392503
34	0xbdebbc12	-0.11510481
35	0xbe475664	-0.19466549
36	0xbd2b5809	-0.041832004
37	0x3eb19794	0.34685957
38	0x3ddd0061	0.10791088
39	0x3db7d518	0.08976191
40	0x3d813506	0.063089415
41	0xbe34d2ee	-0.17658588
42	0xbc929a8f	-0.017895965
43	0x3dcb69f5	0.09932319
44	0xbc88dd0f	-0.016706971
45	0xbdc35914	-0.09538475
46	0xbe085aad	-0.1331584
47	0xbd58537a	-0.052813984
48	0xbe515137	-0.20441137
49	0xbda20b98	-0.079123676
50	0xbe05a023	-0.13049369
51	0xbed17097	-0.40906212
52	0xbcc65e75	-0.024214962
53	0xbdc112b7	-0.09427398
54	0x3e0240e2	0.12720063
55	0xbd99083c	-0.07472274
56	0xbd6b5733	-0.057456207
57	0xbebe1ad8	-0.37129855
58	0xbe8a647d	-0.2702979
59	0xbe486abf	-0.1957197
60	0x3e1bd4f0	0.15217948
61	0xbdb8debd	-0.09026859
62	0x3dee688e	0.11641036
63	0xbdf6aa3d	-0.12044189
64	0xbdc53506	-0.09629254
65	0xbc308413	-0.010773676
66	0xbdcf9910	-0.10136616
67	0x3dace95b	0.084429465
68	0xbdfb2648	-0.12263161
69	0xbbddbd1f	-0.0067669298
70	0xbde72c3c	-0.11287734
71	0xbda9cb91	-0.0829078
72	0xbe97765c	-0.2958249
73	0xbe4eed33	-0.20207672
74	0xbec57527	-0.38565943
75	0x3e567d11	0.20946147
76	0x3ed5e55a	0.41776544
77	0x3d04de2c	0.032438442
78	0x3cdaf765	0.026729295
79	0xbe81b4bb	-0.253332
80	0xbd2c1d04	-0.04201986
81	0x3aef34c1	0.0018249975
82	0x3d874dd7	0.06606644
83	0xbccee339	-0.025254833
84	0xbe8930d5	-0.26795068
85	0xbe98bbdd	-0.29830828
86	0xbe8f49c4	-0.27985966
87	0x3e7568c4	0.23965746
88	0x3e877183	0.2645379
89	0x3e1a0190	0.15039659
90	0x3f28d3c0	0.65948105
91	0x3e87931c	0.26479423
92	0xbec57926	-0.3856899
93	0x3e869ba0	0.26290607
94	0xbf6d3a4b	-0.92667073
95	0xbef27be2	-0.4736014
96	0xbe3cbf70	-0.18432403
97	0xbeca3b99	-0.39498594
98	0x3dfe84c7	0.12427669
99	0x3e7da6b2	0.2477062
100	0xbed33b24	-0.41256058
101	0xbdae1e2b	-0.08501848
102	0xbe83757a	-0.25675565
103	0xbef8626f	-0.485126
104	0xbd388586	-0.045049213
105	0xbe141832	-0.14462355
106	0x3d8a8d42	0.06765224
107	0x3da5f181	0.08102704
108	0xbe1c0f39	-0.15240182
109	0xbe38ba9d	-0.18039937
110	0xbeaf69fa	-0.3426054
111	0xbe5aae0c	-0.21355456
112	0xbeba690c	-0.3640827
113	0xbecd017c	-0.40040195
114	0xbe20d1e3	-0.15705065
115	0xbe658329	-0.22413315
116	0xbec6cbde	-0.38827413
117	0xbd310635	-0.04321881
118	0xbe276496	-0.16346964
119	0x3e618df6	0.2202681
120	0x3c2b200a	0.01044465
121	0x3dbd0b6b	0.092306934
122	0x3d96c0b7	0.07360976
123	0x3d435536	0.047688685
124	0x3cad7cf2	0.021177743
125	0xbdc45e64	-0.09588316
126	0xbedd83b9	-0.4326456
127	0xbe4550d6	-0.19269118
128	0x3dfb1f1a	0.122617915
129	0xbf438ff4	-0.7639153
130	0xbe5639c3	-0.20920472
131	0x3eb2627f	0.34840772
132	0xbe4ed065	-0.20196684
133	0x3e93daa5	0.2887775
134	0x3ea87ec6	0.3290922
135	0xbdf92f98	-0.12167281
136	0x3dd228ba	0.10261674
137	0x3ddb60e9	0.107118435
138	0xbda5d42a	-0.08097108
139	0xbc9ea1ca	-0.019364256
140	0xbe564dcb	-0.20928113
141	0xbe6b6314	-0.22987014
142	0xbdb57f01	-0.08862115
143	0xbe89e7fc	-0.26934803
144	0xbe1fca7d	-0.15604587
145	0xbe5c2cb3	-0.21501426
146	0xbd6fe5a5	-0.058568615
147	0x3e0576a6	0.13033542
148	0xbcd2b4be	-0.02572095
149	0x3e83bd26	0.25730246
150	0xbc692955	-0.014231046
151	0x3cb65d5d	0.022261316
152	0x3db6458d	0.088999845
153	0x3c1cfc4f	0.009581639
154	0x3d190e6f	0.03736728
155	0x3e1a0a23	0.1504293
156	0xbe2c35be	-0.16817376
157	0xbca65269	-0.020302968
158	0x3c91614f	0.017746596
159	0xbda62011	-0.08111585
160	0xbd8bdfa8	-0.068297684
161	0x3d6f6c75	0.058453042
162	0xbee3709a	-0.44421846
163	0x3eb98b6a	0.36239177
164	0xbdd41b47	-0.10356765
165	0x3d03718c	0.03209071
166	0x3d18ac2c	0.03727357
167	0xbe571b4b	-0.21006505
168	0x3e3ea93c	0.18619245
169	0x3e3445e2	0.17604783
170	0x3dd605ba	0.10450311
171	0xbeafde10	-0.34349108
172	0xbc9f2100	-0.019424915
173	0x3e9a9177	0.30189106
174	0xbf00b2fc	-0.5027311
175	0x3dcc9113	0.09988608
176	0x3d60a7b9	0.054847453
177	0xbeaea2d9	-0.34108618
178	0xbe903aaf	-0.28169772
179	0xbefbd2e9	-0.4918435
180	0xbec58c22	-0.38583475
181	0xbec9203f	-0.39282414
182	0xbebba120	-0.36646366
183	0xbe2c52eb	-0.16828506
184	0x3e0241e4	0.12720448
185	0x3e75c2de	0.24000117
186	0xbd8d742e	-0.06906925
187	0xbac08fef	-0.0014691333
188	0x3de2883d	0.11061142
189	0x3db7a9df	0.08967947
190	0x3e1687dd	0.14700265
191	0x3d68ee8e	0.05686813
192	0xbdb8a972	-0.09016694
193	0xbda68eff	-0.08132743
194	0xbe62a363	-0.2213264
195	0x3d8cd179	0.06875891
196	0x3de14182	0.10998823
197	0x3c609737	0.013707927
198	0x3f034eba	0.51292
199	0x3e954c2b	0.29159674
200	0x3e46ecfe	0.19426343
201	0xbdc00551	-0.09376014
202	0xbeef8904	-0.46784222
203	0xbf1daf42	-0.6159555
204	0xbe16f104	-0.14740378
205	0x3e7f7dd8	0.2495035
206	0x3e34b248	0.17646134
207	0xbd0c8913	-0.03431041
208	0xbdc89850	-0.09794676
209	0xbda262ff	-0.07929038
210	0x3e242289	0.16028799
211	0x3da4c83a	0.08046003
212	0x3e0cab70	0.13737273
213	0x3e2f71de	0.1713328
214	0x3b5ca3f5	0.0033667062
215	0x3ea07b56	0.31344098
216	0xbeadffb3	-0.33984146
217	0xbcb25578	-0.02176927
218	0xbe896640	-0.26835823
219	0xbefbb97f	-0.4916496
220	0xbeadf3c0	-0.3397503
221	0xbd86f3e7	-0.065894894
222	0x3add08bb	0.0016863564
223	0x3e6658cb	0.2249481
224	0x3ecf0890	0.4043622
225	0xbe1a825f	-0.15088795
226	0x3d02afdd	0.031905998
227	0xbd99ff6a	-0.075194195
228	0xbed1e69c	-0.40996253
229	0xbe5eeac7	-0.21769248
230	0xbe8e0289	-0.2773631
231	0xbdb9765d	-0.09055779
232	0x3e02bb4c	0.1276676
233	0x3e9b01ae	0.3027472
234	0x3d3b8f98	0.04579124
235	0x3dcfaa0d	0.101398565
236	0x3c2ae70e	0.010431064
237	0x3df425fc	0.119213074
238	0xbe15f35d	-0.14643617
239	0xbe584199	-0.21118774
240	0x3b8f818e	0.004379458
241	0xbe7769b5	-0.24161418
242	0x3ca63c43	0.020292407
243	0xbe2c1ccd	-0.16807862
244	0xbced56e3	-0.028972095
245	0xbe111c1f	-0.14170884
246	0xbc84f23c	-0.016228788
247	0xbcc797a1	-0.024364294
248	0x3d0fb872	0.03508801
249	0xbdad617e	-0.08465861
250	0xbd402ba1	-0.046916608
251	0x3d445a95	0.04793795
252	0xbe2f342d	-0.17109747
253	0xbed57603	-0.41691598
254	0xbefacdb2	-0.48985058
255	0xbea2ebeb	-0.31820616

conv_block_2.2.bias f4 [10]
0	0xbe40b8a7	-0.1882044
1	0x3e374b26	0.1789976
2	0xbd18f661	-0.03734434
3	0xbe4fab4f	-0.20280193
4	0x3e3edde9	0.1863934
5	0x3e1e1109	0.15436186
6	0xbe014c67	-0.12626801
7	0x3d1f70bf	0.038925882
8	0x3f080d2a	0.53145087
9	0x3dfef636	0.12449305

classifier.1.weight f4 [10, 490]
0	0x3d01bab4	0.031672195
1	0xbd30af3e	-0.043135874
2	0xbdf0b0cf	-0.117524736
3	0x3d001a7a	0.03127525
4	0x3cf87b3f	0.030332206
5	0x3c2c06eb	0.010499696
6	0x3ca1cbc4	0.019750483
7	0x3d94d8f9	0.07267947
8	0x3d82b902	0.06382944
9	0x3d09dbc6	0.033656858
10	0xbe22f0e8	-0.15912211
11	0xbc6f15aa	-0.014592567
12	0x3d779c1f	0.060451623
13	0x3cf806ac	0.030276619
14	0x3d44862d	0.047979522
15	0x3e11c731	0.14236142
16	0xbdf39a75	-0.11894695
17	0xbea990ac	-0.33118188
18	0xbf0c4ed2	-0.5480777
19	0xbe43863f	-0.1909418
20	0x3b62a9aa	0.003458599
21	0xbc296f5b	-0.010341491
22	0x3cd6facd	0.026242638
23	0xbe0cab28	-0.13737166
24	0xbdd0521e	-0.101719126
25	0xbd81c51f	-0.06336426
26	0xbe5d5a08	-0.21616375
27	0xbdb4e1c3	-0.08832123
28	0xbcc2f0e8	-0.023796514
29	0xbda581d2	-0.08081402
30	0x3dba0253	0.090824746
31	0x3b110a05	0.0022131216
32	0xbe8896ed	-0.26677647
33	0xbdad494d	-0.08461247
34	0xbd354cf1	-0.04426283
35	0xbd50c60a	-0.050970115
36	0xbd3eac3d	-0.046550978
37	0x3dec5271	0.11539162
38	0xbd0f1157	-0.034928646
39	0x3d1c5526	0.03816714
40	0x3d21af83	0.03947402
41	0xbb985749	-0.004649077
42	0x3c9ff541	0.019526126
43	0x3aad1059	0.0013203725
44	0x3d706c9c	0.058697328
45	0xbccd35a9	-0.025050001
46	0xbd4165c4	-0.047216192
47	0xbc608aaa	-0.013704935
48	0xbcf0e601	-0.02940655
49	0xbccf87ac	-0.025333248
50	0xbda46c9d	-0.08028529
51	0xbd719e0c	-0.058988616
52	0xbdc4174b	-0.09574755
53	0xbd30d596	-0.04317244
54	0x3d1f7338	0.03892824
55	0xbc6e6098	-0.014549397
56	0xbce32e81	-0.027732136
57	0xbe2d09f3	-0.16898327
58	0xbd5e0f27	-0.05421367
59	0xbe7bd520	-0.2459302
60	0xbdba43d3	-0.09094968
61	0xbdc8e27c	-0.098088235
62	0xbd5fdaa2	-0.054651864
63	0xbc04ed8f	-0.008113279
64	0x3b924094	0.0044632647
65	0x3dcca951	0.09993232
66	0x3d0bc14d	0.034119893
67	0xbee41e2d	-0.44554272
68	0xbde0cdcc	-0.10976753
69	0x3c89dc69	0.016828733
70	0x3ce43b6b	0.027860364
71	0x3eb1d1b8	0.34730315
72	0x3e699f42	0.22814658
73	0xbe0a5559	-0.1350912
74	0x3dc752fb	0.09732624
75	0x3e05e6a9	0.13076271
76	0xbd32d233	-0.043657493
77	0x3d3fd53b	0.04683421
78	0x3e9a5cc1	0.3014889
79	0x3d753dd9	0.059873436
80	0xbd98094e	-0.0742365
81	0x3e73ad8c	0.23796672
82	0xbd8a4dca	-0.06753118
83	0xbcb9ce6b	-0.022681436
84	0xbcbbb5fc	-0.022913925
85	0x3db1ff5b	0.08691283
86	0xbe0cc37a	-0.13746443
87	0xbdd8ee65	-0.10592345
88	0xbc030720	-0.007997304
89	0xbcaf8397	-0.021425052
90	0xbd48fb15	-0.049067575
91	0xbca3aafd	-0.019978995
92	0x3d165368	0.036700636
93	0x3ce10457	0.02746789
94	0xbd108494	-0.035282686
95	0xba1a8f23	-0.0005895963
96	0xbd152816	-0.036415182
97	0x3c6e7df6	0.014556399
98	0x3cdbe226	0.026841234
99	0x3ca20c3d	0.019781226
100	0x3d61f57d	0.055165756
101	0xbb71c0f7	-0.0036888698
102	0xbc16e0f8	-0.00920891
103	0x3d0e4364	0.034732237
104	0x3bb15981	0.005412281
105	0x3c8dfbca	0.017331976
106	0x3c09ffe1	0.008422823
107	0xbd1f619d	-0.03891145
108	0xbde54d1b	-0.11196347
109	0xbd34c51d	-0.044133294
110	0x3c78b938	0.015180878
111	0xbd2e7006	-0.042587303
112	0xbcbcf20d	-0.023064638
113	0xbe4950d4	-0.1965974
114	0xbdeb3844	-0.11485341
115	0xbd42df8e	-0.04757648
116	0xbe2a84d3	-0.16652231
117	0x3c4d1913	0.012518185
118	0xbd22e3a6	-0.039767884
119	0xbdb66889	-0.08906657
120	0xbe5a64b0	-0.21327472
121	0xbe38c003	-0.18041997
122	0xbe53dbe6	-0.20689353
123	0xbc8cdeb5	-0.017196039
124	0x3e138d50	0.14409375
125	0xbe355144	-0.17706782
126	0xbd804144	-0.062624484
127	0xbed7933a	-0.42104512
128	0xbeb23af9	-0.34810618
129	0xbebca6b0	-0.36845922
130	0xbe0da86b	-0.13833778
131	0xbd44ca0f	-0.04804426
132	0xbdd7d72c	-0.10539088
133	0x3dd9a382	0.1062689
134	0xbd9055df	-0.070476286
135	0xbe45c0ad	-0.19311781
136	0x3e14f152	0.14545181
137	0x3ed0416f	0.40674922
138	0x3dfa7d78	0.122309625
139	0xbc999c37	-0.018751247
140	0x3d117d70	0.035520017
141	0xbd8efc89	-0.06981761
142	0x3db26ce9	0.08712179
143	0x3e599cd1	0.21251227
144	0x3da456b7	0.08024352
145	0xbdbbe3f4	-0.09174338
146	0xbcb8dfeb	-0.02256771
147	0x3bab6a94	0.005231211
148	0xbda81445	-0.08206991
149	0xbd06d525	-0.032918114
150	0xbba5e6ee	-0.0050629294
151	0x3b153202	0.0022765403
152	0x3e331fee	0.17492649
153	0x3dddbd10	0.108270764
154	0xbd1a2fbc	-0.03764318
155	0x3e00dadb	0.12583487
156	0x3d97b31d	0.0740721
157	0x3b86144d	0.0040917755
158	0x3eae815e	0.34083074
159	0x3c24dbb0	0.010062143
160	0x3db108aa	0.08644231
161	0x3c34c296	0.011032721
162	0x3cc32073	0.023819184
163	0xbe05a0e9	-0.13049664
164	0xbe51e874	-0.2049883
165	0xbe842adc	-0.2581395
166	0xbdf1ba03	-0.11803057
167	0x3dbfd211	0.09366239
168	0xbbfa4413	-0.0076375096
169	0xbe10e285	-0.1414891
170	0xbc0759d4	-0.008261163
171	0xbe6b07f6	-0.22952256
172	0xbe28d17f	-0.16486166
173	0xbea6bb6e	-0.32564873
174	0xbc1cf9a0	-0.009581
175	0xbc87a1d5	-0.01655666
176	0xbdbac355	-0.09119288
177	0xbd8bf1a4	-0.06833199
178	0x3f03ff0c	0.51561046
179	0xbe91cc57	-0.2847621
180	0xbd59402b	-0.05303971
181	0xbd6aeb93	-0.057353567
182	0x3cb569a4	0.0221451
183	0xbbf94bfd	-0.0076079355
184	0x3d6b34a8	0.057423264
185	0x3de691f9	0.11258311
186	0xbbd815d4	-0.006594399
187	0xbdb3712f	-0.087618224
188	0xbd3d65e4	-0.04623975
189	0xbbbced2d	-0.0057655782
190	0x3c89fc9b	0.016844084
191	0xbc926c92	-0.017874036
192	0xbd0bd0a0	-0.034134507
193	0xbd592329	-0.053012047
194	0xbd58ccd5	-0.052929718
195	0xbb9a423f	-0.004707604
196	0x3ba7954a	0.005114232
197	0xbde0b097	-0.10971182
198	0xbe234859	-0.15945567
199	0xbe2ec266	-0.17066345
200	0x3d71376e	0.058890752
201	0x3dc2df4e	0.09515248
202	0xbcb1b182	-0.021691088
203	0x3b1fe83d	0.00243999
204	0x3da7e6b9	0.08198304
205	0xbdcdedd9	-0.100551315
206	0x3de6e8d9	0.11274881
207	0x3e67f5cf	0.22652362
208	0x3eb816ab	0.35954794
209	0x3dc97cca	0.09838255
210	0x3daeedc7	0.08541446
211	0xbe16b70b	-0.14718263
212	0xbea7ef53	-0.32799777
213	0xbe0d6be1	-0.13810684
214	0xbd932535	-0.07184831
215	0xbc2cfb93	-0.010558027
216	0x3ded4b68	0.11586648
217	0x3c2df24e	0.010616852
218	0x3d9e82ff	0.07739829
219	0xbdec91f8	-0.11551279
220	0x3d77afb5	0.0604703
221	0xbf0b84fb	-0.5449979
222	0xbdc68f3c	-0.096952885
223	0x3cee2365	0.029069612
224	0x3d9b72ab	0.075902306
225	0x3cc4f983	0.024044758
226	0x3e503b85	0.20335205
227	0x3e26295c	0.16226715
228	0xbe87e7ac	-0.2654394
229	0xbe291666	-0.1651245
230	0xbd473683	-0.04863597
231	0x3d2a6d8d	0.041608382
232	0x3dcdf38f	0.10056221
233	0x3dbdbb86	0.09264283
234	0x3e432f65	0.19061048
235	0xbd85f98c	-0.06541738
236	0xbafb04d6	-0.0019151221
237	0x3c4a1b64	0.012335632
238	0x3cfd2a19	0.030903863
239	0xbccc2010	-0.024917632
240	0xba71984e	-0.00092161156
241	0x3c072b32	0.008250045
242	0x3c9cd118	0.019142672
243	0x3c2a581b	0.010396983
244	0x3c31ba4a	0.010847637
245	0xbace755a	-0.0015751526
246	0x3db3ad6c	0.08773312
247	0xbda12408	-0.078682005
248	0x3e1512eb	0.14557998
249	0x3e2102b4	0.15723687
250	0x3dc7dec7	0.09759288
251	0x3d88ac7a	0.06673522
252	0x3d153c71	0.036434595
253	0xbd8ef6c7	-0.06980663
254	0xbdf5c552	-0.120005265
255	0xbe4f3de5	-0.20238455

classifier.1.bias f4 [10]
0	0x3cf73bff	0.030179976
1	0x3f28aa8c	0.65885234
2	0x3e2fee70	0.171808
3	0xbe6b3772	-0.2297037
4	0xbd80c994	-0.06288448
5	0xbe151bfc	-0.14561456
6	0xbdce480c	-0.100723356
7	0x3e27b68d	0.16378231
8	0xbe85cc3d	-0.26132384
9	0xbe7b453d	-0.24538131
