checkpoints/model_epoch_6.pth (torch, 34447 bytes, 10 tensors)

conv_block_1.0.weight f4 [10, 1, 3, 3]
-0.058083557 -0.1541277 -0.02424721 -0.29046714 -0.18534823 -0.0571006 0.24774714 0.113421984
-0.12344898 -0.16897336 -0.04280864 -0.17534526 -0.51765263 0.18459943 0.39509398 -0.4717632
0.014041603 0.39528105 0.39639056 0.344936 0.38619205 -0.64805114 0.063299544 -0.037368547
-1.0067173 -0.45547795 0.46564502 0.23191972 0.41475043 0.32286125 0.20175552 -0.41840094
-0.18654369 0.13779293 -0.2554219 -0.69142544 -0.03173299 -0.46743894 -0.092756115 -0.050967697
0.63823223 0.05029473 0.22479643 0.7408961 -0.14309828 -0.27674103 0.27063093 -0.20803428
-0.39245448 0.07012614 0.04651218 0.2744953 -0.13769425 0.30486906 0.1599112 0.28519136
-0.20009086 -0.34159607 0.36373857 -0.39704663 -0.31555632 0.3652253 -0.10285256 0.07759488
-0.20499289 -0.2793245 -0.22215678 -0.16385682 -0.09280831 0.19326912 0.07998007 -0.23734401
0.20684022 -0.5320352 0.10906146 0.42561492 0.27473786 0.067562364 0.10727593 -0.40716133
-0.044305768 0.34901115 0.3211566 -0.21116184 -0.047168296 -0.16163898 -0.30504698 -0.42323998
-0.57663304 -0.5084992
00000000: 06e9 6dbd a7d3 1dbe 16a2 c6bc 1cb8 94be
00000010: edcb 3dbe 52e2 69bd 6db1 7d3e c949 e83d
00000020: d2d2 fcbd 5a07 2dbe 1d58 2fbd b58d 33be
00000030: e284 04bf a207 3d3e c249 ca3e f28a f1be
00000040: c00e 663c 4762 ca3e b4f3 ca3e 749b b03e
00000050: f7ba c53e aee6 25bf 31a3 813d c30f 19bd
00000060: 1ddc 80bf 6834 e9be 0669 ee3e 5d7c 6d3e
00000070: 2b5a d43e 124e a53e 0099 4e3e a638 d6be
00000080: 4f05 3fbe 9719 0d3e a9c6 82be 4201 31bf
00000090: 74fa 01bd 2854 efbe ebf6 bdbd 81c3 50bd
000000a0: 3063 233f d901 4e3d 0931 663e 5eab 3d3f
000000b0: 5b88 12be 00b1 8dbe 2390 8a3e f006 55be
000000c0: cbef c8be 4b9e 8f3d 8e83 3e3d a68a 8c3e
000000d0: b9ff 0cbe cc17 9c3e c3bf 233e 9a04 923e
000000e0: 9ee4 4cbe aee5 aebe f13b ba3e b249 cbbe
000000f0: 9990 a1be cffe ba3e 5da4 d2bd 10ea 9e3d
00000100: a8e9 51be 9f03 8fbe 117d 63be 15ca 27be
00000110: 4912 bebd 57e8 453e 97cc a33d 4f0a 73be
00000120: eccd 533e 7533 08bf 9d5b df3d 33ea d93e
00000130: 71aa 8c3e 235e 8a3d 7cb3 db3d 7377 d0be
00000140: f779 35bd 97b1 b23e a36e a43e cf3a 58be
00000150: 8b33 41bd b084 25be 1e2f 9cbe e9b2 d8be
00000160: 399e 13bf 012d 02bf

conv_block_1.0.bias f4 [10]
-0.0091837775 -0.15703939 -0.02308304 0.0530726 0.030534638 -0.3189321 -0.19075917 -0.11087569
-0.21370316 0.2748613
00000000: 8e77 16bc efce 20be a518 bdbc a862 593d
00000010: c723 fa3c 114b a3be 5f56 43be cb12 e3bd
00000020: 00d5 5abe 9fba 8c3e

conv_block_1.2.weight f4 [10, 10, 3, 3]
0.06575237 -0.061974254 0.08324257 0.092998974 0.038297873 0.03766544 0.03128823 -0.0018549036
0.061430484 0.023082435 -0.04276868 0.21716233 0.091508016 -0.18221755 -0.13669272 -0.17934042
-0.19193138 0.022141691 -0.08805 -0.09656552 0.24911961 -0.05936824 -0.10087522 0.24194561
0.09345359 0.08758422 -0.04398998 -0.13482371 -0.0017337359 0.05820456 -0.13015191 0.047469333
0.28623924 0.0057921493 0.07734993 -0.0889802 0.033229053 0.21360312 0.109860614 -0.23208801
-0.09341902 -0.20590457 -0.25367162 -0.20268457 -0.16393703 0.017198434 -0.007922699 0.08077681
-0.00080184854 0.033498757 0.08829905 -0.054023474 -0.09252329 -0.09980287 -0.051616218 -0.0074780094
0.04497491 -0.016186874 0.0035306942 0.037765764 0.01987681 0.03535263 -0.14279987 -0.094634585
-0.019675024 0.052717943 -0.02609802 0.020503145 -0.1002716 0.044588067 -0.067407995 0.010131674
-0.14711763 0.105516925 0.23095477 -0.056216426 0.0990465 0.019446364 -0.19269705 -0.10562427
-0.14123183 -0.028062556 -0.11441485 -0.13186307 0.010817483 0.015782824 -0.07641927 0.05211788
0.07013581 0.03590413 -0.0016635285 -0.13600026 0.045524158 -0.02500505 0.03414583 0.08337038
0.012670567 0.09703069 0.09303079 -0.05018874 -0.082101025 0.11554842 0.0572739 -0.15644313
-0.0806601 -0.12466111 -0.08232631 -0.008429474 0.12596856 -0.2547841 -0.47727183 -0.00054170814
-0.21485846 -0.26564533 0.09370693 -0.12871401 -0.07363402 0.09101366 0.22951059 0.0626172
-0.20691293 0.004635797 -0.20405531 -0.08562122 -0.058137696 0.22369929 -0.022642408 -0.28984967
-0.113405615 0.1180558 0.3156549 0.13978602 -0.032949936 0.019266177 0.25888842 0.08265034
0.076797195 0.1360486 0.13324662 0.0449732 -0.0493592 -0.10017966 0.014666525 0.030672602
0.10524244 -0.09752097 -0.16411348 0.00934411 -0.0018534703 -0.057898313 -0.019548478 0.17088023
0.048518203 -0.04827783 -0.013448756 -0.011282008 -0.03279683 -0.030522363 -0.08798006 0.005596352
0.09305708 -0.008886179 -0.015916226 -0.07494108 -0.30916694 0.07588039 0.13359325 0.16478
0.02960743 0.06480655 0.063143104 -0.19331771 -0.16101958 -0.13011219 -0.27439418 -0.1477522
-0.10027344 -0.14312875 -0.30846044 -0.095565304 -0.026377792 0.09264241 0.12312561 -0.021175796
-0.04229192 0.024126383 -0.03295318 0.07654695 -0.019209689 0.04731134 -0.15289451 -0.020110136
-0.113032326 0.096885085 -0.017992543 -0.077081196 -0.2102591 0.2052243 -0.06418962 -0.068199515
0.11773963 0.17471814 0.08484233 -0.028629372 -0.038442772 0.06873402 0.20808274 -0.31786627
-0.28479668 -0.22891513 0.14804953 -0.17389746 -0.092206605 0.1975801 0.061586175 -0.16555417
0.102175005 0.28262958 0.19834922 -0.17827058 0.052496705 0.261184 -0.573071 -0.44251442
-0.12990323 -0.046895556 -0.058608048 -0.118661195 0.09285477 -0.03894391 0.015469168 0.0029429635
-0.055997033 0.12586638 0.0990393 -0.022031628 0.028587306 -0.0735945 0.073538035 0.15878107
-0.03877138 -0.07372249 0.07473536 0.058927942 -0.040718406 0.09718899 -0.02963358 -0.030307576
-0.0015293206 0.09811768 0.09159504 0.071538456 -0.043844566 -0.023732727 0.0051529617 0.082337655
00000000: 2ea9 863d b7d8 7dbd 157b aa3d 3f76 be3d
00000010: 3bde 1c3d 1447 1a3d 1628 003d 3d20 f3ba
00000020: 889e 7b3d 6017 bd3c 362e 2fbd cd5f 5e3e
00000030: 8e68 bb3d 3d97 3abe 2df9 0bbe 04a5 37be
00000040: a989 44be 7e62 b53c 8f53 b4bd 25c4 c5bd
00000050: 3619 7f3e 1d2c 73bd ab97 cebd 97c0 773e
00000060: 9964 bf3d 5b5f b33d d62e 34bd 3a0f 0abe
00000070: 863e e3ba e867 6e3d 8b46 05be 346f 423d
00000080: f38d 923e 12cc bd3b a469 9e3d 403b b6bd
00000090: 301b 083d c7ba 5a3e 9afe e03d 7ba8 6dbe
000000a0: 7952 bfbd a6d8 52be 3fe1 81be 8b8c 4fbe
000000b0: 1cdf 27be bbe3 8c3c 35ce 01bc 506e a53d
000000c0: 2533 52ba fe35 093d 22d6 b43d b847 5dbd
000000d0: da7c bdbd 7265 ccbd 876b 53bd 170a f5bb
000000e0: 9c37 383d 569a 84bc 3863 673b 46b0 1a3d
000000f0: b1d4 a23c ebcd 103d 213a 12be c7cf c1bd
00000100: 842d a1bc c5ee 573d 84cb d5bc 36f6 a73c
00000110: 325b cdbd faa1 363d 340d 8abd 52ff 253c
00000120: 01a6 16be 4219 d83d 687f 6c3e 3243 66bd
00000130: e4d8 ca3d fb4d 9f3c 6052 45be 8a51 d8bd
00000140: 149f 10be 72e3 e5bc 5552 eabd 1d07 07be
00000150: d03b 313c fb4a 813c b581 9cbd 8f79 553d
00000160: 5da3 8f3d 3610 133d c10a daba a743 0bbe
00000170: 8a77 3a3d 64d7 ccbc 7fdc 0b3d 17be aa3d
00000180: 3698 4f3c 07b8 c63d ed86 be3d b592 4dbd
00000190: 9524 a8bd a6a4 ec3d 0998 6a3d a132 20be
000001a0: 1f31 a5bd 534e ffbd b29a a8bd c71b 0abc
000001b0: e7fd 003e 1073 82be f95c f4be 6b01 0eba
000001c0: db03 5cbe aa02 88be 6be9 bf3d 9bcd 03be
000001d0: 6fcd 96bd 5f65 ba3d d304 6b3e 723d 803d
000001e0: fce0 53be e2e7 973b e0f3 50be 2e5a afbd
000001f0: cb21 6ebd 6d11 653e 927c b9bc 2d67 94be
00000200: 3441 e8bd 3dc7 f13d 859d a13e 1124 0f3e
00000210: 83f6 06bd 1ad4 9d3c 068d 843e 9544 a93d
00000220: d947 9d3d 5350 0b3e cd71 083e d135 383d
00000230: df2c 4abd fe2a cdbd dd4b 703c 1c45 fb3c
00000240: 5989 d73d 13b9 c7bd 5d0d 28be 0a18 193c
00000250: 25f0 f2ba c826 6dbd 2124 a0bc 3afb 2e3e
00000260: 06bb 463d f9be 45bd 2c58 5cbc 2cd8 38bc
00000270: f855 06bd 090a fabc e42e b4bd 9a61 b73b
00000280: b694 be3d 5697 11bc bf62 82bc b57a 99bd
00000290: 214b 9ebe 2e67 9b3d abcc 083e 17bc 283e
000002a0: 488b f23c 4cb9 843d 2c51 813d 14f5 45be
000002b0: 51e2 24be 213c 05be 657d 8cbe 5a4c 17be
000002c0: 295c cdbd 5890 12be 87ee 9dbe beb7 c3bd
000002d0: 3d16 d8bc 4ebb bd3d 4829 fc3d dd78 adbc
000002e0: 4b3a 2dbd b1a4 c53c eaf9 06bd a6c4 9c3d
000002f0: a35d 9dbc 89c9 413d 6190 1cbe 03be a4bc
00000300: 7e7d e7bd b06b c63d 1965 93bc bfdc 9dbd
00000310: 294e 57be 5226 523e d975 83bd 30ac 8bbd
00000320: 7a21 f13d 50e9 323e d1c1 ad3d 2588 eabc
00000330: 2b76 1dbd 6cc4 8c3d a413 553e 5ebf a2be
00000340: dfd0 91be ba68 6abe 4c9a 173e 2d12 32be
00000350: d1d6 bcbd 7052 4a3e c941 7c3d 0887 29be
00000360: 2141 d13d d3b4 903e 0f1c 4b3e 908c 36be
00000370: c906 573d e9b9 853e c8b4 12bf 4091 e2be
00000380: 5a05 05be 8e15 40bd fe0e 70bd a404 f3bd
00000390: a42a be3d a683 1fbd 6572 7d3c bcde 403b
000003a0: 255d 65bd 1ee3 003e 1ed5 ca3d ac7b b4bc
000003b0: ed2f ea3c b7b8 96bd 1c9b 963d 8197 223e
000003c0: bdce 1ebd d1fb 96bd da0e 993d 6d5e 713d
000003d0: 58c8 26bd 050b c73d 1fc2 f2bc 9847 f8bc
000003e0: 7c73 c8ba ecf1 c83d 2e96 bb3d c182 923d
000003f0: 5c96 33bd 236b c2bc 2dda a83b a5a0 a83d

conv_block_1.2.bias f4 [10]
-0.11385967 0.3616727 0.013201802 -0.09966759 -0.04962951 0.08212505 0.3789332 -0.027881464
-0.066185616 -0.08680498
00000000: 422f e9bd 2a2d b93e 5f4c 583c 851e ccbd
00000010: 5048 4bbd 2e31 a83d 8803 c23e ab67 e4bc
00000020: 538c 87bd cfc6 b1bd

conv_block_2.0.weight f4 [10, 10, 3, 3]
-0.06259702 -0.014372465 0.30765554 -0.2081025 -0.08286613 -0.20224667 -0.1356175 -0.043410163
-0.046400882 0.02942513 -0.20775509 -0.46608487 0.07706534 -0.14062266 0.08365177 -0.04807613
-0.028037276 0.5012561 -0.2294526 -0.2293219 0.1110613 -0.22116879 -0.3209153 -0.2465347
-0.1611493 0.4903316 0.13119261 -0.050823733 -0.270284 -0.06350622 0.026865823 -0.18552735
-0.31623077 0.10964022 -0.26168138 -0.15541328 0.19381338 0.03995735 -0.096936435 0.018904889
-0.006801915 0.2886262 0.3090134 0.031890053 0.045915827 0.007684936 -0.19253334 0.019417949
0.0497035 -0.18882185 -0.22170164 0.21066958 -0.052831117 0.16413708 -0.2620084 -0.42707944
-0.41500688 -0.049584948 -0.1973261 0.015138185 -0.079826996 0.11286986 0.47322616 -0.1132602
-0.42632115 -0.36552024 -0.16288598 -0.15703489 0.16171032 0.14835486 0.2483392 0.3437726
-0.045811113 -0.13651337 0.013359523 0.020190625 -0.05356059 -0.07798405 0.02249902 0.061313804
0.12607808 0.087344654 0.1882475 0.11508934 -0.014890439 -0.07552636 -0.087641045 -0.2705532
0.010836328 -0.100374885 -0.120040745 0.01978696 -0.034073457 0.037471093 0.08403016 0.0314492
-0.03214687 -0.08735554 -0.020546094 0.19594532 -0.06408585 -0.32922745 -0.28213635 -0.24601844
-0.33828947 0.26126298 0.050380655 0.28987414 0.27174577 -0.006985082 -0.13645223 -0.027477242
-0.20609824 -0.34859464 -0.13047682 -0.20905794 -0.07556213 0.36681807 0.15133697 -0.060801007
0.05630749 0.02196231 -0.11679408 -0.05754288 -0.22573656 -0.21285029 -0.16397068 0.2784956
-0.083168104 -0.025652265 0.076055795 0.0230747 0.051534005 -0.0371545 0.0020898802 0.39310116
0.11349688 -0.098850146 -0.14259928 0.015217924 -0.4010822 0.13133956 -0.0046866536 -0.021851983
0.44978955 -0.02862287 -0.3350914 0.1916162 -0.45878935 -0.24553855 0.25103948 -0.084923
0.32470575 -0.42157683 -0.38124716 -0.32995102 -0.24944165 -0.19579245 -0.21608676 -0.05963629
0.11362588 0.24342886 0.14127977 -0.018111635 0.06877921 -0.18128096 -0.15599471 0.054871775
-0.07145548 0.12977526 0.041064166 -0.022008583 0.2933213 0.20732392 0.095294744 0.16121538
0.01285188 -0.109250866 -0.00892774 -0.042056166 0.13903867 0.094759956 0.02063495 -0.17988116
0.039222743 0.31810093 -0.01695534 -0.119685344 0.05391521 0.047583643 0.14599432 0.5215246
-0.26626804 -0.31508958 0.16590145 0.0071495874 -0.30077174 -0.08936825 0.044663146 0.030452138
0.21166985 -0.03989115 0.3885947 0.40515426 -0.33169267 -0.31275377 -0.0019243053 -0.19246346
-0.26507315 0.0866476 -0.032049224 -0.18928614 -0.08017703 -0.13366987 -0.38081765 -0.15014802
0.0942618 0.04752861 -0.14250585 0.02194327 -0.024918102 -0.122077055 0.08518424 -0.053825065
-0.26656207 -0.046606533 0.050292134 0.41458192 -0.22324157 0.050254248 0.19991288 -0.17178838
-0.2197336 -0.2048978 0.111077935 0.10738481 0.53141654 -0.20626676 -0.20450899 0.039739203
-0.305676 -0.74460536 0.19748946 -0.18106583 -0.026239103 0.10053345 -0.33579484 -0.43112817
-0.4479123 0.096571974 0.2926322 0.45844355 -0.05540358 -0.061797135 -0.06557811 -0.027187873
00000000: de32 80bd 7d7a 6bbc 0785 9d3e d218 55be
00000010: b8b5 a9bd c019 4fbe 50df 0abe dbce 31bd
00000020: da0e 3ebd f80c f13c c0bd 54be ada2 eebe
00000030: 6fd4 9d3d 63ff 0fbe 9f51 ab3d 7aeb 44bd
00000040: 6eae e5bc 5252 003f 9ff5 6abe 5cd3 6abe
00000050: 1b74 e33d 127a 62be 034f a4be 9873 7cbe
00000060: 5204 25be be0c fb3e 5b57 063e 8c2c 50bd
00000070: aa62 8abe 8d0f 82bd b715 dc3c e2fa 3dbe
00000080: 00e9 a1be 0d8b e03d 1afb 85be a924 1fbe
00000090: 0477 463e 51aa 233d 9c86 c6bd 6dde 9a3c
000000a0: 99e2 debb d0c6 933e 0137 9e3e 259f 023d
000000b0: 3c12 3c3d ead1 fb3b 7627 45be 6412 9f3c
000000c0: e695 4b3d 845a 41be c105 63be c4b9 573e
000000d0: 7165 58bd 8d13 283e f725 86be 28aa dabe
000000e0: c87b d4be 9619 4bbd da0f 4abe 2606 783c
000000f0: 567c a3bd 5028 e73d b34a f23e f7f4 e7bd
00000100: c446 dabe 7825 bbbe 95cb 26be c1cd 20be
00000110: 6497 253e 56ea 173e a24c 7e3e f602 b03e
00000120: 6fa4 3bbd 29ca 0bbe e7e1 5a3c cf66 a53c
00000130: 5962 5bbd 1ab6 9fbd dd4f b83c 2f24 7b3d
00000140: 9d1a 013e c1e1 b23d f4c3 403e f6b3 eb3d
00000150: 07f7 73bc 90ad 9abd 267d b3bd f385 8abe
00000160: db8a 313c 5991 cdbd ecd7 f5bd 4318 a23c
00000170: 9c90 0bbd 4a7b 193d 0118 ac3d e0d0 003d
00000180: 70ac 03bd 76e7 b2bd 4850 a8bc e4a5 483e
00000190: 713f 83bd 8090 a8be 2d74 90be 42ec 7bbe
000001a0: 4734 adbe 43c4 853e f25b 4e3d 626a 943e
000001b0: 4322 8b3e 1de3 e4bb 22ba 0bbe f417 e1bc
000001c0: 6b0b 53be ff7a b2be b79b 05be 4913 56be
000001d0: 51c0 9abd 94cf bb3e 14f8 1a3e 7a0a 79bd
000001e0: afa2 663d 4dea b33c bc31 efbd 15b2 6bbd
000001f0: 7c27 67be 6df5 59be eee7 27be fa96 8e3e
00000200: 0a54 aabd b324 d2bc 24c3 9b3d 2707 bd3c
00000210: 5215 533d 512f 18bd 5ff6 083b 8e44 c93e
00000220: 0d71 e83d f271 cabd 8c05 12be 9954 793c
00000230: a55a cdbe e17d 063e 8092 99bb ee02 b3bc
00000240: d14a e63e 827a eabc 1a91 abbe 0a37 443e
00000250: 70e6 eabe 756e 7bbe 3f88 803e 1cec adbd
00000260: d53f a63e ebd8 d7be d432 c3be 57ef a8be
00000270: a26d 7fbe d17d 48be d945 5dbe 2f45 74bd
00000280: afb4 e83d 6a45 793e a5ab 103e da5e 94bc
00000290: 1ddc 8c3d b7a1 39be 14bd 1fbe 3ac1 603d
000002a0: 4057 92bd cee3 043e e632 283d 584b b4bc
000002b0: 362e 963e b94c 543e e429 c33d a515 253e
000002c0: b190 523c ebbe dfbd a845 12bc 1643 2cbd
000002d0: 2760 0e3e 8211 c23d a00a a93c c432 38be
000002e0: 07a8 203d 20de a23e ede5 8abc 971d f5bd
000002f0: 32d6 5c3d 11e7 423d 897f 153e a382 053f
00000300: 4954 88be 6c53 a1be 12e2 293e 1647 ea3b
00000310: c1fe 99be b306 b7bd b4f0 363d c376 f93c
00000320: fbbf 583e e764 23bd e2f5 c63e 6170 cf3e
00000330: 9fd3 a9be 4321 a0be f938 fcba 2415 45be
00000340: abb7 87be 4c74 b13d 0c46 03bd 3ad4 41be
00000350: db33 a4bd c1e0 08be 88fa c2be 67c0 19be
00000360: 550c c13d 5cad 423d 0eed 11be 5fc2 b33c
00000370: 0c21 ccbc 8903 fabd 1375 ae3d ac77 5cbd
00000380: d37a 88be 7ee6 3ebd 20ff 4d3d 1544 d43e
00000390: 7099 64be 66d7 4d3d f6b5 4c3e 4be9 2fbe
000003a0: d801 61be bbd0 51be d47c e33d 91ec db3d
000003b0: ea0a 083f 9837 53be ce6a 51be 93c5 223d
000003c0: 9181 9cbe 759e 3ebf ad3a 4a3e 5269 39be
000003d0: 63f3 d6bc 7be4 cd3d 4ded abbe d5bc dcbe
000003e0: c354 e5be 87c7 c53d e3d3 953e 1db9 ea3e
000003f0: ddee 62bd fe1e 7dbd d14d 86bd 1ab9 debc

conv_block_2.0.bias f4 [10]
0.34509933 0.12594053 -0.00018910831 0.23281689 0.19863094 0.09091477 -0.028576767 -0.05563262
0.06000382 0.017122285
00000000: dcb0 b03e 8ef6 003e 604b 46b9 8d67 6e3e
00000010: e965 4b3e 8631 ba3d d319 eabc 08df 63bd
00000020: 91c6 753d 0944 8c3c

conv_block_2.2.weight f4 [10, 10, 3, 3]
-0.349237 -0.18582779 0.39276204 0.09767514 0.45851582 0.21661478 -0.28328198 -0.34720072
-0.2604854 0.040621478 0.030818854 0.21673168 0.21579629 0.12028713 -0.019387992 -0.44402632
-0.44135576 -0.45025486 -0.32615227 -0.28395936 -0.3519464 -0.11218597 0.015259708 0.012146395
-0.6345856 -0.20335624 -0.14341861 0.1610023 -0.017097466 0.12460019 -0.059461772 -0.043326702
-0.12953171 -0.115876935 -0.08898682 -0.14043091 -0.06134835 0.34468603 0.085236415 0.06498893
0.0117813945 -0.14607891 -0.1387046 0.001096214 0.01368695 -0.11279409 -0.108101405 -0.07545316
-0.2026309 -0.07201222 -0.114737146 -0.3751321 -0.05599497 -0.039255146 0.092296384 -0.08962656
-0.029690888 -0.26320356 -0.23021235 -0.16691032 0.20112611 -0.027005108 0.11297473 -0.09791996
-0.07924341 -0.007886719 -0.09001788 0.09295244 -0.11233815 -0.0051898905 -0.083166234 -0.067897856
-0.32134575 -0.27438584 -0.34051773 0.110888354 0.30196822 0.10261958 0.09918462 -0.26444945
-0.15857488 0.041745577 0.024106212 -0.001443418 -0.24333377 -0.19649164 -0.19498678 0.18356238
0.24097544 0.15377587 0.6644439 0.29064992 -0.3307686 0.21814705 -0.8805911 -0.46275157
-0.20408897 -0.35296455 0.16151631 0.18029161 -0.38030463 -0.12438193 -0.2649444 -0.48351333
-0.041993275 -0.1307144 0.06734941 0.019810902 -0.099182285 -0.21021377 -0.30115893 -0.19052796
-0.3657584 -0.43112186 -0.23821962 -0.21987393 -0.38216716 -0.035060074 -0.17320427 0.13727371
0.01617846 0.0700474 0.05710713 0.05406349 0.036463533 -0.06719626 -0.37232244 -0.1342105
0.13051502 -0.69247043 -0.2637105 0.33945778 -0.19546014 0.28188634 0.29932806 -0.13483992
0.04435168 0.033361517 -0.1706732 -0.09059061 -0.18587801 -0.15692599 0.0006742002 -0.21998759
-0.12150911 -0.1307529 -0.06487438 0.09041344 -0.051544093 0.14516744 -0.10973009 -0.017244238
0.09961316 -0.014765067 -0.008288973 0.12393627 -0.13627492 -0.023747297 0.01403042 0.0026382776
-0.06623697 0.046761673 -0.41712528 0.32112765 -0.14013745 0.022934232 0.052486476 -0.14204608
0.19570099 0.19637996 0.042802297 -0.3305139 -0.049667828 0.21573806 -0.47733575 -0.0266877
0.07117013 -0.37298587 -0.2277792 -0.50258714 -0.36217695 -0.3720144 -0.36181748 -0.12947999
0.08748825 0.14038022 -0.077937044 -0.056538608 0.21476787 0.065520175 0.17493948 0.08931729
-0.059770335 -0.12421017 -0.16232824 0.049857423 0.12054969 0.08772716 0.45483428 0.21811861
0.27853143 -0.098573364 -0.4147919 -0.56324345 -0.11684247 0.17289552 0.17174542 -0.019538848
-0.07853468 -0.03581002 0.13874662 0.08454423 0.1034622 0.13315387 0.02025836 0.240683
-0.22872868 -0.05905502 -0.19405988 -0.44352922 -0.33155388 -0.10408134 0.033507068 0.2431314
0.37658438 -0.063415945 -0.032079358 0.017958812 -0.33743706 -0.25866804 -0.25397262 -0.110155605
0.09057331 0.28756064 0.05377846 0.09780985 -0.054643452 0.09466606 -0.10924773 -0.11378041
-0.107768096 -0.2151344 0.057404377 -0.1548571 -0.070086345 -0.08614928 -0.038691416 -0.05574133
0.025580762 -0.0076852757 -0.049644567 0.037749678 -0.17869453 -0.34720612 -0.47615618 -0.3479766
00000000: 31cf b2be a449 3ebe 1b18 c93e e709 c83d
00000010: 96c2 ea3e 44d0 5d3e 560a 91be 4bc4 b1be
00000020: 585e 85be b562 263d d277 fc3c e9ee 5d3e
00000030: b4f9 5c3e 1959 f63d 91d3 9ebc 6b57 e3be
00000040: 62f9 e1be ce87 e6be 6efd a6be 1f63 91be
00000050: 5232 b4be c2c1 e5bd db03 7a3c ac01 473c
00000060: 3474 22bf 9e3c 50be 54dc 12be c9dd 243e
00000070: fc0f 8cbc 622e ff3d 308e 73bd 5777 31bd
00000080: f6a3 04be e350 edbd b93e b6bd 1fcd 0fbe
00000090: 6848 7bbd b07a b03e 6e90 ae3d eb18 853d
000000a0: c006 413c b695 15be 9408 0ebe d7ae 8f3a
000000b0: 3b3f 603c 9600 e7bd 4564 ddbd 3087 9abd
000000c0: 7a7e 4fbe 257b 93bd 4ffb eabd 5111 c0be
000000d0: fb5a 65bd 01ca 20bd e305 bd3d 218e b7bd
000000e0: 4e3a f3bc 9ec2 86be c9bc 6bbe 8aea 2abe
000000f0: 01f4 4d3e d139 ddbc 4c5f e73d 438a c8bd
00000100: 5e4a a2bd 4c37 01bc 4b5b b8bd d95d be3d
00000110: 8b11 e6bd f50f aabb 0f53 aabd 080e 8bbd
00000120: 6e87 a4be 4d7c 8cbe 5758 aebe 6f19 e33d
00000130: 949b 9a3e 372a d23d 4e21 cb3d eb65 87be
00000140: 7461 22be 69fd 2a3d 647a c53c 1231 bdba
00000150: 7d2c 79be 1b35 49be 9daa 47be c7f7 3b3e
00000160: 44c2 763e 6c77 1d3e ff18 2a3f 11d0 943e
00000170: 805a a9be f161 5f3e 6b6e 61bf c6ed ecbe
00000180: b3fc 50be c5b7 b4be 8864 253e 5d9e 383e
00000190: 4ab7 c2be f4bb febd cba6 87be 0f8f f7be
000001a0: 2401 2cbd ffd9 05be 7dee 893d 794a a23c
000001b0: 1520 cbbd 4742 57be 8131 9abe c319 43be
000001c0: af44 bbbe 01bc dcbe d8ef 73be a226 61be
000001d0: 6aab c3be 279b 0fbd 765c 31be 7b91 0c3e
000001e0: b188 843c 0375 8f3d 2ae9 693d ae71 5d3d
000001f0: c95a 153d 319e 89bd 0ca1 bebe 7a6e 09be
00000200: bba5 053e be45 31bf 1005 87be 69cd ad3e
00000210: b426 48be 6853 903e 8741 993e 7a13 0abe
00000220: 1baa 353d 16a6 083d f5c4 2ebe 9287 b9bd
00000230: ce56 3ebe 35b1 20be cfbc 303a 6d44 61be
00000240: c5d9 f8bd 17e4 05be dcdc 84bd ae2a b93d
00000250: e61f 53bd c6a6 143e 2bba e0bd ca43 8dbc
00000260: fc01 cc3d 2ee9 71bc 79ce 07bc 4dd2 fd3d
00000270: a78b 0bbe b189 c2bc d9df 653c f4e6 2c3b
00000280: 40a7 87bd 2b89 3f3d 7291 d5be d86a a43e
00000290: 3180 0fbe 92e0 bb3c 0ffc 563d 8774 11be
000002a0: d765 483e d417 493e 7651 2f3d 1e39 a9be
000002b0: 7e70 4bbd 70ea 5c3e 5a65 f4be 2aa0 dabc
000002c0: a5c1 913d 01f8 bebe f33e 69be 8da9 00bf
000002d0: 426f b9be ac78 bebe 2440 b9be 6796 04be
000002e0: 0a2d b33d d5bf 0f3e 759d 9fbd 0795 67bd
000002f0: 1cec 5b3e 712f 863d 5623 333e fceb b63d
00000300: bdd1 74bd e761 febd 6039 26be 4c37 4c3d
00000310: c2e2 f63d 4caa b33d 0ae0 e83e 7c5a 5f3e
00000320: ac9b 8e3e d5e0 c9bd 9b5f d4be b930 10bf
00000330: 1b4b efbd 860b 313e 08de 2f3e ef0f a0bc
00000340: cad6 a0bd 87ad 12bd 9813 0e3e 8625 ad3d
00000350: fde3 d33d 7d59 083e dcf4 a53c 9b75 763e
00000360: da37 6abe ade3 71bd a2b7 46be 4316 e3be
00000370: 6ec1 a9be 9928 d5bd b53e 093d 70f7 783e
00000380: abcf c03e 38e0 81bd a565 03bd 5c1e 933c
00000390: 8dc4 acbe 2370 84be b308 82be 4399 e1bd
000003a0: 807e b93d 263b 933e cd46 5c3d 8850 c83d
000003b0: d0d1 5fbd 47e0 c13d 46bd dfbd b405 e9bd
000003c0: 85b5 dcbd 314c 5cbe da20 6b3d dc92 1ebe
000003d0: 6e89 8fbd 096f b0bd e47a 1ebd 0551 64bd
000003e0: bf8e d13c c4d4 fbbb 1a58 4bbd 689f 1a3d
000003f0: b3fb 36be 00c5 b1be beca f3be fd29 b2be

conv_block_2.2.bias f4 [10]
-0.22142307 0.126623 -0.023452869 -0.22100475 0.2042458 0.06347938 -0.11850093 0.03300271
0.49402094 0.18657449
00000000: bbbc 62be 76a9 013e 3b20 c0bc 124f 62be
00000010: d025 513e 7a01 823d 9eb0 f2bd da2d 073d
00000020: 50f0 fc3e 620d 3f3e

classifier.1.weight f4 [10, 490]
0.022768164 -0.04382104 -0.07162095 0.016573599 0.024164919 0.015447136 0.021779306 0.0731143
0.06932 0.046536226 -0.12032835 -0.037568547 0.033111557 0.021813402 0.029193386 0.1369014
-0.07705298 -0.21637656 -0.46035004 -0.14490163 -0.0042078593 -0.029379014 0.0032132624 -0.12728442
-0.077449106 -0.034533985 -0.19867007 -0.081260055 -0.018305918 -0.081240006 0.07161302 0.031513844
-0.18096642 -0.06051366 -0.039892208 -0.048646726 -0.034795195 0.07405694 -0.01624514 0.025739012
0.02725489 -0.0047798245 0.017295068 -0.004773722 0.048696186 -0.025425868 -0.025624063 -0.0038650008
-0.032473505 -0.023060527 -0.07115505 -0.05300964 -0.0583944 -0.039263915 0.04143574 0.0005372477
-0.029122539 -0.13922808 -0.07096586 -0.24041048 -0.09361172 -0.11119834 -0.043638196 -0.012360485
-0.007103387 0.033126853 -0.033195585 -0.43401068 -0.030462138 0.014638336 0.012468576 0.35555276
0.23729444 -0.14589511 0.064855844 0.07890412 -0.032813556 0.043121193 0.24726972 0.094112985
-0.07483288 0.13990489 -0.039478164 -0.022915956 -0.022307096 0.07598027 -0.11059899 -0.08641209
-0.024090474 -0.021994812 -0.049824968 -0.019336676 0.036687512 0.027003085 -0.035640042 -0.0025234777
-0.03583515 0.016725734 0.029735979 0.0416369 0.049896978 0.0006854826 -0.02096644 0.037054595
0.0019953127 -0.0017995822 0.00084962556 -0.048017375 -0.08845472 -0.035153676 0.012721287 -0.04580763
-0.0387308 -0.19622545 -0.15355738 -0.012919238 -0.14674261 -0.0148264235 -0.044419996 -0.093947195
-0.22191155 -0.21685915 -0.20437069 0.024565166 0.13904674 -0.15910529 -0.051283304 -0.34649318
-0.3145602 -0.35068306 -0.15587856 -0.018779518 -0.09825803 0.08904938 -0.055043485 -0.13901268
0.17151949 0.32480323 0.084960945 -0.017022211 0.024471128 -0.057863098 0.1078297 0.18973278
0.046644047 -0.09446737 -0.011473735 0.0058137886 -0.075317845 -0.023418292 0.00022707324 0.0371203
0.14232534 0.08304917 -0.028220057 0.13242649 0.069238216 0.007959674 0.28701794 -0.009313332
0.07293808 0.00683881 0.023852276 -0.14357936 -0.22477102 -0.22405037 -0.03551249 0.085884385
-0.00295737 -0.13472825 -0.082435384 -0.28345886 -0.18038294 -0.2863329 0.02003891 -0.014679217
-0.09300066 0.044145007 0.5768083 -0.24262863 -0.066597015 -0.026322419 0.023391241 -0.007615967
0.049518343 0.1051795 -0.012167434 -0.09585123 -0.045943905 -0.0057655782 0.016844084 -0.01802304
-0.031601653 -0.054656986 -0.04530903 -0.005074004 0.006239692 -0.10895844 -0.15608646 -0.12363075
0.059859436 0.06935725 -0.024543658 0.0027924746 0.08536303 -0.06332732 0.14436346 0.28951418
0.38447285 0.07490493 0.080981486 -0.11120674 -0.35247657 -0.16261461 0.0031564755 0.04991453
0.108691886 0.015015463 0.12505989 -0.1348199 0.07915977 -0.5091603 -0.0964852 0.021614062
0.062425893 0.095418416 0.2403287 0.17801245 -0.26688665 -0.14810267 -0.047054 0.042451248
0.107279085 0.12916704 0.17904031 -0.06454849 0.00490646 0.01362627 0.029212255 -0.027523585
0.0013955167 0.01415822 0.022584273 0.010078859 0.011433159 -0.008114327 0.07389858 -0.057585552
0.12766013 0.12231346 0.07245963 0.03862958 0.035907015 -0.09067882 -0.078776434 -0.16843492
00000000: 4d84 ba3c b17d 33bd 01ae 92bd 5bc5 873c
00000010: 82f5 c53c fc15 7d3c 846a b23c f3bc 953d
00000020: a5f7 8d3d c59c 3e3d b66e f6bd 7ae1 19bd
00000030: fc9f 073d 05b2 b23c f826 ef3c e12f 0c3e
00000040: f4cd 9dbd d191 5dbe 00b3 ebbe 1861 14be
00000050: 15e2 89bb 42ac f0bc 9995 523b d956 02be
00000060: a39d 9ebd 8273 0dbd 2b70 4bbe ac6b a6bd
00000070: 4bf6 95bc 2961 a6bd d9a9 923d a914 013d
00000080: 434f 39be 2cdd 77bd 0366 23bd ca41 47bd
00000090: 6885 0ebd 2aab 973d 8714 85bc 9fda d23c
000000a0: a645 df3c 13a0 9cbb 63ae 8d3c e26c 9cbb
000000b0: a775 473d e949 d0bc 8ee9 d1bc f44b 7dbb
000000c0: f002 05bd 6ee9 bcbc bdb9 91bd a320 59bd
000000d0: f72e 6fbd 33d3 20bd 86b8 293d 15d6 0c3a
000000e0: 6492 eebc ce91 0ebe 8c56 91bd 2a2e 76be
000000f0: 80b7 bfbd f5bb e3bd f7bd 32bd a283 4abc
00000100: 87c3 e8bb 06b0 073d 18f8 07bd a636 debe
00000110: bc8b f9bc a2d5 6f3c 0049 4c3c 030b b63e
00000120: 50fd 723e 8765 15be 24d3 843d 7c98 a13d
00000130: 8267 06bd d99f 303d 4634 7d3e 4fbe c03d
00000140: fb41 99bd 3a43 0f3e dbb3 21bd 3eba bbbc
00000150: 5fbd b6bc 8b9b 9b3d b981 e2bd d2f8 b0bd
00000160: 6359 c5bc 772e b4bc 4415 4cbd f367 9ebc
00000170: a545 163d 9335 dd3c 4bfb 11bd ee60 25bb
00000180: e1c7 12bd 6804 893c de98 f33c 748b 2a3d
00000190: c660 4c3d f5b1 333a d0c1 abbc 8fc6 173d
000001a0: cbc3 023b f5df ebba 68b9 5e3a dead 44bd
000001b0: c027 b5bd 4dfd 0fbd f26c 503c c8a0 3bbd
000001c0: 30a4 1ebd 53ef 48be 253e 1dbe 36ab 53bc
000001d0: b243 16be 87ea 72bc bef1 35bd 6367 c0bd
000001e0: c83c 63be 5310 5ebe 8d46 51be e33c c93c
000001f0: 4562 0e3e 7fec 22be 710e 52bd 8e67 b1be
00000200: 090e a1be bb8c b3be a19e 1fbe 81d7 99bc
00000210: 823b c9bd 855f b63d 4775 61bd 5759 0ebe
00000220: cea2 2f3e 9c4c a63e 0100 ae3d 2a72 8bbc
00000230: ad77 c83c db01 6dbd d1d5 dc3d 4f49 423e
00000240: d40d 3f3d 1c78 c1bd 55fc 3bbc 9881 be3b
00000250: 3e40 9abd b8d7 bfbc 821a 6e39 750b 183d
00000260: bcbd 113e af15 aa3d c02d e7bc cf9a 073e
00000270: c4cc 8d3d 4b69 023c 04f4 923e f296 18bc
00000280: 8f60 953d 1918 e03b d965 c33c 7806 13be
00000290: 602a 66be 766d 65be 8b75 11bd 27e4 af3d
000002a0: 6fd0 41bb 34f6 09be e2d3 a8bd 8521 91be
000002b0: 4eb6 38be 3a9a 92be a428 a43c 1981 70bc
000002c0: 2177 bebd 65d1 343d b5a9 133f a473 78be
000002d0: 0464 88bd 1da2 d7bc fd9e bf3c 5d8f f9bb
000002e0: bfd3 4a3d 5a68 d73d eb59 47bc a64d c4bd
000002f0: ad2f 3cbd 2ded bcbb 9bfc 893c 0ea5 93bc
00000300: bc70 01bd 01e0 5fbd f695 39bd d543 a6bb
00000310: 5576 cc3b 9a25 dfbd 21d5 1fbe 1e32 fdbd
00000320: 2b2f 753d 2d0b 8e3d c80f c9bc f301 373b
00000330: d0d2 ae3d c1b1 81bd 04d4 133e 343b 943e
00000340: a0d9 c43e c267 993d 9fd9 a53d 5cc0 e3bd
00000350: cf77 b4be 7284 26be dfdc 4e3b 2e73 4c3d
00000360: da99 de3d 6b03 763c b30f 003e 3a0e 0abe
00000370: 841e a23d 5458 02bf 089a c5bd f90f b13c
00000380: 4bb2 7f3d bb6a c33d ba18 763e e548 363e
00000390: 5ea5 88be 3aa8 17be b2bb 40bd 5ce1 2d3d
000003a0: 23b5 db3d 5d44 043e 5856 373e 0032 84bd
000003b0: 5fc6 a03b b840 5f3c 8a4e ef3c 2479 e1bc
000003c0: c5e9 b63a e1f7 673c a702 b93c cc21 253c
000003d0: 2552 3b3c f4f1 04bc 2458 973d d4de 6bbd
000003e0: 56b9 023e 7b7f fa3d b765 943d 0d3a 1e3d
000003f0: 3c13 133d d1b5 b9bd 8a55 a1bd 347a 2cbe

classifier.1.bias f4 [10]
0.021281414 0.59017426 0.15491898 -0.20673281 -0.08582008 -0.16316497 -0.09897066 0.1575906
-0.19227119 -0.19800913
00000000: 5c56 ae3c a915 173f 15a3 1e3e c4b1 53be
00000010: 70c2 afbd b814 27be 21b1 cabd 6e5f 213e
00000020: bde2 44be e8c2 4abe
