checkpoints/model_epoch_5.pth (torch, 34447 bytes, 10 tensors)

conv_block_1.0.weight f4 [10, 1, 3, 3]
000000 59 ea 50 bd 3c f6 15 be 3d 8d ee 3b 3d 0d 8e be
       -0.05100474 -0.14644712 0.0072800205 -0.27744475
000010 6e 7e 3c be 0b 5c 39 bd ff e8 57 3e 2f cf f0 3d
       -0.18407604 -0.045253795 0.21084975 0.11758267
000020 36 af cf bd e1 62 5d be c3 ac db bc 3e 38 5a be
       -0.10140841 -0.2161975 -0.026815778 -0.21310517
000030 bd a3 de be a8 58 86 3e ae 71 c1 3e 10 30 ec be
       -0.43484297 0.26239514 0.37782043 -0.4613042
000040 76 1b 2c 3d b2 f0 dc 3e 8d c0 d1 3e b6 e3 c2 3e
       0.042018376 0.43152386 0.40967217 0.38064355
000050 fe b4 87 3e 1a 87 15 bf fa ef 2a 3e a2 99 5b be
       0.26505274 -0.58409274 0.16693106 -0.21445325
000060 63 a8 6e bf e3 0e e3 be 64 89 f0 3e dd 29 64 3e
       -0.9322569 -0.44347295 0.4697982 0.22281595
000070 e8 bd 9e 3e a4 bd 90 3e 03 c3 1e 3e a6 27 d8 be
       0.31004262 0.28269684 0.15504079 -0.4221775
000080 90 ed 31 be 6c c5 83 3d 0e be 43 be 84 c1 1c bf
       -0.17375779 0.064341396 -0.19115469 -0.6123278
000090 5b 01 ae 3d 4c 89 cf be 5a 51 f9 bd 79 39 3c 3d
       0.08496352 -0.40534437 -0.1217372 0.045953248
0000a0 a5 11 19 3f e3 75 f3 3b 54 4b d9 3e c9 78 2b 3f
       0.5979255 0.0074298247 0.42440283 0.6698118
0000b0 17 c7 15 be 9c 79 8e be 0a 0f 80 3e 47 db 69 be
       -0.14626728 -0.27827156 0.25011474 -0.22837554
0000c0 8c 29 b7 be 6e 97 b3 3d 66 4f 23 3d c8 16 99 3e
       -0.35773885 0.08769117 0.039870642 0.29900193
0000d0 d5 39 d7 bd 97 e2 9e 3e 19 0a 23 3e 3e 14 86 3e
       -0.105090775 0.3103225 0.1592182 0.2618732
0000e0 66 29 2e be de ef aa be 55 3b b1 3e 11 d1 c4 be
       -0.1700798 -0.3338613 0.3461558 -0.38440755
0000f0 bd 02 8f be cf 30 c3 3e 1f 30 a6 bd 79 47 96 3d
       -0.27931777 0.38123176 -0.08114647 0.07337851
000100 32 7b 51 be 58 d2 8e be 57 5d 64 be 25 d7 26 be
       -0.20457152 -0.27894855 -0.22301231 -0.16293009
000110 4e 36 bd bd c5 0d 30 3e 2a 85 90 3d 8a 2b 75 be
       -0.092388734 0.17192753 0.07056649 -0.2394239
000120 e3 62 03 3e 57 4c e5 be bc a9 c6 3d 55 e9 cb 3e
       0.12830691 -0.44784805 0.09700343 0.39826456
000130 9d 6f 76 3e 3b 67 e7 3c 8c c2 02 3e 18 2f b0 be
       0.24066015 0.028247466 0.12769526 -0.3441093
000140 cf 12 6c bc 05 a3 77 3e 87 12 75 3e fc a3 5a be
       -0.014408781 0.24183281 0.23932849 -0.21351618
000150 54 30 d0 bd 05 8b 49 be 30 b5 94 be 50 1e cf be
       -0.10165468 -0.19681938 -0.29044485 -0.40452814
000160 dc 3d 0e bf 01 a8 f8 be
       -0.5556314 -0.48565677

conv_block_1.0.bias f4 [10]
000000 d3 f3 25 bc 4f 62 c4 bd 9e e7 1a be f0 be 89 3d
       -0.010128933 -0.095890634 -0.15127417 0.067258716
000010 47 29 fc bc e7 ef a1 be 5e 10 4a be 0d 98 0c be
       -0.030781401 -0.31628343 -0.19732806 -0.13729878
000020 6b 96 75 be 26 00 99 3e
       -0.23983161 0.29882926

conv_block_1.2.weight f4 [10, 10, 3, 3]
000000 9e 96 8a 3d 1a ad 71 bd 2a 21 b4 3d a2 70 c3 3d
       0.06767009 -0.059002973 0.08795388 0.095429674
000010 4b 06 24 3d 98 53 1f 3d 1d dc 05 3d 21 f4 65 3a
       0.040045064 0.03889808 0.03268062 0.0008772035
000020 89 b9 84 3d 25 df a4 bb a8 38 00 bd 37 51 6f 3e
       0.064807005 -0.0050314837 -0.03130403 0.23370825
000030 50 cc c7 3d a7 ff 22 be b3 1d c0 bd d0 c7 38 be
       0.097557664 -0.15917836 -0.09380665 -0.18044972
000040 e4 a5 27 be 58 ac 4c 3d b9 ce a7 bd 61 1e a9 bd
       -0.16371876 0.049969047 -0.08193726 -0.082577474
000050 12 b4 84 3e da 0d 49 bd 1b 1a 97 bd 8f c2 86 3e
       0.25918633 -0.049085476 -0.07378026 0.2632031
000060 29 2f 9a 3d 13 23 df 3d e5 9a 90 3b 2e 27 8d bd
       0.07528526 0.10895362 0.004412996 -0.068922386
000070 ee 44 bc 3b 21 1c 96 3b d2 4d d9 bd 63 bb a7 bc
       0.0057455217 0.00458099 -0.10610546 -0.020475095
000080 39 1d 31 3e a1 5b 3e bd 31 aa 51 3d 85 11 c8 bd
       0.17296304 -0.046474103 0.051187698 -0.097689666
000090 56 fb 35 3c 48 85 36 3e ba b2 29 3e 32 f5 6a be
       0.011107286 0.1782428 0.16572085 -0.22945097
0000a0 79 48 c7 bd 2b 82 18 be 73 b3 53 be a7 ce 39 be
       -0.0973062 -0.14893405 -0.20673923 -0.18145238
0000b0 ce 6e 03 be 5d 6f 8c 3c b2 ea 4d bb a8 38 99 3d
       -0.12835237 0.017142946 -0.0031420407 0.074815094
0000c0 af 80 59 bb f7 bb 0b 3d 06 21 a6 3d ab fd 5d bd
       -0.0033188274 0.034114804 0.081117675 -0.054196995
0000d0 d3 35 c0 bd 66 2d cb bd d8 ab 44 bd 7e d5 c4 bb
       -0.09385266 -0.099207684 -0.048015445 -0.0060068956
0000e0 8c 2e 36 3d 3d fc 41 bc 6a 65 cf 38 d3 c4 2b 3d
       0.044477984 -0.011839923 9.889419e-05 0.041935753
0000f0 9b 2d a1 3c d3 a7 d0 3c 16 76 0d be 9e c3 c1 bd
       0.019675067 0.02547065 -0.13814577 -0.09461139
000100 32 d9 a0 bc 78 6f 58 3d 4e 95 d2 bc 36 f6 a7 3c
       -0.019634817 0.05284068 -0.02570596 0.020503145
000110 3a 56 cd bd 42 c8 36 3d db ba 89 bd 75 b9 26 3c
       -0.10026212 0.044624574 -0.06725093 0.010176052
000120 7d 17 d9 bd 66 9a 09 3e a8 d6 7a 3e 12 db 17 bd
       -0.10600183 0.13437805 0.24495947 -0.037074156
000130 54 45 d4 3d d4 fc 7c 3d c7 af 35 be 13 7e a8 bd
       0.10364786 0.061764553 -0.17742835 -0.08227172
000140 fc 2c f8 bd 5d 56 37 ba 6f db a8 bd bc 08 da bd
       -0.12117955 -0.0006993765 -0.08244979 -0.10646197
000150 1b d5 32 3d 5d 31 10 3c c1 72 21 be 97 1f 06 3d
       0.043660264 0.008800832 -0.15766431 0.03274497
000160 03 c5 6a bb 6c 3b 25 bd aa 7e a0 bb 18 bd f2 bd
       -0.0035822995 -0.040339872 -0.004897912 -0.11852473
000170 d0 c8 83 3d b6 08 3b bd 2d 93 ec 3c c0 55 91 3d
       0.06434786 -0.045662604 0.028878773 0.07096434
000180 08 d3 03 3c 9f a1 d3 3d 4c 91 d6 3d 4d f7 70 bd
       0.008045919 0.10333561 0.10476932 -0.058829594
000190 3f d4 b9 bd 13 4f ab 3d 2e 9b 4f 3d a1 cb 37 be
       -0.09073686 0.083646916 0.0506851 -0.17948772
0001a0 45 d9 c6 bd b0 ff 20 be f3 ac bf bd 46 c1 9b 3b
       -0.097094096 -0.15722537 -0.09359159 0.0047532646
0001b0 22 ca 07 3e 04 89 59 be 79 f0 f6 be bc 8d af bb
       0.13260701 -0.21243674 -0.4823034 -0.005357472
0001c0 bf 13 32 be 2a 0b 71 be 77 38 b1 3c 1b 62 ea bd
       -0.17390345 -0.23539415 0.02163337 -0.114444934
0001d0 53 41 7c 3c de e5 a0 3d 3e ee e0 3d da c3 b3 bc
       0.015396434 0.07856344 0.10982941 -0.021943975
0001e0 58 55 5e be ca 6d bf 3c 5b a1 13 be e6 fd 04 be
       -0.21712244 0.023367781 -0.14417021 -0.1298748
0001f0 2b 6e 7d bd 22 1b 5c 3e f2 5a 3f bd da ca 40 be
       -0.061872642 0.21494725 -0.04671759 -0.18827382
000200 31 f0 af bc 07 47 85 3e a5 93 a4 3e 32 37 6b 3e
       -0.021476837 0.26030752 0.32143894 0.22970274
000210 0d c0 c5 3c 34 63 b8 3a 5e 47 49 3e db 42 b7 3d
       0.024139429 0.0014067651 0.1965613 0.089482985
000220 9f f4 a7 3d 31 de df 3d 0d db eb 3d 12 15 4a 3c
       0.08200955 0.109310515 0.1151639 0.012334125
000230 3d 46 8d bd 1e d3 b8 bd dd e7 1b bd cd da 4c 3c
       -0.068981625 -0.090246424 -0.03806292 0.012503338
000240 64 75 e7 3d ed c8 a2 bd 0c c8 24 be 61 92 09 3c
       0.11301687 -0.0794848 -0.16091937 0.008396716
000250 ff 1d 31 bb 65 1f 53 bd 7c 1a a6 bb fb fd e6 3d
       -0.0027025936 -0.051543612 -0.005069075 0.11278912
000260 0e 11 98 3d b0 81 46 bd 8e 37 5f bc 1f 45 4d bb
       0.07425128 -0.048463523 -0.013624085 -0.0031321717
000270 fc 38 07 bd 4b 8d e9 bc a6 87 b0 bd ba 6b 2f 3b
       -0.03301333 -0.028509757 -0.08619623 0.002676709
000280 f8 06 c7 3d c6 54 15 bc 6e 07 67 bd 70 a0 09 be
       0.09718126 -0.00911445 -0.05640357 -0.13440108
000290 67 71 94 be 43 5e 4e 3d 9b 27 e8 3d b7 4b 3f 3e
       -0.2899277 0.050382864 0.11335679 0.18681227
0002a0 11 a5 43 3d 63 a6 d6 3d 63 23 00 3d 87 d5 68 be
       0.04776484 0.104809545 0.031283747 -0.22737704
0002b0 4e 8f 3e be 9d 48 41 be d7 5c 78 be ca 0a db bd
       -0.18609354 -0.18875356 -0.24254166 -0.10695417
0002c0 f7 b7 2f bd 09 6e 0a be 69 06 81 be a2 3e 97 bd
       -0.042900052 -0.13518538 -0.25200203 -0.07384993
0002d0 37 5c 1e bd 49 7a 93 3d 5c be d1 3d 07 0c b3 bc
       -0.03866216 0.072010584 0.10241386 -0.021856321
0002e0 0b 06 2d bd bd db c3 3c be b1 fd bc bb d1 9f 3d
       -0.04224209 0.02390849 -0.030968543 0.07803675
0002f0 6a 32 94 bc 74 e6 f8 3c c0 b4 f2 bd 29 18 59 3d
       -0.018090446 0.030383326 -0.118508816 0.053001557
000300 4a 10 b4 bd b6 75 1a 3e 5c 44 94 3c f9 0c 45 bd
       -0.087921694 0.15083966 0.018099003 -0.048108075
000310 50 fe dc bd 81 b6 5b 3e aa c8 8d bd d0 bc 3c bd
       -0.10790694 0.21456338 -0.06923039 -0.046078503
000320 2f 4b 05 3e 59 74 f2 3d c4 8a 6a 3d 8b 71 dd bc
       0.13016962 0.11838598 0.057261243 -0.02703168
000330 5a 5d 2f 3c 02 08 26 3e 2d cf 6e 3e e7 c6 94 be
       0.010703409 0.16213992 0.23321219 -0.29058
000340 c4 b5 82 be 4e 4c 62 be 46 e5 11 3e 4e ab fe bd
       -0.255293 -0.2209942 0.14247617 -0.124350175
000350 b5 0d 7d bd 85 26 24 3e 3d 98 38 3d bd ae fd bd
       -0.06178065 0.16030319 0.04506706 -0.12386844
000360 db 0d 1e 3e d8 cc 95 3e ab 37 82 3e fb f6 15 be
       0.15434973 0.29257846 0.25433096 -0.14644997
000370 47 b6 64 3d 89 51 8c 3e d0 90 0a bf e0 90 dd be
       0.055837896 0.27405956 -0.54127216 -0.43274593
000380 af e7 e1 bd 2f 5f 95 bd 35 22 97 bd e4 61 ee bd
       -0.11030518 -0.072935455 -0.07379571 -0.11639765
000390 87 fc 95 3d 6f c5 52 bd 28 79 a9 ba 0d 2c 0c bb
       0.073235564 -0.05145782 -0.0012929784 -0.002138856
0003a0 61 7e 80 bd 9a 33 ed 3d 71 1d c8 3d 95 05 3d bd
       -0.06274105 0.11582108 0.097712405 -0.0461479
0003b0 89 c9 b9 3c bb a6 7e bd f6 a8 88 3d 36 fe 0c 3e
       0.022679107 -0.062170725 0.06672852 0.13768849
0003c0 70 92 1e bd d4 01 94 bd 35 af ad 3d 51 79 69 3d
       -0.038713872 -0.07226911 0.08480684 0.057000462
0003d0 4b a3 31 bd d0 5d bd 3d e2 c4 f1 bc 98 47 f8 bc
       -0.04336862 0.09246409 -0.029512826 -0.030307576
0003e0 da 0f ca ba 1d b0 c8 3d 2b 9b bb 3d ac 45 92 3d
       -0.0015416101 0.09799216 0.09160455 0.07142195
0003f0 7c 13 ee bc 75 db 89 bb ae e8 e3 3b 2e bb 96 3d
       -0.029062025 -0.0042070695 0.006955228 0.073599204

conv_block_1.2.bias f4 [10]
000000 01 98 20 bd 85 13 a0 3e 4e 00 c6 3d b1 1d ce bd
       -0.039207462 0.31264892 0.09668027 -0.10064257
000010 f3 e3 8b 3a 5d d8 95 3d 27 c2 6d 3e d4 91 71 bd
       0.0010672793 0.07316659 0.23218594 -0.058976963
000020 de 2b 6d bd 82 28 fd 3c
       -0.057903163 0.030903105

conv_block_2.0.weight f4 [10, 10, 3, 3]
000000 ec df 09 bd d9 f8 68 3c b1 46 94 3e 14 56 18 be
       -0.033660814 0.014219486 0.28960183 -0.14876586
000010 2f d8 30 bd 35 0c 1c be e6 77 10 be b7 d5 8e bd
       -0.04317492 -0.15239032 -0.14108238 -0.069743566
000020 21 44 75 bd 00 65 75 3a 00 4b 7c be 2c 69 e3 be
       -0.059879426 0.00093610585 -0.24637985 -0.44416177
000030 5b 67 9e 3d f7 a3 2a be aa 7e 36 3d 9d e2 51 3d
       0.07734557 -0.1666411 0.04455439 0.051241506
000040 33 f5 b9 3c 03 f2 cb 3e 1b 56 78 be ce be 5e be
       0.022699928 0.39833078 -0.24251597 -0.21752474
000050 c2 27 32 3e d5 f5 3e be 81 a1 9d be 88 d5 54 be
       0.17397979 -0.18648465 -0.3078728 -0.2078458
000060 79 f0 2d be 2f 0a cd 3e b0 35 f9 3d 23 cf d4 3c
       -0.16986264 0.40046832 0.12168443 0.025977677
000070 e8 87 a7 be c3 b5 96 bd 40 f5 51 3d 84 e4 50 be
       -0.32720876 -0.07358887 0.05125928 -0.20399672
000080 7c 17 86 be 1f d7 1d 3e 67 92 46 be 73 a3 83 bd
       -0.26189792 0.15414093 -0.19391786 -0.0642766
000090 4e 14 2f 3e de 49 8f 3b f9 22 16 be d4 21 b2 3c
       0.1709759 0.0043728193 -0.14661779 0.021744646
0000a0 bb 3a dd bc 2a 97 7d 3e 9d 46 98 3e 7c cd ac 3d
       -0.027005544 0.24764696 0.29741374 0.084376305
0000b0 9d ca a9 3c 78 19 d0 3a 26 0a 68 be 07 15 ef bb
       0.020726496 0.0015876731 -0.22660121 -0.007296208
0000c0 9a 09 cc ba c6 09 8a be 46 79 84 be 64 1e 66 3e
       -0.0015566826 -0.26960582 -0.25873774 0.2247253
0000d0 5f 1d 28 bd 3e a7 14 3e 98 52 9f be 6b 0e ed be
       -0.041043635 0.14516923 -0.31117702 -0.46300063
0000e0 0d b0 b0 be b8 59 ae bd ea f6 55 be 07 f4 8a 3d
       -0.34509316 -0.08513206 -0.20894971 0.06784826
0000f0 72 d8 e2 bb 31 50 f8 3d 81 88 df 3e c4 86 0b be
       -0.006922775 0.1212467 0.43658832 -0.13625628
000100 74 2d c1 be af 3e 82 be 90 6b 2c be dd 68 f5 bd
       -0.3772999 -0.2543845 -0.16837907 -0.11982892
000110 47 62 75 3e 77 56 64 3e 5b d0 59 3e 22 ac 7a 3e
       0.23963271 0.22298609 0.21270888 0.24479726
000120 cd ab 34 bd ee e2 bb bd a7 bb 3d 3d 1e f5 2f 3d
       -0.044109154 -0.09174143 0.046321537 0.04295837
000130 aa 56 10 bd fb 80 56 bd a8 d2 7a 3b c2 2e 2b 3d
       -0.0352389 -0.0523691 0.0038272534 0.04179264
000140 8f 99 f0 3d 9f e9 e5 3d fc 89 7f 3e 9a 4b 19 3e
       0.11748039 0.112262 0.2495498 0.14970246
000150 23 f9 1f bd 1b fa ab bd 35 43 ca bd 03 93 66 be
       -0.039055955 -0.08397313 -0.098761 -0.22517018
000160 ac 2e b8 3c c7 37 d1 bd aa df d2 bd 5e 44 11 3d
       0.022483192 -0.10215717 -0.10296567 0.03546559
000170 4a a0 96 3b ce 4d 1c 3d b0 71 81 3d d7 76 48 3d
       0.0045967447 0.038160138 0.06320512 0.04894146
000180 21 97 84 bc 94 45 93 bd 15 d7 51 bb f3 89 33 3e
       -0.016185345 -0.07191005 -0.0032019068 0.17533092
000190 34 37 15 bd 7e a4 98 be 12 08 9f be a9 27 81 be
       -0.0364296 -0.29812998 -0.31060845 -0.2522557
0001a0 02 59 99 be 9d 47 7e 3e 04 34 89 3d d4 f0 87 3e
       -0.2995072 0.24832006 0.06699374 0.26550925
0001b0 8f 7b 9b 3e c8 23 51 3d 4c 09 b7 bd d4 59 4a bd
       0.30367705 0.051059514 -0.0893732 -0.049402073
0001c0 8e 17 60 be ba b8 ac be e4 08 19 be 04 86 54 be
       -0.21883985 -0.33734685 -0.14944798 -0.20754248
0001d0 d4 f1 93 bd db 65 b2 3e b0 e3 ed 3d ae 18 91 bd
       -0.072238594 0.34843335 0.116156936 -0.070847854
0001e0 5f 7f e5 3c 3b 03 6c ba 1a 85 e8 bd 84 19 8a bd
       0.028014837 -0.0009003167 -0.11353512 -0.06743148
0001f0 20 3d 63 be a8 ce 3a be 52 ad 73 be d0 c2 7d 3e
       -0.22191286 -0.18242896 -0.23796585 0.24781346
000200 b4 52 8a bd ba b8 6c bd 6e 7b ee 3c 1f 24 a1 3c
       -0.067540556 -0.057793356 0.02911159 0.019670544
000210 be 8c 90 3d 03 e3 41 bd cf db 50 3c 76 9a d2 3e
       0.070580944 -0.047335636 0.012747719 0.4113347
000220 0a a8 1b 3e 16 3c ac bd 51 f3 41 be e5 9a 22 bd
       0.1520082 -0.08409898 -0.18940474 -0.0396985
000230 5a d8 ce be 07 fd a6 3d 1d 37 7d bd 3d dc 0a bd
       -0.40399438 0.0815373 -0.06182014 -0.03390144
000240 f4 78 d1 3e 8b 17 4e bd c9 16 a2 be b1 eb fc 3d
       0.40912592 -0.05031542 -0.3165801 0.12349642
000250 b0 95 e2 be a4 f5 6b be d1 59 4e 3e 85 b8 5f bd
       -0.44254827 -0.23042923 0.2015145 -0.05461933
000260 07 26 a0 3e 67 e7 d9 be f1 46 b4 be b1 45 a6 be
       0.31279013 -0.42559358 -0.35210374 -0.32475045
000270 e6 b4 85 be c5 77 3d be 6e 85 07 be 0e 14 cd bd
       -0.26114577 -0.1850272 -0.13234493 -0.10013591
000280 a5 bb ba 3d 1f 4d 98 3e 22 8e 17 3e 6d 4e 18 3b
       0.091178216 0.2974634 0.14800313 0.0023240105
000290 f1 8d 7a 3d 19 a2 1a be a8 d5 19 be c9 5c a0 3d
       0.061170522 -0.15100898 -0.1502291 0.07830197
0002a0 00 5e 82 bd 63 fb e0 3d 20 13 6b 3d 14 ef 5b 3a
       -0.06365585 0.10985448 0.057391286 0.00083898124
0002b0 23 38 65 3e 26 95 5d 3e f2 84 cc 3d 16 b4 37 3e
       0.22384696 0.21638927 0.09986295 0.17939791
0002c0 36 6c 0c 3d c2 d1 be bd 84 05 f7 bb b0 cb d0 bc
       0.034282885 -0.09317352 -0.0075384993 -0.02548775
0002d0 9f 66 97 3d c2 ee 4d 3c 0a 0b 37 bd 3c 35 3b be
       0.0739262 0.012569131 -0.044688262 -0.18282026
0002e0 21 23 18 3d 3b ff 90 3e 26 71 00 ba 02 e2 9b bd
       0.037142877 0.28319725 -0.0004899673 -0.07611467
0002f0 91 d2 98 3d c8 f8 80 3d d2 90 1e 3e 40 a9 10 3f
       0.07462037 0.06297451 0.15484932 0.56508255
000300 2b fc 70 be 1c fe 9d be bf e4 c7 3d 08 ca a4 3c
       -0.23533694 -0.30857933 0.09760427 0.020115867
000310 10 11 a7 be 03 53 bf bd 7a a1 d5 3c cf 75 0c 3d
       -0.32630205 -0.09342005 0.026077975 0.03429204
000320 d3 26 89 3e 72 0b 8e bd 17 8a b1 3e 0f c6 bd 3e
       0.26787433 -0.06935777 0.34675667 0.3706517
000330 93 6d a0 be 26 38 90 be 7b f1 38 3d f5 0b c4 bd
       -0.31333598 -0.28167838 0.04515217 -0.09572593
000340 f6 92 4e be ef 21 c3 3d 6c e5 4a 3d 75 31 e1 bd
       -0.20173249 0.09527957 0.0495352 -0.10995761
000350 95 24 8c bd d6 50 65 bd 31 21 a8 be fd 66 1b be
       -0.06842915 -0.055985294 -0.32837823 -0.15176006
000360 7d 9b 9f 3d 78 13 a1 3d b1 b4 ef bd 17 e5 9a 3c
       0.07793329 0.078650415 -0.11704386 0.018908067
000370 f9 60 51 bc 45 f0 13 be fe 03 bb 3d 54 c6 ce bd
       -0.012779468 -0.14447124 0.09131621 -0.10096422
000380 b2 1b 99 be 5a eb 08 bd 0e 3b a4 3d 58 81 d2 3e
       -0.29903942 -0.033427574 0.08019076 0.41114306
000390 c0 65 5e be 37 17 7c 3d a3 cf 33 3e b0 a2 15 be
       -0.21718502 0.061545577 0.17559676 -0.14612842
0003a0 45 70 5d be be 5f 6e be 2c fc 34 3e 3d 8c eb 3d
       -0.21624859 -0.2327871 0.17674321 0.11501358
0003b0 44 86 0c 3f b5 2b 37 be 75 55 61 be 39 e3 19 3d
       0.54892373 -0.17887767 -0.22005256 0.037570212
0003c0 65 2c 93 be eb d5 37 bf 36 3f 62 3e 66 9d cf bd
       -0.28744808 -0.7181079 0.22094426 -0.10137443
0003d0 9d e5 50 3a 77 e2 41 3d c5 0a 84 be 23 cb c9 be
       0.00079687854 0.047335114 -0.25789467 -0.39412794
0003e0 c1 eb fc be 4d 6d a3 3d 39 90 81 3e 23 c5 ab 3e
       -0.49398616 0.07979832 0.25305346 0.3354884
0003f0 75 68 48 bd 8d 64 6a bd 65 db 5a bd 76 67 fd bc
       -0.048927743 -0.0572248 -0.053431887 -0.030933123

conv_block_2.0.bias f4 [10]
000000 91 30 b3 3e 61 b8 14 3e 9b 24 52 3d 18 30 56 3e
       0.3499799 0.1452346 0.05130444 0.20916784
000010 5a 0a 47 3c fa 41 6a 3d 8e 47 09 3d 1a 70 47 bd
       0.012148464 0.057191826 0.033515505 -0.048690893
000020 b0 cf ec 3d a5 c1 4c 3e
       0.11563051 0.19995745

conv_block_2.2.weight f4 [10, 10, 3, 3]
000000 54 12 86 be 96 96 19 be ef 89 ba 3e e3 04 05 3e
       -0.26185858 -0.1499885 0.3643336 0.12990145
000010 ae 3e d9 3e 5a 81 54 3e 53 9d 81 be c7 8c 95 be
       0.42430633 0.20752469 -0.2531534 -0.29208967
000020 6a 11 84 be 4c b5 75 3d 78 c9 f2 3c 9f 1b 7a 3e
       -0.25794536 0.05998735 0.029637083 0.24424599
000030 cd 88 41 3e 5a d7 b5 3d 02 10 53 3c 10 ed d7 be
       0.18899842 0.08878966 0.0128822345 -0.42173052
000040 50 d5 c7 be 8f 26 cf be 92 08 94 be 75 85 8e be
       -0.39029932 -0.40459105 -0.2891279 -0.27836195
000050 92 e0 b4 be 64 e1 ee bd 9a c0 2f 3c 43 fb d9 3c
       -0.35327584 -0.116640836 0.010727072 0.026609069
000060 1a dd 17 bf 1f 86 62 be ec 73 2f be d1 44 02 3e
       -0.5932175 -0.22121476 -0.17134064 0.12721564
000070 56 83 e2 bc 60 e5 0f 3e 1e a7 8e bd 9f b9 2f bd
       -0.027650516 0.14052343 -0.06965469 -0.04290163
000080 f4 2a fd bd f4 ce d7 bd 4a a6 85 bd c8 0b e1 bd
       -0.12361708 -0.1053752 -0.06525858 -0.10988575
000090 55 fc ca bc 7e 65 b1 3e a5 70 fd 3d 75 aa 7d 3d
       -0.024778524 0.34647745 0.12375001 0.06193014
0000a0 75 d6 ac 3d 4a 09 ce bd d9 5f a2 bd f8 da 26 bd
       0.08439342 -0.100603655 -0.07928438 -0.04073617
0000b0 44 3c 84 3d 35 ea a6 bd 6a 5a c8 bd fe 93 af bd
       0.06456807 -0.0815014 -0.0978287 -0.08573149
0000c0 87 48 43 be 53 38 9c bd 64 86 02 be 29 4e a5 be
       -0.19070636 -0.076279305 -0.12746578 -0.32286194
0000d0 f4 93 13 bd 28 66 85 bd c9 7a bf 3d 17 20 b8 bd
       -0.03602977 -0.065136254 0.09349591 -0.08990496
0000e0 71 d5 02 3c 23 22 81 be 84 cb 4c be eb e0 db bd
       0.007985459 -0.25221357 -0.1999951 -0.10736259
0000f0 7a 4b 34 3e fd 24 73 bd 8c 9d 10 3e 27 21 a5 bd
       0.17606917 -0.059361447 0.141226 -0.08062964
000100 d4 49 96 bd 4e f2 0b bc 57 ff a0 bd dd ed b4 3d
       -0.073383 -0.008541657 -0.07861202 0.08834431
000110 f1 2f dc bd 0b 74 51 3b a8 61 b7 bd b7 24 94 bd
       -0.107513316 0.0031960036 -0.08954173 -0.07233565
000120 57 15 b6 be 3f 31 88 be cd 3d 99 be a1 72 cf 3d
       -0.35563156 -0.26600072 -0.29929963 0.101292856
000130 15 a9 a9 3e eb f5 33 3e b4 57 91 3d d6 4d 63 be
       0.33136812 0.17574279 0.07096806 -0.22197661
000140 8b e1 ad bd 28 10 54 3a 4b 77 8d 3c 7a 38 ba 3b
       -0.084902845 0.00080895657 0.017268797 0.005683002
000150 a4 b6 35 be 24 ac 01 be 7f a2 3b be 22 b2 2c 3e
       -0.17745453 -0.12663323 -0.18323706 0.16864827
000160 da 9f 29 3e 9d 7d 1b 3e c5 3e 1f 3f da 3b 7f 3e
       0.16564885 0.15184636 0.62205154 0.24925175
000170 86 36 a2 be 30 2c 75 3e b2 3d 5b bf 47 6b dd be
       -0.31682223 0.23942637 -0.85641015 -0.4324591
000180 f8 39 2e be 79 04 a3 be 84 da 5d 3e 99 26 fb 3d
       -0.17014301 -0.3183935 0.21665388 0.12263221
000190 fb 1e b9 be f7 d7 e8 bd 55 ba 84 be ee 27 e6 be
       -0.3615645 -0.11369317 -0.2592341 -0.4495234
0001a0 3b 87 7f 3d ec db fa bd a7 7e 8c 3d 53 90 02 3d
       0.062384825 -0.12248978 0.068600945 0.03187592
0001b0 b2 a3 95 bd d2 fe 45 be c5 af 91 be 1c 06 33 be
       -0.07306613 -0.19335487 -0.28454414 -0.174828
0001c0 05 09 b7 be af c1 cd be 4a 31 87 be b5 ef 6d be
       -0.3574907 -0.4018683 -0.26404792 -0.23235972
0001d0 64 5c be be 6a 62 a2 bc b7 39 31 be e6 68 e9 3d
       -0.37179863 -0.019822318 -0.17307173 0.11396961
0001e0 06 97 92 3c 28 78 84 3d 0f b2 cd 3c a7 06 5d 3d
       0.01789428 0.064682305 0.025109319 0.053961422
0001f0 ce f3 43 3d e3 64 97 bd fc 0b b0 be a6 ad be bd
       0.047839932 -0.073922895 -0.34384143 -0.093104646
000200 35 20 67 3e 7b 6d 2d bf b7 7a 5b be f1 f3 d7 3e
       0.2257088 -0.6774518 -0.21433531 0.421783
000210 91 54 20 be 37 33 7e 3e 39 9b 85 3e 59 2c cb bd
       -0.1565726 0.24824224 0.26094988 -0.09920568
000220 1a fd 00 3d 5f 3c e6 3c 15 41 15 be 79 23 c6 bd
       0.031491376 0.028104959 -0.14575608 -0.096747346
000230 26 2f 3b be 89 8b 1f be 82 04 56 bc b1 45 59 be
       -0.18279704 -0.15580572 -0.013062598 -0.21217991
000240 a9 a7 b4 bd eb 70 b7 bd 71 6a 0c bd ec 4b a6 3d
       -0.08821041 -0.08957084 -0.034281198 0.0811995
000250 55 79 63 bd 9d c4 12 3e 4b 98 dd bd 38 6c 5e bd
       -0.055535633 0.14332815 -0.10820063 -0.054302424
000260 37 b8 a5 3d 7a 3e 3f ba 4f 58 27 3b 35 ba 0e 3e
       0.08091777 -0.00072953815 0.0025534814 0.1393822
000270 36 29 db bd 4b 53 01 bd 35 6b 59 3c cf 86 0d 3c
       -0.1070122 -0.031573575 0.013270189 0.008638098
000280 d8 70 18 bd b2 20 45 3d 46 19 ba be 9e d3 aa 3e
       -0.03721699 0.048126884 -0.36347407 0.33364576
000290 0f 20 53 be 74 11 db bc 90 2a 54 3d 72 64 6c be
       -0.20617698 -0.02674172 0.051798403 -0.23085192
0002a0 78 11 65 3e 72 f8 64 3e 12 6a 30 3d 10 a2 98 be
       0.22369945 0.223604 0.043069907 -0.29811144
0002b0 cd 11 8d bc 6e 53 8c 3e 8f 85 e5 be ed c6 ad 3d
       -0.017220402 0.27407402 -0.4482846 0.08485208
0002c0 32 6d a0 3d 8f c8 d9 be e8 7f 6d be a0 33 f1 be
       0.07833327 -0.42535827 -0.23193324 -0.471097
0002d0 9d 8d a1 be b6 46 a5 be 6b 9c b7 be 1c a5 c1 bd
       -0.31553355 -0.3228051 -0.35861525 -0.0945532
0002e0 d5 7d 1f 3d cf 40 0f 3e cd c9 8e bd 03 c3 23 bc
       0.038938362 0.13989566 -0.06972084 -0.009995225
0002f0 bb 1d 7b 3e c2 ad be 3d be 2b 03 3e 03 c8 bf 3d
       0.2452306 0.093104854 0.12809655 0.09364321
000300 f3 56 14 bd fd ff 55 bd 32 0b c6 bd 96 ee a3 3c
       -0.036215734 -0.052246083 -0.09670104 0.020011228
000310 3f 38 f4 3d 33 8c 45 3d a9 da dc 3e 4b 89 88 3e
       0.119247906 0.048229408 0.43135574 0.26667246
000320 c2 b4 be 3e d9 14 c9 bd ed b1 ac be 6e e1 fe be
       0.37247282 -0.098184295 -0.33729497 -0.49781364
000330 5c a0 f4 bd df c4 39 3e bf 4d ca 3d 5b 87 ad bc
       -0.119446486 0.18141507 0.0987811 -0.021182707
000340 be 30 c6 bd 09 9d 63 bd 8d 36 d9 3d b9 c9 8e 3d
       -0.096772656 -0.055569682 0.10606108 0.06972069
000350 31 82 a4 3d 14 f8 f4 3d 2f cf e9 3c 09 21 67 3e
       0.080326445 0.1196138 0.028541176 0.22571196
000360 67 e9 8b be f8 20 ce bd 8f 6f 08 be d5 b3 d9 be
       -0.2732651 -0.10064882 -0.13323806 -0.42520013
000370 6b 05 a7 be 58 df f8 bd 0f e2 2c 3d 8a b8 61 3e
       -0.3262132 -0.121519744 0.042207774 0.22043052
000380 c9 9f b8 3e 14 99 35 bd e4 05 46 bc 26 0c 93 3d
       0.36059406 -0.04433544 -0.012086365 0.071800515
000390 52 54 af be 20 66 7a be 59 34 65 be fc c6 46 bd
       -0.3424402 -0.2445302 -0.2238325 -0.04852961
0003a0 c4 85 06 3e 23 d1 96 3e 70 1e 2a 3d 1e 8f a0 3d
       0.13136965 0.29456434 0.041532934 0.078397974
0003b0 b8 7f 50 bd e8 96 9f 3d 4c 4f c4 bd f4 dd ec bd
       -0.050903052 0.07792455 -0.09585437 -0.11565772
0003c0 30 b0 0c be 4c 20 36 be 75 eb 6e 3d 79 51 15 be
       -0.13739085 -0.17785758 0.058330018 -0.1458186
0003d0 ae 2f 84 bd d0 c2 5d bd 7d 1d 25 bd b2 66 0f bd
       -0.06454407 -0.054140866 -0.040311325 -0.035010047
0003e0 87 92 0f 3d 29 96 23 3d 64 96 0b bd 38 1e ed 3b
       0.03505185 0.039938126 -0.03407897 0.0072362684
0003f0 c2 66 3f be c8 e7 9f be a1 9e bf be b5 78 8e be
       -0.18691543 -0.31231523 -0.37425712 -0.27826467

conv_block_2.2.bias f4 [10]
000000 42 34 70 be e9 6b e5 3d b1 87 90 bc 30 47 81 be
       -0.23457435 0.11202223 -0.017642828 -0.25249624
000010 4c 38 4e 3e 44 ca 83 3d 33 67 c4 bd d2 92 21 3d
       0.20138663 0.064350635 -0.09589996 0.03944666
000020 c2 9e e3 3e 3a 8a 5b 3e
       0.4445706 0.21439448

classifier.1.weight f4 [10, 490]
000000 5b c8 ba 3c 8b 0d 20 bd 30 73 91 bd d5 2b ed 3c
       0.022800615 -0.039075416 -0.071020484 0.028951565
000010 74 40 8a 3d a2 ca a0 3c 4f bc bd 3c 9b a1 81 3d
       0.06750575 0.019627873 0.023161082 0.06329652
000020 5d b2 89 3d 0f 2e 97 3d 4a f9 8c bd 2e e1 a7 bc
       0.06723473 0.07381832 -0.068834856 -0.020493116
000030 6d d6 b1 3c 47 53 5c 3c 38 a0 cb 3b 55 9a c2 3d
       0.021708691 0.013447589 0.006214168 0.09502093
000040 c9 c1 d9 bd 67 40 6d be e3 2e da be 95 8d 07 be
       -0.10632665 -0.23169099 -0.42613897 -0.13237603
000050 d2 8d e0 bb bc 4d 06 bd 74 62 9e bc 28 24 bd bd
       -0.006852844 -0.032788977 -0.019334055 -0.09235412
000060 4c 92 b8 bc cf 94 cd bc 7d 2f 3d be c0 67 9b bd
       -0.022530697 -0.025095372 -0.18475147 -0.07588148
000070 74 13 10 3c ce 12 8e bd 97 7f 85 3d 96 3e 4f 3c
       0.0087937005 -0.069371805 0.065184765 0.012649199
000080 bb 78 24 be 94 b2 30 bd 7a 62 12 bd a6 c6 15 bd
       -0.1606168 -0.043139055 -0.035738446 -0.0365664
000090 66 0c 6b bd 9e c0 52 3d d6 38 1a bc 91 90 14 3d
       -0.05738487 0.051453225 -0.009412965 0.03627068
0000a0 ab 85 b3 3c ed 39 af bb 83 bd b6 3c f5 1a 3a bb
       0.021914324 -0.0053474815 0.022307163 -0.0028397415
0000b0 bf ce 4f 3d fa 40 9b bc f1 4b c3 bc 98 1f 39 bb
       0.050734278 -0.018951882 -0.023839923 -0.002824759
0000c0 cb ad 06 bd 78 03 c2 bc de 6d 8d bd 86 ec 0e bd
       -0.032880586 -0.023683295 -0.06905721 -0.034893535
0000d0 c5 99 1c bd d2 fb de bb 18 68 5c 3d e5 d9 97 3b
       -0.038232584 -0.0068049217 0.05381021 0.0046341293
0000e0 a4 d4 f7 bc 79 d9 11 be 07 5e ea bd de c1 4d be
       -0.030252762 -0.14243115 -0.114437155 -0.20093486
0000f0 25 df a5 bd 9f 03 03 be 33 92 31 bd 75 54 4b bc
       -0.08099202 -0.1279435 -0.043352317 -0.012410273
000100 c5 0a c1 bc ab 35 8c 3d 58 75 52 bc 43 25 d7 be
       -0.023564706 0.06846174 -0.01284536 -0.42020616
000110 58 2a d6 ba dc a3 a6 3c 26 31 2f 3c 31 c6 b0 3e
       -0.0016339524 0.020341806 0.01069287 0.34526208
000120 98 bb 7c 3e f5 9f 1a be 89 86 a2 3d 6e b2 6a 3d
       0.24680936 -0.15100081 0.07935817 0.05729907
000130 91 c0 c9 bc 8d bf e8 3c fa ad 93 3e 82 87 fc 3d
       -0.024627956 0.028411651 0.2884367 0.123305336
000140 34 3f a8 bd 2d 41 00 3e 10 66 86 bd 7b 11 cc bc
       -0.0821518 0.12524863 -0.065624356 -0.02491068
000150 7e df bc bc a2 d3 92 3d e8 91 be bd dd c6 b4 bd
       -0.023055788 0.07169272 -0.09305173 -0.08826993
000160 31 50 0f bd 7e 04 a3 bc 2d 5d 49 bd 91 5d a0 bc
       -0.034988586 -0.019899603 -0.049161125 -0.019575866
000170 26 a2 16 3d 18 e9 da 3c 6b 1a 12 bd 66 95 58 ba
       0.03677573 0.026722476 -0.035669725 -0.0008262008
000180 8c d8 13 bd db fa ae 3c 20 a8 d4 3c 1f b6 15 3d
       -0.036095187 0.021359852 0.025959074 0.036550637
000190 68 a5 3d 3d 00 86 64 3b 7a 02 a1 bc 15 df 0d 3d
       0.04630032 0.003486991 -0.019654501 0.034636576
0001a0 75 82 9a 39 97 eb 73 bc 18 fb fb bb 74 15 5a bd
       0.00029470367 -0.014887712 -0.007689845 -0.053243116
0001b0 27 c1 ae bd 9a 48 10 bd 44 ff 4e 3c f9 b2 44 bd
       -0.08532935 -0.03522549 0.012634102 -0.048022244
0001c0 ed c2 48 bd c9 6b 45 be 7b fe 17 be ed bc 18 bc
       -0.04901402 -0.19279398 -0.1484317 -0.009322387
0001d0 89 fc 03 be 5c 83 4c 3c 3b ea 3d bd 72 a5 cf bd
       -0.12889303 0.01248249 -0.046365958 -0.10138978
0001e0 0a 5f 69 be d9 16 5e be 4c b0 59 be fc 90 49 3b
       -0.22790161 -0.21688403 -0.21258658 0.0030756583
0001f0 04 5f d1 3d f7 64 1d be 82 a5 39 bd 2e 9e a2 be
       0.10223201 -0.15370546 -0.045323856 -0.31761307
000200 f7 5f 97 be 5f 08 b2 be 15 09 21 be ad 10 40 bd
       -0.29565403 -0.34772012 -0.15726121 -0.046890903
000210 de cc bf bd 9e 91 89 3d 68 e4 0f bd 40 37 e1 bd
       -0.09365247 0.067172274 -0.035129935 -0.10996866
000220 82 e4 24 3e 63 19 9a 3e 79 27 a0 3d ea 91 6a bc
       0.16102794 0.30097494 0.07820029 -0.014317015
000230 ce e9 04 3d 89 8b 4e bd 70 31 8b 3d 87 2d 0b 3e
       0.032449536 -0.05042604 0.06796539 0.13591586
000240 5c 40 56 bc 03 be db bd 2e fa 88 bc ac dc c6 3b
       -0.013076868 -0.10729601 -0.016720857 0.0060687866
000250 17 41 93 bd 9a 67 4e bc 9b b5 41 bd 22 59 76 3c
       -0.07190149 -0.012597943 -0.047292333 0.015035899
000260 b8 6c 0d 3e 9c f5 bc 3d ff 2a e2 bc 1d 77 de 3d
       0.13811004 0.09226534 -0.027608393 0.10862563
000270 75 fa 60 3d cb d6 2d 3d 21 e4 83 3e 8b 1f 20 3c
       0.054926354 0.04244117 0.25759986 0.009773145
000280 57 bf a9 3d 13 0f cb 3b 9a fd 13 3d a1 36 f0 bd
       0.08288448 0.0061968653 0.036130525 -0.1172917
000290 24 33 60 be 75 55 5f be 72 70 eb bc c2 00 dc 3d
       -0.21894509 -0.21809943 -0.028740142 0.10742332
0002a0 58 26 4d 39 e6 a2 f9 bd a1 76 a5 bd 0f eb 8f be
       0.00019564608 -0.121892735 -0.08079267 -0.28109023
0002b0 5f a2 37 be af d9 90 be 1c 95 d9 3c a0 79 72 bc
       -0.17933033 -0.2829108 0.026560359 -0.0147995055
0002c0 cd 98 d3 bd 2d 9a c8 3c 42 a7 f5 3e 30 30 67 be
       -0.10331879 0.02448758 0.4797917 -0.22576976
0002d0 eb 9b 95 bd 9e 76 e2 bc eb b8 c1 3c 75 7f f9 bb
       -0.073051296 -0.027644452 0.023647746 -0.007614071
0002e0 28 db 48 3d 22 14 cd 3d 50 b2 50 bc 91 55 ca bd
       0.04903713 0.10013606 -0.0127378255 -0.09879602
0002f0 8b 02 4b bd 2d ed bc bb 9b fc 89 3c 3a b8 93 bc
       -0.049562972 -0.0057655782 0.016844084 -0.018032182
000300 bc a7 fd bc 01 95 62 bd 9b 68 2e bd de e1 81 bb
       -0.030963771 -0.055317882 -0.04258023 -0.003963693
000310 05 79 d4 3b 31 5a db bd d0 b5 1d be f4 87 f8 bd
       0.006484153 -0.10710562 -0.15401387 -0.12135306
000320 ba 21 7c 3d 4b 64 91 3d 9e 4e bc bc 7d 30 04 3b
       0.0615556 0.070992075 -0.022986706 0.0020170503
000330 42 dc 9d 3d bd ca a6 bc 2f 6b 23 3e 9c 3a a3 3e
       0.077080265 -0.020360345 0.15958856 0.31880653
000340 6d 19 d2 3e 4e e5 e1 3d 1d 8a a8 3d a2 63 85 bd
       0.41035023 0.110300645 0.08229468 -0.06513144
000350 cd 9a a4 be 48 64 4b be be 70 4b bd 59 a3 2a bc
       -0.32149354 -0.19862473 -0.049668066 -0.010414922
000360 ac 6a c1 3d 4b b8 53 3c 31 6c 23 3e 47 c0 2a be
       0.09444174 0.012922357 0.1595924 -0.1667491
000370 38 f2 84 3d 03 c4 fe be 2f cb 0a be 87 44 d8 3c
       0.06491512 -0.4975892 -0.13554071 0.026399864
000380 e2 b2 29 3d 31 5d 4f 3d 63 3c 5d 3e cd 38 16 3e
       0.04143036 0.050625984 0.21605067 0.14670105
000390 28 ff 71 be 14 42 05 be 16 26 41 bd 17 03 2e 3d
       -0.2363249 -0.13013488 -0.047155462 0.042483415
0003a0 49 93 ba 3d de 19 0a 3e ee 57 14 3e 23 08 6e bd
       0.09110124 0.1348643 0.14486668 -0.05811323
0003b0 2a 09 2a bb 30 9a 3d 3c 51 d1 e9 3c a2 75 e0 bc
       -0.0025945404 0.011572406 0.028542193 -0.027399842
0003c0 62 ad 8d 3b ac 3a 33 3c ed ed 17 ba a4 c2 6a 3c
       0.0043236474 0.010939281 -0.00057956466 0.0143286325
0003d0 a4 8d 38 3c 1f 43 28 bc 6a 8f 8b 3d 48 1c 39 bd
       0.0112642385 -0.010269909 0.068144634 -0.045192987
0003e0 77 d7 ff 3d 8e 4b eb 3d 5b e2 46 3d 93 af 2a 3d
       0.124922685 0.1148902 0.048555713 0.041671347
0003f0 ba 75 05 3d 45 f5 c3 bd 2c f0 a0 bd 66 2c 2e be
       0.032582976 -0.09568266 -0.07858309 -0.17009124

classifier.1.bias f4 [10]
000000 26 1f 96 3b da 36 0d 3f 40 64 04 3e e0 c1 4f be
       0.00458135 0.5516182 0.12928867 -0.20288801
000010 5d 19 95 bd f9 ae 20 be 40 7e a6 bd 13 8d 18 3e
       -0.07280228 -0.15691747 -0.08129549 0.14897566
000020 fb ef 32 be 77 d2 2a be
       -0.17474358 -0.16681848
