models/mnist_pytorch_model.pth (torch, 932905 bytes, 12 tensors)

cnn.0.weight f4 [32, 1, 5, 5]
0.06452207 -0.19096039 -0.08887049 0.22703123 0.18859401 -0.20612882 -0.1045812 -0.11750497
0.08088008 -0.1303892 -0.10199715 -0.15253192 0.061237328 0.05304777 0.1827277 -0.05703515
-0.18380201 0.048517313 0.101139896 -0.018120129 -0.01203984 -0.09603506 -0.20623262 0.008923398
0.116279915 0.003188214 0.14908428 0.034558076 0.12897082 0.054794457 0.17212798 -0.068095766
-0.048378482 0.20250592 -0.12372003 -0.1476239 0.0574352 -0.041257408 0.15047821 0.0016507931
0.051497694 -0.19730204 0.0018015403 0.09558561 0.028208092 -0.16748714 -0.15371518 -0.004939355
-0.087508306 -0.08833849 -0.012655511 -0.027105791 -0.047677293 -0.08580975 0.0342519 -0.14033812
0.0918377 -0.2160016 -0.11180575 -0.003778341 0.1969749 0.09267671 0.1742186 -0.11412481
0.057999883 -0.13984689 0.22238243 -0.10516104 -0.16647127 -0.12473625 0.13981381 -0.053417753
0.16016482 0.21217903 0.10091219 -0.113090776 -0.20501763 -0.10355211 0.14277384 0.15061647
-0.13099602 0.041324053 0.14691387 0.12394161 0.20305312 0.048104055 -0.037732527 -0.056315646
0.055195343 0.07359015 0.14599802 -0.15417887 0.13672057 -0.0033326899 -0.1409438 0.05952975
-0.07243583 -0.20671478 -0.17388742 -0.016780281 0.19630425 0.15253843 -0.049522277 0.16943064
-0.009646528 0.19435254 -0.17286222 -0.021098208 0.19170307 0.1428867 -0.0013012536 -0.1251534
0.15563223 0.06601137 -0.1542266 0.14131244 -0.073423676 0.14337113 -0.19345525 -0.07898755
-0.022316344 -0.20166638 -0.19909701 -0.16679518 0.084803045 0.05612086 -0.21040863 0.10590972
-0.15599947 0.14650764 -0.099574804 -0.14099161 0.02252636 0.18598649 0.1299241 0.04096901
0.056673616 -0.054716077 0.08658584 0.11567288 -0.18286641 -0.0076596937 -0.16924758 0.023460597
0.056428384 -0.049504068 -0.059141707 0.16202196 0.10697227 -0.06014938 -0.2045274 0.11626704
-0.15989885 -0.26577446 -0.25355724 0.048928153 0.16824247 0.019785458 0.052738857 0.12577987
0.09493414 -0.12967424 -0.18301477 0.17389497 0.058187883 0.16823944 0.093847685 0.065943524
-0.073019646 -0.044469327 0.007566945 -0.04484042 0.14982931 -0.105495565 0.1695603 0.049909435
0.004321726 0.13941978 -0.014401075 0.043497216 -0.26935473 0.05751729 -0.17765427 -0.13500111
-0.210994 0.055060986 -0.21670564 0.074745364 0.05823735 0.13390145 0.12730934 0.023653833
0.10147443 0.0006929091 -0.09244508 0.071231924 -0.092343494 -0.06536709 -0.03457867 -0.019466212
0.16626345 -0.0031713103 -0.2651264 -0.09380487 0.10643085 0.005055886 0.1595767 -0.051180575
0.06015222 0.18088877 -0.17501855 0.21336247 0.20241967 -0.013843796 -0.23136841 -0.06170657
-0.023933407 -0.15294933 0.013169641 -0.060739942 -0.00594512 -0.10758517 0.12713364 0.020920854
-0.041980725 0.145487 -0.19319838 -0.09831824 -0.15152052 0.1963673 0.10649987 0.10989298
-0.009860863 0.1431868 0.20076767 -0.19663738 0.15072483 0.048975576 -0.027006838 -0.09571397
-0.0014897082 -0.079485446 -0.15676308 -0.23043092 -0.2682875 -0.0069951126 -0.1422222 -0.11565999
0.0870233 0.07555433 -0.2297341 -0.13023321 -0.12189182 0.0062565063 0.02472983 0.12511812
00000000: 2624 843d 1f8b 43be bb01 b6bd e07a 683e
00000010: ca1e 413e 6f13 53be ab2e d6bd 72a6 f0bd
00000020: 75a4 a53d bf84 05be e2e3 d0bd 5431 1cbe
00000030: fed3 7a3d 9e48 593d f81c 3b3e b09d 69bd
00000040: 9836 3cbe 17ba 463d 6f22 cf3d aa70 94bc
00000050: c042 45bc 08ae c4bd a52e 53be 7233 123c
00000060: 2a24 ee3d 5bf1 503b 8da9 183e c58c 0d3d
00000070: ed10 043e 2770 603d 5142 303e cb75 8bbd
00000080: 8428 46bd b65d 4f3e ed60 fdbd b82a 17be
00000090: 2c41 6b3d 87fd 28bd f616 1a3e 6d5f d83a
000000a0: 3fef 523d 8c09 4abe a921 ec3a 63c2 c33d
000000b0: a814 e73c c081 2bbe 8367 1dbe 50da a1bb
000000c0: 8e37 b3bd cfea b4bd 0f59 4fbc f70c debc
000000d0: 4449 43bd 06bd afbd b84b 0c3d ccb4 0fbe
000000e0: 6715 bc3d 862f 5dbe 6afa e4bd 0b9e 77bb
000000f0: cab3 493e 49cd bd3d 5c66 323e 45ba e9bd
00000100: 4991 6d3d 0634 0fbe 38b8 633e ac5e d7bd
00000110: 7277 2abe b875 ffbd 5a2b 0f3e 93cc 5abd
00000120: 3f02 243e 7645 593e 0dab ce3d 239c e7bd
00000130: 24f0 51be 2113 d4bd 4e33 123e 343b 1a3e
00000140: d223 06be 6943 293d 9770 163e 19d5 fd3d
00000150: 28ed 4f3e c208 453d 6c8d 1abd 3cab 66bd
00000160: 8314 623d 6fb6 963d 8180 153e 11e1 1dbe
00000170: 7a00 0c3e 4269 5abb 9253 10be 78d5 733d
00000180: 3d59 94bd 0aad 53be 8b0f 32be cd76 89bc
00000190: fb03 493e 0933 1c3e dfd7 4abd 3a7f 2d3e
000001a0: 790c 1ebc 5a04 473e cb02 31be 26d6 acbc
000001b0: cf4d 443e e450 123e d38e aaba 3628 00be
000001c0: 0e5e 1f3e f830 873d 94ed 1dbe 35b4 103e
000001d0: 275f 96bd e2cf 123e 2219 46be 3ac4 a1bd
000001e0: c4d0 b6bc a281 4ebe 16e0 4bbe 5bcc 2abe
000001f0: 38ad ad3d fdde 653d 5c75 57be 32e7 d83d
00000200: 53be 1fbe 1906 163e e0ed cbbd 1b60 10be
00000210: 3389 b83c 3e73 3e3e d30a 053e 1fcf 273d
00000220: 9822 683d f71d 60bd eb53 b13d e7e5 ec3d
00000230: 5541 3bbe 2bfe fabb 3d4f 2dbe 7030 c03c
00000240: 7321 673d c7c4 4abd 933e 72bd 16e9 253e
00000250: 4714 db3d 325f 76bd a16f 51be 6a1d ee3d
00000260: 86bc 23be 9713 88be 41d2 81be e368 483d
00000270: c147 2c3e 1d15 a23c b304 583d 70cc 003e
00000280: d56c c23d 53c9 04be 3968 3bbe 8611 323e
00000290: 6b56 6e3d f646 2c3e 3733 c03d 660d 873d
000002a0: 538b 95bd 7825 36bd 23f4 f73b 97aa 37bd
000002b0: db6c 193e 0f0e d8bd 37a1 2d3e d66d 4c3d
000002c0: 449d 8d3b 0fc4 0e3e 7df2 6bbc 232a 323d
000002d0: dde8 89be 4097 6b3d 00eb 35be bb3d 0abe
000002e0: d00e 58be a187 613d 15e8 5dbe 1914 993d
000002f0: 4a8a 6e3d 761d 093e 615d 023e afc5 c13c
00000300: d3d1 cf3d 58a4 353a d953 bdbd 0be2 913d
00000310: 961e bdbd 2edf 85bd 5da2 0dbd 9b77 9fbc
00000320: f740 2a3e c2d5 4fbb a6be 87be c51c c0bd
00000330: 6bf8 d93d d9ab a53b 1368 233e b9a2 51bd
00000340: 2d62 763d e83a 393e 1038 33be b17b 5a3e
00000350: 1a47 4f3e 17d1 62bc d7eb 6cbe 07c0 7cbd
00000360: fe0f c4bc c09e 1cbe 7ac5 573c 72ca 78bd
00000370: 48cf c2bb 9d55 dcbd 522f 023e 3662 ab3c
00000380: fbf3 2bbd 8bfa 143e ccd5 45be 135b c9bd
00000390: 3228 1bbe 8214 493e 9b1c da3d 920f e13d
000003a0: 758f 21bc 8f9f 123e 0a96 4d3e 4f5b 49be
000003b0: 9c57 1a3e 9d9a 483d 723d ddbc b005 c4bd
000003c0: 5042 c3ba 44c9 a2bd 8086 20be 15f6 6bbe
000003d0: fb5c 89be 4237 e5bb b2a2 11be 25df ecbd
000003e0: 4639 b23d 3bbc 9a3d 6a3f 6bbe db5b 05be
000003f0: 6ba2 f9bd 6103 cd3b 3696 ca3c f71e 003e

cnn.0.bias f4 [32]
-0.041004814 -0.022568787 -0.07726878 0.10636341 -0.024772674 0.012506526 -0.007058096 0.14764273
-0.12365122 -0.0009530301 -0.1407064 -0.14236958 -0.13342912 0.03675249 -0.0093663 0.010871031
-0.17915076 0.100263506 0.16359626 -0.001058599 0.061265625 0.00045737493 0.03090058 0.12341655
0.057123847 -0.08893092 0.096784465 -0.16427359 0.041117232 -0.128261 0.0091812145 0.0051364796
00000000: aaf4 27bd 2de2 b8bc 183f 9ebd 0fd5 d93d
00000010: 10f0 cabc 2ce8 4c3c 9a47 e7bb a82f 173e
00000020: da3c fdbd c4d4 79ba 5715 10be 55c9 11be
00000030: a5a1 08be c789 163d 1c75 19bc 691c 323c
00000040: 4c73 37be f456 cd3d c785 273e b0c0 8aba
00000050: aaf1 7a3d d3cb ef39 3723 fd3c d1c1 fc3d
00000060: b2fa 693d 6a21 b6bd ef36 c63d 5637 28be
00000070: 8b6a 283d da56 03be ce6c 163c ea4f a83b

cnn.2.weight f4 [32, 32, 5, 5]
0.028400946 -0.026701516 0.012280995 -0.03955323 0.00024276372 -0.022294164 -0.03002029 -0.01640531
0.022584477 0.013934546 0.023263194 -0.033870734 -0.027163692 0.029287571 0.011233639 0.013137345
-0.00097401254 -0.0044469205 0.014096668 0.0013738333 0.0044523194 0.022450658 0.025157072 0.028191099
0.014765239 -0.022003554 -0.007909566 -0.02009016 0.0017171907 0.034290295 0.016666936 -0.028185068
-0.026768181 -0.03869729 -0.008056396 0.03215383 -0.0064589884 -0.0044720946 0.008081263 0.019646043
-0.013600663 0.029745683 -0.035852946 -0.005998824 -0.0052339383 -0.024533238 -0.026891613 -0.02875721
-0.008640551 0.008702295 -0.022736777 -0.03542348 -0.03475751 0.016041024 -0.026733708 0.02081263
0.006171093 -0.0044987914 0.023918653 -0.037456244 0.022401445 -0.017877499 -0.0124349035 0.0076961312
-0.030969916 0.0013629153 0.0323812 0.015458955 -0.020241594 0.004353929 0.02003943 0.004141301
-0.018226312 0.008389574 0.01378623 -0.018940844 -0.028238272 0.016520565 -0.04238819 -0.023986802
-0.024006104 0.0057216324 0.017754506 -0.03104228 -0.024791872 0.007740829 -0.0028509696 0.0016203532
-0.027195001 -0.01747443 -0.034862965 0.015565354 0.019877372 0.00652943 -0.003653027 -0.02552188
0.017761787 -0.023215098 -0.041126758 -0.02068538 0.0032225803 -0.028961362 0.030942608 0.021370523
0.00044944545 -0.019378757 0.024919072 0.00014610472 -0.034007166 -0.013286367 0.015263385 -0.016376728
0.01838294 0.0068733194 0.017597055 -0.008242735 -0.0048751314 0.01719546 -0.018622741 -0.01887151
-0.02057693 0.013392616 -0.026891613 -0.01643 -0.0073787556 -0.039670732 0.0071315034 -0.030142255
0.02062378 -0.0026328613 0.007235898 0.0105041275 0.020304212 -0.027811706 0.018806195 -0.013781117
0.023883587 -0.008020851 -0.008499719 -0.033884563 -0.012363847 -0.0050100195 -0.025300168 -0.009157701
-0.037223186 0.02635131 -0.003957033 0.024302162 -0.004470531 -0.02712341 -0.03981894 0.027915936
-0.040202662 0.00071768265 0.0128720915 0.013941442 -0.01716625 0.024071615 -0.027982146 -0.016411483
-0.020481497 -0.028733028 0.0021400664 0.018487131 0.017547393 -0.010304219 -0.018567955 -0.019989671
-0.014342676 -0.026643889 -0.012863524 -5.648035e-05 0.00057733426 -0.03234462 -0.028263098 0.015240757
0.01969283 0.00811048 0.02158422 0.02373203 -0.0059002847 -0.013388974 0.015122575 -0.009011116
-0.0344485 0.01807019 -0.041102763 -0.03628961 0.02509484 0.027160313 -0.021609906 -0.022555385
-0.017834518 0.014352872 0.0063324077 0.009918939 0.0054097977 -0.0055828136 -0.0066323024 -0.0060207206
-0.014401427 0.005625551 0.0037831399 -0.0073951203 0.027249994 0.01241573 -0.019517073 0.028318519
0.031803094 -0.0010006846 0.0330701 0.018966379 0.020570092 0.0115610305 0.01909064 0.009792635
-0.014677198 0.009173561 -0.023684468 -0.032888018 0.022378892 0.027158735 -0.01210711 -0.031234361
-0.037664812 -0.011010131 0.022128556 -0.010081232 0.02302898 0.00728557 0.0030586116 0.033536915
-0.03382643 -0.024777783 -0.017638242 0.018004172 -0.008865747 -0.00805955 -0.038902882 -0.013689197
-0.011152117 0.026827585 -0.00045974582 -0.021074183 0.03134353 -0.023086233 0.031913485 -0.017850447
-0.0031663827 0.019913575 -0.03545803 -0.02734048 -0.034387656 0.016971655 -0.011329571 0.011256368
00000000: 1aa9 e83c 23bd dabc 3a36 493c 9102 22bd
00000010: 648e 7e39 40a2 b6bc 1ced f5bc 6e64 86bc
00000020: 1503 b93c b94d 643c 7492 be3c 0abc 0abd
00000030: 6486 debc 7dec ef3c 4c0d 383c 053e 573c
00000040: e054 7fba 79b7 91bb b6f5 663c 3212 b43a
00000050: c3e4 913b 71ea b73c 3416 ce3c 05f1 e63c
00000060: e7e9 713c cc40 b4bc 2097 01bc 1f94 a4bc
00000070: 5c13 e13a fb73 0c3d 1989 883c 5fe4 e6bc
00000080: f248 dbbc 0d81 1ebd f9fe 03bc bcb3 033d
00000090: eca5 d3bb a68a 92bb 4667 043c bdf0 a03c
000000a0: 51d5 5ebc 38ad f33c 8ada 12bd c891 c4bb
000000b0: 7581 abbb eef9 c8bc cd4b dcbc 3e94 ebbc
000000c0: 1991 0dbc 1294 0e3c 7a42 babc 3618 11bd
000000d0: e45d 0ebd 7768 833c a600 dbbc 407f aa3c
000000e0: e136 ca3b 996a 93bb 0df1 c33c b86b 19bd
000000f0: 3c83 b73c d573 92bc c4bb 4bbc d42f fc3b
00000100: 9fb4 fdbc d9a3 b23a 26a2 043d 8f47 7d3c
00000110: b3d1 a5bc 67ab 8e3b bb29 a43c c0b3 873b
00000120: 594f 95bc 6c74 093c a4df 613c d429 9bbc
00000130: f353 e7bc 2356 873c 3d9f 2dbd f87f c4bc
00000140: 73a8 c4bc 887c bb3b e671 913c 614c febc
00000150: 5318 cbbc c8a6 fd3b 55d7 3abb 0862 d43a
00000160: 0dc8 debc 8926 8fbc 78cc 0ebd d405 7f3c
00000170: dfd5 a23c d4f4 d53b 9f67 6fbb 4313 d1bc
00000180: 2b81 913c 972d bebc 8874 28bd 6374 a9bc
00000190: ed31 533b 6140 edbc 5a7b fd3c 3c11 af3c
000001a0: 8ca3 eb39 33c0 9ebc 1523 cc3c b033 1939
000001b0: 194b 0bbd 10af 59bc 4713 7a3c 7d28 86bc
000001c0: d297 963c 9539 e13b b327 903c 890c 07bc
000001d0: 91bf 9fbb 7edd 8c3c b88e 98bc 6d98 9abc
000001e0: f390 a8bc b46c 5b3c cd4b dcbc 3598 86bc
000001f0: 7dc9 f1bb c77d 22bd 63af e93b e4ec f6bc
00000200: 34f3 a83c 158c 2cbb 1d1b ed3b 8119 2c3c
00000210: 0555 a63c 60d5 e3bc 730f 9a3c 32ca 61bc
00000220: 83a7 c33c e369 03bc 6842 0bbc 8aca 0abd
00000230: bc91 4abc 172b a4bb 4c42 cfbc 2f0a 16bc
00000240: 5777 18bd b4de d73c 00aa 81bb 5415 c73c
00000250: 887d 92bb ea31 debc 2f19 23bd f6af e43c
00000260: 8cab 24bd de22 3c3a 77e5 523c a56a 643c
00000270: 3ca0 8cbc d631 c53c d03a e5bc 6071 86bc
00000280: d0c8 a7bc 8761 ebbc 5b40 0c3b 5372 973c
00000290: 8dbf 8f3c 07d3 28bc d31b 98bc 61c1 a3bc
000002a0: 8bfd 6abc 4944 dabc 88c1 52bc 50e5 6cb8
000002b0: 3f58 173a cb7b 04bd 0388 e7bc 5eb4 793c
000002c0: dc52 a13c d2e1 043c 64d1 b03c ad69 c23c
000002d0: 2d57 c1bb 6d5d 5bbc adc4 773c 5ca3 13bc
000002e0: df19 0dbd ef07 943c 5f5b 28bd 6aa4 14bd
000002f0: b293 cd3c 4e7f de3c 4207 b1bc 12c6 b8bc
00000300: b219 92bc 4f28 6b3c 1680 cf3b 0c83 223c
00000310: ac44 b13b 09f0 b6bb c953 d9bb 7749 c5bb
00000320: f6f3 6bbc 8b56 b83b 8eee 773b c452 f2bb
00000330: 613b df3c 596b 4b3c 45e2 9fbc 3dfc e73c
00000340: f643 023d 6729 83ba 8374 073d 615f 9b3c
00000350: 9c82 a83c 7a6a 3d3c f963 9c3c 4a71 203c
00000360: a178 70bc b44c 163c ee05 c2bc 96b5 06bd
00000370: f053 b73c ff7b de3c e65c 46bc 34df ffbc
00000380: 6b46 1abd d663 34bc f246 b53c c02b 25bc
00000390: 45a7 bc3c cabb ee3b fd72 483b 015e 093d
000003a0: 958d 0abd c7fa cabc 137e 90bc 7c7d 933c
000003b0: a341 11bc 340c 04bc a158 1fbd a748 60bc
000003c0: 5eb7 36bc 86c5 db3c 0a0a f1b9 c4a3 acbc
000003d0: 1362 003d 571f bdbc b7b7 023d 1a3b 92bc
000003e0: 1683 4fbb cb21 a33c 703c 11bd 24f9 dfbc
000003f0: 12da 0cbd 2408 8b3c aa9f 39bc a16c 383c

cnn.2.bias f4 [32]
-0.040378116 -0.025523925 0.038840592 0.00041469318 -0.009980603 -0.02085819 0.010929117 -0.018444818
0.0013441572 -0.0045084236 0.015766026 6.736135e-05 0.0011075742 0.02743233 -0.02680967 -0.0262142
-0.008719686 0.033584546 -0.006190755 0.028340505 -0.027543064 -0.037993122 -0.0007957225 -0.019513544
-0.020601079 0.023690287 0.015626743 0.02316366 -0.028884476 0.0015380183 -0.012036676 -0.030496133
00000000: 8663 25bd 8d17 d1bc 5017 1f3d 2d6b d939
00000010: af85 23bc cbde aabc 0a10 333c 9619 97bc
00000020: 6e2e b03a 66bb 93bb c127 813c 5944 8d38
00000030: 062c 913a c4b9 e03c f49f dbbc 29bf d6bc
00000040: 04dd 0ebc f38f 093d d1db cabb 592a e83c
00000050: fea1 e1bc ad9e 1bbd 0898 50ba deda 9fbc
00000060: 98c3 a8bc 2212 c23c a803 803c b7c1 bd3c
00000070: 239f ecbc 5597 c93a 7a35 45bc 07d3 f9bc

cnn.6.weight f4 [64, 32, 3, 3]
-0.054073084 0.019284956 0.005378648 0.010767986 -0.025408527 0.0457014 -0.053246323 -0.02119469
-0.053528767 -0.030380681 -0.04479805 0.03137237 0.055687178 0.08150698 0.050304458 0.042160723
-0.030121312 -0.059289105 0.0024062265 0.0077535487 0.012725811 -0.045931716 0.02437733 0.0020820573
-0.07321089 0.011337449 0.0023859495 0.06802971 0.09002135 0.09541651 -0.017686166 -0.046446867
-0.03572603 -0.0076149455 -0.013009948 -0.074893914 0.03599038 0.036557544 0.024149131 -0.013198131
-0.04689345 -0.038435575 -0.04026276 -0.041486368 -0.0135462815 0.0011743652 -0.053734068 -0.062322214
0.0515884 0.010716019 -0.013703869 -0.039232824 -0.059637576 -0.062196437 -0.031912 -0.0065111136
-0.008751187 0.055964522 -0.036591783 -0.03980524 0.039195802 -0.0040294714 0.042665996 -0.0049320934
0.06338773 0.04234759 -0.059288774 -0.028404303 -0.06205306 -0.02390671 -0.09868643 -0.103988394
0.011281295 -0.044197574 -0.03655585 0.019165326 -0.033539273 0.050587356 0.035670508 0.0013021487
0.009384653 -0.012179654 -0.008856771 0.040593218 -0.040066563 0.01878758 0.053874988 -0.029261408
0.02119353 -0.03016162 -5.7663157e-05 0.06981636 0.050075423 0.055954512 0.013209032 0.07658976
0.010066382 0.0068640276 -0.009668209 0.084216535 0.09541631 0.0613251 0.040936373 -0.03167633
0.011363209 -0.093335494 0.009998323 -0.05663054 0.0019219797 0.009818001 0.07360756 -0.011612415
-0.04292978 -0.014353506 0.023301577 -0.05017343 0.0006817147 0.057875685 0.030084806 0.072273
0.05039863 0.004741048 -0.0016512272 0.034303468 -0.034970812 -0.03454887 0.024814142 0.028933948
0.019241845 0.01434377 0.0055221613 0.04052058 0.034105625 0.016567307 -0.023569219 -0.0341143
0.038897958 -0.01918848 -0.03850262 -0.044590887 0.039317876 0.003956974 0.03316722 0.07017256
0.0022861005 0.024876364 0.018892417 0.063003235 -0.073909655 -0.025840186 -0.040792756 -0.06944989
-0.1105638 -0.040765624 -0.06970064 -0.078389086 0.027833492 -0.024449231 0.027804902 0.015517481
0.01750856 0.06910714 -0.045880787 0.03238532 0.03606218 -0.008675412 -0.029087426 0.03541773
0.061595608 -0.030677631 -0.033430524 0.050882842 0.07430504 0.08289028 0.03227613 -0.0539898
-0.03355518 -0.03760636 -0.04887818 0.006332352 0.027149871 0.013036677 -0.0024197912 0.024192693
-0.020170016 -0.0049825786 -0.042399347 -0.0217487 0.014047326 0.044102874 -0.030978039 0.09117506
0.06722443 -0.04460458 -0.025708 -0.006258635 -0.03355411 -0.052240986 -0.0018808515 -0.01633225
-0.02429501 0.053956848 0.041523363 -0.0038039605 0.010129976 -0.015530159 0.046381123 -0.054204654
0.057879865 0.036908526 -0.042297125 -0.041106082 -0.05762967 0.031957164 -0.05035498 0.004803827
0.0058415523 0.048109245 0.03005022 0.050590586 0.03953048 -0.019564053 0.024845118 -0.005686869
-0.019098602 -0.045398798 -0.05122022 -0.09073607 0.048269577 0.043957558 -0.030101672 0.03300366
-0.020943867 0.04919633 -0.03186652 0.011461588 0.029344484 0.05645232 -0.022635307 -0.09741645
0.026499871 0.029995888 -0.019000527 -0.019271227 -0.02754765 0.029775782 -0.011148261 -0.00077460764
0.04270387 -0.0008214527 0.020157928 -0.047344513 0.046793412 0.12013534 0.025496764 0.010368561
00000000: bd7b 5dbd 7cfb 9d3c 5f3f b03b 356c 303c
00000010: 8b25 d0bc 6431 3b3d d118 5abd 7da0 adbc
00000020: fb40 5bbd e8e0 f8bc 297e 37bd 5080 003d
00000030: 3d18 643d 22ed a63d 0c0c 4e3d b9b0 2c3d
00000040: f8c0 f6bc 22d9 72bd c8b1 1d3b 7b11 fe3b
00000050: ec7f 503c e522 3cbd f7b2 c73c 2073 083b
00000060: 97ef 95bd b5c0 393c 975d 1c3b 2953 8b3d
00000070: 1d5d b83d bb69 c33d 94e2 90bc 123f 3ebd
00000080: 7555 12bd cb86 f9bb ad27 55bc fb61 99bd
00000090: a66a 133d 5dbd 153d 66d4 c53c f93c 58bc
000000a0: 5913 40bd 9f6e 1dbd 90ea 24bd 9ced 29bd
000000b0: 39f1 5dbc 28ed 993a 4118 5cbd 9445 7fbd
000000c0: 5c4e 533d 3e92 2f3c 3186 60bc 99b2 20bd
000000d0: 8846 74bd b1c1 7ebd 28b6 02bd 2e5b d5bb
000000e0: 2361 0fbc 0e3b 653d 44e1 15bd d20a 23bd
000000f0: c78b 203d a809 84bb 8ac2 2e3d 669d a1bb
00000100: 6dd1 813d ab74 2d3d c9d8 72bd 24b0 e8bc
00000110: 592b 7ebd 01d8 c3bc 1c1c cabd def7 d4bd
00000120: 2ed5 383c 8408 35bd 96bb 15bd 9a00 9d3c
00000130: 7a60 09bd b034 4f3d 3d1b 123d dcac aa3a
00000140: 16c2 193c 2c8d 47bc fd1b 11bc 1345 263d
00000150: d61c 24bd 69e8 993c 05ac 5c3d 9fb5 efbc
00000160: 0e9e ad3c 8015 f7bc 58db 71b8 e1fb 8e3d
00000170: e31b 4d3d 8f30 653d b26a 583c 18db 9c3d
00000180: 77ed 243c a3eb e03b 6867 1ebc b879 ac3d
00000190: a069 c33d 0730 7b3d e6ac 273d 0abf 01bd
000001a0: c12c 3a3c ae26 bfbd 02d0 233c 6df5 67bd
000001b0: f0ea fb3a aedb 203c 8fbf 963d 0042 3ebc
000001c0: 23d7 2fbd f82a 6bbc f3e2 be3c a882 4dbd
000001d0: 19b5 323a 0e0f 6d3d 6974 f63c de03 943d
000001e0: cb6e 4e3d cb5a 9b3b fe6d d8ba cb81 0c3d
000001f0: 8e3d 0fbd 1e83 0dbd 0747 cb3c e306 ed3c
00000200: 13a1 9d3c 2202 6b3c 3ff3 b43b e8f8 253d
00000210: 57b2 0b3d 29b8 873c 3c14 c1bc 70bb 0bbd
00000220: 7753 1f3d 2931 9dbc ecb4 1dbd efa4 36bd
00000230: c80b 213d 81a9 813b 5ada 073d a2b6 8f3d
00000240: 67d2 153b 84c9 cb3c 45c4 9a3c d707 813d
00000250: f25d 97bd ccae d3bc 4e16 27bd be3b 8ebd
00000260: 466f e2bd dbf9 26bd 36bf 8ebd 758a a0bd
00000270: 1003 e43c c149 c8bc 1bc7 e33c 083d 7e3c
00000280: 1d6e 8f3c 0b88 8d3d 7eed 3bbd 78a6 043d
00000290: f0b5 133d 5123 0ebc c148 eebc 2f12 113d
000002a0: ad4b 7c3d a84f fbbc 72ee 08bd 876a 503d
000002b0: 3e2d 983d 61c2 a93d fa33 043d 6924 5dbd
000002c0: 2871 09bd 2009 1abd 7d34 48bd 9e7f cf3b
000002d0: 6869 de3c c997 553c 5c95 1ebb c12f c63c
000002e0: 973b a5bc e644 a3bb f0aa 2dbd 542a b2bc
000002f0: c126 663c 37a5 343d a8c5 fdbc fdb9 ba3d
00000300: f6ac 893d 4bb3 36bd 9599 d2bc 3c15 cdbb
00000310: 0970 09bd a5fa 55bd e786 f6ba 36cb 85bc
00000320: 5406 c7bc db01 5d3d 6714 2a3d de4b 79bb
00000330: 33f8 253c 3572 7ebc 22fa 3d3d b305 5ebd
00000340: 7013 6d3d 652d 173d c03f 2dbd da5e 28bd
00000350: 170d 6cbd 84e5 023d 0641 4ebd 6c69 9d3b
00000360: 7e6a bf3b 330e 453d e12b f63c 1338 4f3d
00000370: b6ea 213d cb44 a0bc fd87 cb3c ea58 babb
00000380: ac74 9cbc 17f4 39bd 4bcc 51bd d5d3 b9bd
00000390: 52b6 453d d70c 343d c897 f6bc d92e 073d
000003a0: 7992 abbc 1782 493d 7886 02bd 62c9 3b3c
000003b0: d863 f03c 8c3a 673d ae6d b9bc 4782 c7bd
000003c0: 4216 d93c f0b9 f53c fea6 9bbc b1de 9dbc
000003d0: 9cab e1bc 57ec f33c 32a7 36bc 0a0f 4bba
000003e0: 41ea 2e3d c256 57ba 3d22 a53c 52ec 41bd
000003f0: 73aa 3f3d 8409 f63d 97de d03c e6e0 293c

cnn.6.bias f4 [64]
0.04301641 -0.0009628831 -0.041650932 0.008050218 -0.038339075 -0.019825703 -0.04701413 0.011602258
-0.03925504 -0.027359502 0.017415583 0.03816305 0.04117317 -0.017745975 0.024259651 0.034486756
-0.02185424 -0.018886827 0.020960692 -0.012302018 0.045353435 -0.003421867 -0.040790066 0.018118441
0.03193063 0.004460764 0.06832746 -0.028669223 0.027756425 -0.009312971 0.052467134 0.058066335
0.017320547 -0.00054286764 0.074910246 -0.00088115165 0.024052825 0.041094493 0.010399325 0.018052893
0.008794913 -0.034624588 -0.016585844 0.026625348 -0.055319965 -0.041197903 -0.052446537 0.031887222
-0.02493344 -0.012525729 0.012533961 0.06084522 0.059803717 -0.05108581 0.08927097 0.014676616
-0.017181605 -0.0026029416 0.003295551 0.023552975 -0.02159823 -0.017404538 -0.05695256 -0.007042381
00000000: fa31 303d fe69 7cba 2b9a 2abd 10e5 033c
00000010: 6f09 1dbd 8369 a2bc e391 40bd 6617 3e3c
00000020: e5c9 20bd 0921 e0bc 20ab 8e3c dc50 1c3d
00000030: 33a5 283d 0260 91bc 2dbc c63c fc41 0d3d
00000040: aa07 b3bc 8cb8 9abc c2b5 ab3c 678e 49bc
00000050: 86c4 393d 6741 60bb 7c13 27bd 206d 943c
00000060: b1c9 023d 9a2b 923b 44ef 8b3d b8db eabc
00000070: 7161 e33c 6e95 18bc c7e7 563d f7d6 6d3d
00000080: d2e3 8d3c 3b4f 0eba 8b6a 993d 16fd 66ba
00000090: 6e0a c53c b352 283d ee61 2a3c a9e3 933c
000000a0: 8a18 103c 83d2 0dbd 09df 87bc 671d da3c
000000b0: 3097 62bd 22bf 28bd 2ed2 56bd 2d9c 023d
000000c0: 3741 ccbc b738 4dbc 3e5b 4d3c d638 793d
000000d0: bef4 743d 5b3f 51bd b3d3 b63d 3076 703c
000000e0: 70c0 8cbc 1d96 2abb 2cfa 573b 2bf2 c03c
000000f0: c5ee b0bc f693 8ebc 1647 69bd c6c3 e6bb

cnn.8.weight f4 [64, 64, 3, 3]
-0.027394028 -0.03871539 -0.010058445 -0.030354757 -0.028201748 -0.013346434 -0.007949803 0.022354018
0.010253153 -0.00724329 0.030289276 0.013573752 -0.010247449 -0.039176103 -0.055241413 -0.0032867978
0.0010859693 0.0014420083 0.0046242746 0.047815908 -0.010829474 -0.031417865 0.0254182 0.011905985
-0.016240615 0.026507713 -0.014457361 0.005010549 -0.057604242 -0.04892839 0.011631562 -0.015611552
-0.06319369 0.025663607 -0.0130985845 -0.00072326616 0.011144987 -0.035164922 -0.0111359395 -0.05298387
0.0379099 0.020205315 0.011213529 0.01501525 0.032903492 -0.008811265 -0.032745197 -0.040459733
0.008761276 0.021198852 -0.0077175247 -0.055601634 -0.058657125 -0.020083498 0.048004325 -0.012764562
-0.056115426 -0.011035412 -0.016117007 -0.02234641 -0.0033677523 -0.0027584718 0.05694992 -0.034357723
0.01578768 -0.041298117 -0.050598122 -0.026913827 0.017409775 -0.01030026 0.0349613 0.030890098
-0.034956552 -0.006434767 -0.0077071385 -0.010837122 -0.008368867 0.0072659077 -0.058794565 0.025697768
-0.007952563 -0.024716495 -0.02796655 -0.025233077 0.013566452 0.02646686 -0.04344906 0.016985357
0.0252944 0.0386776 0.02070223 0.026987523 0.025856536 0.030195516 0.029173465 -0.022047643
-0.015464272 0.013758792 -0.03298912 0.027226513 0.014707182 0.024956916 -0.0044083013 -0.01267041
-0.015107039 -0.04850413 -0.062645555 0.013429445 -0.042187583 0.02460789 -0.007476315 -0.007302372
0.003076058 -0.012992129 -0.013569943 -0.03346923 -0.016338916 -0.037962977 -0.04521529 0.010288732
0.007834961 -0.022101294 0.042878676 0.030031964 -0.024105014 -0.033279933 -0.049786936 0.04669676
0.022605143 0.003474579 -0.0008500818 -0.029717848 0.030440416 0.01284278 -0.03846566 -0.06097876
0.048441365 -0.018978372 0.013590622 -0.033386037 0.00062008976 -0.034392457 -0.03700134 0.025780357
-0.028461434 -0.020111298 -0.009123791 -0.013742277 0.03798295 0.041398812 0.044803407 0.014821942
-0.008597236 -0.036531627 0.022504391 0.009843013 -0.03559406 0.018965686 0.030459004 0.02039845
0.036658794 -0.045190345 -0.00622596 -0.041833688 0.006105618 0.011703444 -0.044419374 -0.00060779235
0.0021555522 -0.02320535 -0.07021463 0.023126857 -0.034661368 -0.023616469 -0.027231859 -0.0074081896
-0.037891295 0.026602509 -0.016436307 0.027224336 -0.025911493 0.005283395 -0.05789073 -0.010840538
0.03943748 0.012965229 -0.0025412715 -0.038829673 -0.036949206 0.053689554 -0.013593535 0.02395434
0.031126183 -0.005439238 0.05292456 -0.010997644 0.061844867 -0.00875395 0.012514523 -0.017440211
-0.04127365 -0.03886652 -0.01595344 -0.020241389 -0.019416366 -0.033800844 -0.014185182 -0.033773616
0.010250521 -0.062212497 -0.046850085 0.0070095514 0.0011173557 0.020850725 -0.036934707 -0.017072028
0.024012681 -0.051348098 -0.05065508 -0.023806129 0.009969596 -0.0143750245 0.018994229 0.006801667
-0.0082434295 0.018224403 0.0028207889 0.04212718 -0.0026236714 0.032235358 -0.0068844967 0.031181445
0.012889396 -0.017364457 -0.0058308193 -0.033444438 -0.05002782 -0.04605938 -0.04978771 -0.010104575
-0.01453932 -0.037533592 -0.013055808 0.04789498 0.014185673 -0.01804022 -0.021270785 0.032231748
-0.026530623 0.002763517 -0.014131647 0.0445897 -0.01633912 0.032890122 -0.017082935 -0.039342638
00000000: 7169 e0bc 0794 1ebd 2dcc 24bc 8aaa f8bc
00000010: 5a07 e7bc 00ab 5abc e43f 02bc c61f b73c
00000020: d7fc 273c 1f59 edbb 3721 f83c 7164 5e3c
00000030: ebe4 27bc 1f77 20bd d244 62bd 5167 57bb
00000040: 1557 8e3a c501 bd3a 3a87 973b 9dda 433d
00000050: 1b6e 31bc 05b0 00bd d439 d03c 5211 433c
00000060: 0a0b 85bc b426 d93c 91de 6cbc 882f a43b
00000070: 6df2 6bbd 2369 48bd 4f92 3e3c 98c7 7fbc
00000080: b16b 81bd 7c3c d23c 729b 56bc 9299 3dba
00000090: 7799 363c 1809 10bd 8473 36bc 9d05 59bd
000000a0: 6947 1b3d 9e85 a53c f3b8 373c 8602 763c
000000b0: d0c5 063d 205d 10bc d41f 06bd 1bb9 25bd
000000c0: 748b 0f3c 37a9 ad3c 4ae3 fcbb 8abe 63bd
000000d0: 7442 70bd 2686 a4bc 2fa0 443d 7422 51bc
000000e0: 4ad9 65bd dfcd 34bc d007 84bc d20f b7bc
000000f0: 82b5 5cbb 7ac7 34bb 5244 693d afba 0cbd
00000100: 2a55 813c 3728 29bd fa3f 4fbd 637a dcbc
00000110: f29e 8e3c 6cc2 28bc 9533 0f3d 3b0d fd3c
00000120: 9a2e 0fbd bdda d2bb 2a8c fcbb 2f8e 31bc
00000130: 931d 09bc da16 ee3b 92d2 70bd 2084 d23c
00000140: 784b 02bc 3f7a cabc 1b1a e5bc 99b5 cebc
00000150: d345 5e3c 07d1 d83c a4f7 31bd e024 8b3c
00000160: 3436 cf3c 676c 1e3d b997 a93c f014 dd3c
00000170: 16d1 d33c 965c f73c 31fd ee3c 429d b4bc
00000180: dc5d 7dbc 8e6c 613c 991f 07bd 230a df3c
00000190: 64f6 703c 7272 cc3c 8373 90bb 8d97 4fbc
000001a0: 8483 77bc 44ac 46bd 504c 80bd 2d07 5c3c
000001b0: e3cc 2cbd 7c96 c93c e0fb f4bb bc48 efbb
000001c0: b197 493b f0dc 54bc 7754 5ebc 0817 09bd
000001d0: 31d9 85bc 117f 1bbd ab33 39bd 1292 283c
000001e0: 355e 003c c60d b5bc 8da1 2f3d 9805 f63c
000001f0: e177 c5bc 8a50 08bd 63ed 4bbd 1a45 3f3d
00000200: 6c2e b93c c3b5 633b 06d8 5eba d872 f3bc
00000210: 2e5e f93c 866a 523c 2b8e 1dbd ddc4 79bd
00000220: 746a 463d 8878 9bbc 33ab 5e3c ccbf 08bd
00000230: 858d 223a 1bdf 0cbd b88e 17bd 5431 d33c
00000240: f427 e9bc 73c0 a4bc f47b 15bc 4a27 61bc
00000250: 0394 1b3d cd91 293d c783 373d bbd7 723c
00000260: 6cdb 0cbc 30a2 15bd 215b b83c 9744 213c
00000270: 14cb 11bd ed5d 9b3c 2985 f93c a61a a73c
00000280: 8827 163d 8319 39bd 2303 ccbb cd59 2bbd
00000290: a311 c83b cdbf 3f3c 17f1 35bd 4154 1fba
000002a0: 2a44 0d3b 2519 bebc b0cc 8fbd 8974 bd3c
000002b0: 14f9 0dbd 5377 c1bc 5915 dfbc 66c0 f2bb
000002c0: e733 1bbd 81ed d93c 6fa5 86bc 9205 df3c
000002d0: 5744 d4bc 5420 ad3b d51e 6dbd 839c 31bc
000002e0: 3289 213d 1d6c 543c 768b 26bb dd0b 1fbd
000002f0: 0d58 17bd 94e9 5b3d 6bb7 5ebc e43b c43c
00000300: 56fc fe3c a33b b2bb 6cc7 583d 762f 34bc
00000310: 0b51 7d3d ba6c 0fbc b709 4d3c c6de 8ebc
00000320: 8f0e 29bd 8032 1fbd cab0 82bc 45d1 a5bc
00000330: 120f 9fbc c172 0abd f768 68bc 3456 0abd
00000340: cdf1 273c 88d2 7ebd e0e5 3fbd 61b0 e53b
00000350: 3c74 923a 24cf aa3c d948 17bd a3da 8bbc
00000360: 3eb6 c43c 6252 52bd b37b 4fbd 1205 c3bc
00000370: 8457 233c 3985 6bbc c999 9b3c 85e0 de3b
00000380: 730f 07bc 584b 953c fcdc 383b 8d8d 2c3d
00000390: e7f1 2bbb 3909 043d 5897 e1bb 3b70 ff3c
000003a0: 0c2e 533c e83f 8ebc 7510 bfbb 09fd 08bd
000003b0: f9e9 4cbd c3a8 3cbd 33ee 4bbd a98d 25bc
000003c0: 5436 6ebc d3bc 19bd 07e8 55bc 872d 443d
000003d0: 066b 683c 15c9 93bc 1240 aebc 7005 043d
000003e0: c056 d9bc 1f1c 353b 6c88 67bc b0a3 363d
000003f0: 9ed9 85bc cbb7 063d 83f1 8bbc bf25 21bd

cnn.8.bias f4 [64]
-0.021880584 -0.010375408 0.0269329 0.0030552368 -0.022824753 0.02786862 0.010240954 0.031721927
-0.01643734 0.020937318 -0.032453824 -0.012258698 0.013414517 0.02749046 -0.024131857 0.010992686
0.011818564 0.03065612 -0.033132173 0.008280001 -0.03122739 0.033017725 0.006926867 -0.057272233
-0.03801436 -0.016514612 0.03999224 -0.0040347623 -0.030528478 -0.02171099 -0.031577785 -0.02819935
-0.016705677 0.028390225 -0.029234331 0.047187194 0.021515492 0.010350533 0.021644836 0.029591313
-0.037898835 -0.03165126 0.016608205 -0.0029608991 0.049242873 -0.008918577 -0.041949265 0.011050209
-0.02765608 0.016428964 -0.01093864 -0.036733147 -0.007481937 -0.018523524 -0.040569536 -0.008421165
-0.033927765 0.013070073 0.012388265 -0.028920373 0.0020956565 0.043205038 -0.030885871 -0.010821045
00000000: e93e b3bc 9efd 29bc 63a2 dc3c 5e3a 483b
00000010: fafa babc bb4c e43c adc9 273c daee 013d
00000020: 9aa7 86bc bd84 ab3c 4dee 04bd b5d8 48bc
00000030: 90c8 5b3c ac33 e13c 2cb0 c5bc ab1a 343c
00000040: a6a2 413c 8b22 fb3c 9ab5 07bd d7a8 073c
00000050: 95d0 ffbc 983d 073d c6fa e23b 4a96 6abd
00000060: f2b4 1bbd a749 87bc e7ce 233d 0a36 84bb
00000070: dc16 fabc 3fdb b1bc b557 01bd 5302 e7bc
00000080: 58da 88bc 9e92 e83c d67c efbc 5c47 413d
00000090: 4241 b03c 4895 293c 8350 b13c 7b69 f23c
000000a0: cf3b 1bbd c0a4 01bd ee0d 883c a50b 42bb
000000b0: e5b2 493d 391f 12bc fed2 2bbd f00b 353c
000000c0: 018f e2bc 0996 863c fb37 33bc 7f75 16bd
000000d0: 092b f5bb a5be 97bc 3e2c 26bd edf8 09bc
000000e0: d7f7 0abd dc23 563c 26f8 4a3c 6bea ecbc
000000f0: 4857 093b c4f7 303d 5e04 fdbc c14a 31bc

classifier.0.weight f4 [256, 576]
-0.017015338 0.05884268 0.025968563 0.028979668 0.023478363 0.0305536 -0.010822387 0.013827598
0.036246985 0.0014891474 0.0036549938 -0.015994495 0.022964172 0.042077247 -0.027262473 0.07297919
0.111901574 -0.04932119 0.01932868 0.0012540446 -0.0010495394 -0.01759687 -0.0198819 -0.034527864
0.09398451 -0.034585122 -0.05522087 -0.013856155 0.015131435 -0.02176874 0.007687064 -0.053406026
-0.051505543 0.026400115 0.027333824 0.0199092 0.0005541273 0.061329912 0.03865203 0.07122506
0.015376072 -0.09369088 0.05878005 -0.01918983 -0.02704411 -0.008184604 -0.024840128 -0.028126381
0.07740004 -0.048821773 0.0030016736 0.0021531472 -0.06619068 -0.021632621 -0.05524117 -0.050261807
-0.034164213 -0.014212323 0.018775662 -0.0015980327 0.048697304 0.06087962 0.010352022 -0.05631369
-0.04948931 -0.025395526 -0.039064594 -0.007021929 -0.029493505 0.049568113 0.07513411 0.064026415
-0.019531848 -0.030195884 -0.0035155434 -0.00921647 -0.007880779 -0.0002574191 0.039364256 0.036745876
-0.021155398 -0.052034464 -0.01675818 0.024198841 0.015025023 -0.03498325 0.004444182 0.01385566
0.092111886 0.06474144 0.042612024 0.021698095 0.026374009 0.028521853 0.0049634613 -0.024945477
0.025037859 -0.06275669 0.02670147 0.012738606 -0.015194012 -0.020591568 -0.0058160927 0.045483273
-0.018366275 -0.04292639 -0.045325305 -0.030652126 0.012639559 0.045444988 -0.047001436 0.013724347
0.052951038 0.0395552 0.0056032054 0.05258763 -0.04544978 0.035971265 0.01662301 0.10085937
0.007001583 -0.05411916 0.033950422 -0.028996237 -0.015199529 -0.0067300107 0.01248882 0.051224772
0.079849966 -0.012305751 -0.023198336 0.050133202 0.012826127 0.05422838 -0.014552982 0.03050071
0.02363534 -0.012477996 0.029003816 0.017486582 0.02958926 -0.035955925 -0.05527758 0.0311887
0.009805879 0.00746135 0.0139662735 0.018796334 -0.017534072 0.004750673 0.024488905 -0.054531954
-0.03208467 -0.0064013945 0.010590602 -0.04256319 -0.006912777 0.016806746 0.05594324 -0.02111179
-0.0058190604 0.014035103 -0.0054865475 -0.024322234 -0.036800712 -0.03634633 -0.050609328 -0.009427015
0.00019521685 0.03121263 0.019549962 -0.02093832 0.028393025 0.029309 -0.0044911285 0.03860394
-0.023918211 0.08902186 0.009732498 -0.004291901 -0.049789954 -0.012128869 -0.0223872 -0.022505308
-0.016049726 -0.046977174 0.03933768 0.02525583 0.037241768 -0.046445824 0.031593516 0.021214917
-0.027596163 -0.04706454 0.030751478 -0.09472657 -0.08787698 0.04640265 0.0145898415 0.048155185
-0.0011599018 -0.006288683 0.019924877 -0.031245466 0.03393126 -0.018051252 -0.008930763 -0.071711525
-0.012326582 -0.04587606 0.017000835 -0.033981692 -0.0010893311 0.008897249 0.029433057 -0.016259816
-0.009974522 -0.043050025 0.010087829 -0.011955104 0.029113058 0.044207383 0.02493493 0.012415722
-0.043519273 -0.05631356 -0.051346686 -0.039074354 -0.04568512 0.001166966 0.05443805 -0.022987135
0.01681095 0.057814464 0.031982426 0.063907854 0.022495823 0.013704768 -0.052694794 -0.011460789
-0.049007792 -0.010660651 0.037002407 -0.024783546 0.02098927 -0.010007973 -0.07976809 0.026073545
0.023648556 -0.07369399 -0.014740932 -0.058723513 0.0020497483 0.0149484305 0.018401552 -0.024112735
00000000: c063 8bbc 0605 713d 06bc d43c c566 ed3c
00000010: b255 c03c 8b4b fa3c 6250 31bc 268d 623c
00000020: b877 143d 7f2f c33a 9f88 6f3b e306 83bc
00000030: 5c1f bc3c 3159 2c3d 8d55 dfbc 1d76 953d
00000040: a72c e53d 0405 4abd 2e57 9e3c c15e a43a
00000050: b390 89ba 5027 90bc 5edf a2bc 176d 0dbd
00000060: f37a c03d 21a9 0dbd 472f 62bd ed04 63bc
00000070: d7e9 773c 5b54 b2bc c4e3 fb3b 47c0 5abd
00000080: 7af7 52bd 0e45 d83c 2feb df3c 9e18 a33c
00000090: db42 113a 1335 7b3d 9751 1e3d 72de 913d
000000a0: eceb 7b3c 01e1 bfbd 5ac3 703d fe33 9dbc
000000b0: 9c8b ddbc b818 06bc 867d cbbc 4c69 e6bc
000000c0: ea83 9e3d 57f9 47bd bab7 443b d11b 0d3b
000000d0: fb8e 87bd e536 b1bc 9144 62bd 53df 4dbd
000000e0: c6ef 0bbd ceda 68bc 6bcf 993c 1475 d1ba
000000f0: d376 473d e95c 793d 879b 293c 2fa9 66bd
00000100: 4db5 4abd 470a d0bc 3202 20bd 3618 e6bb
00000110: 5d9c f1bc ef07 4b3d eadf 993d 4820 833d
00000120: 4101 a0bc 5c5d f7bc 0865 66bb ad00 17bc
00000130: 621e 01bc 35f6 86b9 6a3c 213d d882 163d
00000140: 164e adbc 1722 55bd 7348 89bc a63c c63c
00000150: 842b 763c 994a 0fbd 80a0 913b da02 633c
00000160: 28a5 bc3d 2997 843d f289 2e3d 34c0 b13c
00000170: 4e0e d83c a9a6 e93c 88a4 a23b 755a ccbc
00000180: 321c cd3c 9486 80bd 0bbd da3c 96b5 503c
00000190: 4ef0 78bc a6af a8bc ec94 bebb ab4c 3a3d
000001a0: df74 96bc 95d3 2fbd 07a7 39bd 2b1a fbbc
000001b0: 2716 4f3c 8624 3a3d 9484 40bd 15dc 603c
000001c0: 30e3 583d a204 223d 189b b73b 2066 573d
000001d0: 8c29 3abd 9b56 133d fb2c 883c 5b8f ce3d
000001e0: 896d e53b 0dac 5dbd 990f 0b3d 8489 edbc
000001f0: 7207 79bc 6c87 dcbb e89d 4c3c 11d1 513d
00000200: 6188 a33d 109e 49bc 700a bebc 7958 4d3d
00000210: ad24 523c 941e 5e3d a16f 6ebc a0dc f93c
00000220: e79e c13c 8270 4cbc 6999 ed3c 0540 8f3c
00000230: 2d65 f23c 8546 13bd be6a 62bd 727f ff3c
00000240: d6a8 203c 577e f43b ccd2 643c c5fa 993c
00000250: 9da3 8fbc 89ab 9b3b f59c c83c e65c 5fbd
00000260: 376b 03bd cac2 d1bb 3484 2d3c bd56 2ebd
00000270: 9484 e2bb 4dae 893c bd24 653d a2f2 acbc
00000280: d1ad bebb 7df3 653c 7fc8 b3bb 6c3f c7bc
00000290: 58bc 16bd e4df 14bd ba4b 4fbd c473 1abc
000002a0: 20b3 4c39 a1b1 ff3c 3e27 a03c d786 abbc
000002b0: 7d98 e83c 6e19 f03c 512a 93bb 2a1f 1e3d
000002c0: 20f0 c3bc 1851 b63d 0e75 1f3c 13a3 8cbb
000002d0: 8df0 4bbd 2ab8 46bc 5c65 b7bc 0d5d b8bc
000002e0: b77a 83bc 236b 40bd 8c20 213d 50e5 ce3c
000002f0: d38a 183d fa3d 3ebd 3468 013d e8ca ad3c
00000300: 5911 e2bc bfc6 40bd 86ea fb3c 0100 c2bd
00000310: d9f8 b3bd b510 3e3d 3b0a 6f3c 5f3e 453d
00000320: d907 98ba 4c11 cebb 7f39 a33c 7ef6 ffbc
00000330: 81fb 0a3d 38e0 93bc 5652 12bc 7edd 92bd
00000340: 6ff5 49bc 89e8 3bbd 5645 8b3c 6330 0bbd
00000350: e3c7 8eba c4c5 113c 981d f13c 4e33 85bc
00000360: 2d6c 23bc 3955 30bd 6c47 253c 57df 43bc
00000370: 827e ee3c cd12 353d 5744 cc3c 506b 4b3c
00000380: 4441 32bd 0ca9 66bd e750 52bd 6e0c 20bd
00000390: 5220 3bbd e2f4 983a 6ffa 5e3d 844f bcbc
000003a0: 1eb7 893c dcce 6c3d 0100 033d 1fe2 823d
000003b0: 2949 b83c f789 603c 7fd6 57bd 08c6 3bbc
000003c0: 65bc 48bd 03aa 2ebc d68f 173d dd06 cbbc
000003d0: b1f1 ab3c 7bf8 23bc 745d a3bd 3098 d53c
000003e0: 9eba c13c e0ec 96bd f383 71bc 1188 70bd
000003f0: 1255 063b 43ea 743c dabe 963c 1288 c5bc

classifier.0.bias f4 [256]
0.038621683 -0.00051160867 -0.00086121314 -0.04805385 0.032523274 0.022081368 0.014376852 -0.03547301
0.024486069 0.04357519 0.027448002 0.011704325 -0.019554934 0.03192261 -0.01938244 -0.041327897
0.019055896 0.029792277 0.018421497 0.016111402 0.03491432 0.015858656 -0.00058847776 -0.05673961
0.02024114 -0.02870102 0.023442248 0.004262595 0.0024945547 -0.03259057 0.034462042 -0.041776318
0.014767341 0.025746271 0.0025523123 0.051779978 0.0024737725 -0.0078918785 0.022881953 -0.024664138
0.022531506 -0.0041772965 -0.046903748 -0.014913706 -0.026516885 -0.06295776 0.006075406 0.0056212624
-0.028963372 0.0034752076 0.006638193 -0.02171159 -0.02094785 -0.024335222 0.0057774256 -0.03608138
0.035946447 -0.007881876 0.010691936 -0.027970046 0.018966964 0.026791468 -0.017273774 -0.026787583
-0.040345825 -0.008259107 0.015138435 0.017299028 0.0196469 0.0108298035 0.011275829 -0.05435196
0.041095316 -0.027800685 0.010373322 -0.012188699 0.0004968783 0.041394074 0.00028084836 0.031037085
0.020719549 0.0069365413 -0.02340082 -0.0072113182 -0.02349844 -0.01917716 0.024805183 0.009889355
0.038114272 -0.00079748384 0.012266432 0.027593097 -0.043127745 -0.04235097 -0.044825777 0.013372064
0.024719736 -0.06827186 -0.022252647 -0.01327669 -0.024605643 0.028316503 0.04924277 -0.011350332
-0.033005297 -0.028763574 -0.049346764 -0.010982944 0.015309058 -0.027934968 0.02453046 0.004565818
-0.021396136 0.047941927 -0.029635275 -0.008417889 -0.02839089 -0.0029968068 -0.0053446437 -0.039867688
-0.017297003 0.013255747 0.019886168 -0.0061782636 0.0066352417 -0.017068978 -0.020663252 -0.0014741871
-0.024754258 -0.026774978 0.022399971 -0.013772766 0.0070540057 -0.059889182 0.019503167 -0.021597365
0.05282201 -0.019895239 -0.0014214646 0.01755343 -0.012465833 -0.015102312 -0.0341 0.0319331
-0.008850033 0.01852656 -0.009249551 -0.039669022 -0.029947415 -0.034229085 0.050147347 -0.013096813
0.024402544 0.01081536 -0.009402798 -0.031091817 0.025334235 -0.028598605 -0.028782299 -0.0018827459
0.01367369 -0.0043932036 -0.0079854 0.03527614 -0.03295955 0.016369827 -0.014991994 0.03235816
0.004235638 0.03504783 -0.007408888 -0.038271785 0.013641658 0.0074791275 0.01884558 -0.012722081
0.01453287 0.014954812 -0.0070057763 0.0073502176 0.0069729392 -0.02371658 0.038976897 -0.018422233
0.0039600204 -0.031261172 -0.02444931 -0.012392185 0.03113248 0.034630556 0.010214864 -0.008354138
0.005321687 -0.027072273 -0.00082343083 0.04259206 -0.020849688 0.008829537 0.026470851 -0.04743509
-0.042133566 -0.044043962 -0.008451736 0.024605876 -0.032817096 0.046017427 -0.004181765 0.053707484
0.01433157 0.019426402 0.060263984 -0.030011492 0.014424826 -0.043325685 -0.028117603 0.044227835
-0.047056165 -0.029953748 0.04846341 0.025331018 -0.012020393 -0.023865392 -0.017288543 -0.010728098
-0.021728557 0.04076392 0.008613554 -0.02150191 0.008282085 -0.050309688 -0.0012811257 0.013868316
0.026692936 0.04176028 0.02830226 -0.008294545 0.04119305 0.04087202 0.039470844 -0.024103375
-0.03378371 -0.019731896 -0.026107756 -0.024109391 -0.03587566 0.026389426 0.0066937306 -0.008281203
0.0032695027 -0.008995563 0.025977992 0.0041559944 0.018107621 -0.022229949 0.0106051965 -0.044294037
00000000: c531 1e3d 7a1d 06ba 09c3 61ba 1dd4 44bd
00000010: 2037 053d fce3 b43c e38c 6b3c 264c 11bd
00000020: 0297 c83c e67b 323d a2da e03c 7fc3 3f3c
00000030: ab31 a0bc 48c1 023d ecc7 9ebc 7147 29bd
00000040: 1c1b 9c3c ef0e f43c aee8 963c 0ffc 833c
00000050: 5102 0f3d 03ea 813c 1344 1aba cb67 68bd
00000060: bfd0 a53c 671e ebbc f509 c03c 3dad 8b3b
00000070: af7b 233b b17d 05bd 1228 0d3d a51d 2bbd
00000080: b8f2 713c d8e9 d23c b244 273b 3e17 543d
00000090: 041f 223b f04c 01bc ef72 bb3c 720c cabc
000000a0: fe93 b83c b4e1 88bb 251e 40bd 9e58 74bc
000000b0: f039 d9bc 00f0 80bd 3314 c73b 9132 b83b
000000c0: 9844 edbc 4fc0 633b 3385 d93b 81dc b1bc
000000d0: d39a abbc a95a c7bc 8f50 bd3b 12ca 13bd
000000e0: 953c 133d fc22 01bc 3b2d 2f3c 7021 e5bc
000000f0: 9b60 9b3c c879 db3c bb81 8dbc a271 dbbc
00000100: aa41 25bd 3551 07bc 3307 783c b1b6 8d3c
00000110: 89f2 a03c 7d6f 313c 41be 383c 29a0 5ebd
00000120: 9053 283d 43be e3bc def4 293c 1cb3 47bc
00000130: f040 023a d58c 293d d43e 9339 7c41 fe3c
00000140: 0bbc a93c ed4b e33b 14b3 bfbc ec4c ecbb
00000150: cd7f c0bc 6b19 9dbc 3d34 cb3c f606 223c
00000160: b61d 1c3d 3c0e 51ba 25f9 483c eb0a e23c
00000170: b8a6 30bd 3678 2dbd 3c9b 37bd 8016 5b3c
00000180: 0b81 ca3c 1ed2 8bbd 2f4b b6bc 7986 59bc
00000190: c691 c9bc 03f8 e73c c9b2 493d bef6 39bc
000001a0: 9030 07bd 96a1 ebbc d51f 4abd cef1 33bc
000001b0: d8d2 7a3c e0d7 e4bc 1af4 c83c db9c 953b
000001c0: f346 afbc c15e 443d adc5 f2bc 2feb 09bc
000001d0: 0394 e8bc 1366 44bb 1f22 afbb 4d4c 23bd
000001e0: 72b2 8dbc a22e 593c 51e8 a23c 0873 cabb
000001f0: 716c d93b 3ed4 8bbc fb45 a9bc 8339 c1ba
00000200: 71c9 cabc 3357 dbbc 2580 b73c 2ba7 61bc
00000210: 4a25 e73b 5c4e 75bd 1bc5 9f3c f5ec b0bc
00000220: e45b 583d 57fb a2bc 7050 baba 36cc 8f3c
00000230: 7e3d 4cbc b06f 77bc 71ac 0bbd 48cc 023d
00000240: bbff 10bc 03c5 973c 6e8b 17bc fc7b 22bd
00000250: 4854 f5bc cc33 0cbd 4e67 4d3d 0494 56bc
00000260: d8e7 c73c e832 313c 310e 1abc 44b4 febc
00000270: be89 cf3c 9f47 eabc dbc8 ebbc 78c6 f6ba
00000280: 9d07 603c ddf4 8fbb 32d5 02bc b77d 103d
00000290: 9800 07bd 041a 863c fba0 75bc fd89 043d
000002a0: 1bcb 8a3b 508e 0f3d 42c6 f2bb e0c2 1cbd
000002b0: 4381 5f3c 7813 f53b 0c62 9a3c 4670 50bc
000002c0: 461b 6e3c 0705 753c b690 e5bb 18da f03b
000002d0: 417d e43b 4649 c2bc 3da6 1f3d 39ea 96bc
000002e0: 0fc3 813b b70b 00bd eb49 c8bc 9708 4bbc
000002f0: 8b09 ff3c c5d8 0d3d 3f5c 273c cbdf 08bc
00000300: 8c61 ae3b acc6 ddbc 82db 57ba 0375 2e3d
00000310: f7cc aabc c3a9 103c 66d9 d83c 4c4b 42bd
00000320: 3f94 2cbd 7167 34bd 2679 0abc 4392 c93c
00000330: 386b 06bd c57c 3c3d 3007 89bb 61fc 5b3d
00000340: f6ce 6a3c 1e24 9f3c 5ed7 763d a9da f5bc
00000350: 1b56 6c3c 4676 31bd e356 e6bc 3f28 353d
00000360: f7bd 40bd 9061 f5bc 9281 463d ff82 cf3c
00000370: 2ff1 44bc 5b81 c3bc b4a0 8dbc e8c4 2fbc
00000380: 1600 b2bc 11f8 263d dd1f 0d3c c624 b0bc
00000390: 95b1 073c 8811 4ebd 72eb a7ba ef37 633c
000003a0: 25ab da3c d40c 2b3d 24da e73c d8e5 07bc
000003b0: 0bba 283d 6b69 273d 2eac 213d 7174 c5bc
000003c0: ca60 0abd c9a4 a1bc efdf d5bc 0f81 c5bc
000003d0: 5bf2 12bd a32e d83c 1557 db3b e2ad 07bc
000003e0: 2745 563b 2062 13bc cccf d43c 022f 883b
000003f0: 6f56 943c 951b b6bc 6bc1 2d3c aa6d 35bd

classifier.2.weight f4 [10, 256]
0.063683726 -0.09150268 0.018030554 0.06398531 0.05297243 -0.057086308 -0.09567072 -0.005572345
-0.02574643 0.020269183 -0.12668405 0.042304408 0.07431428 0.010706165 0.013631404 -0.036317308
-0.017144313 -0.039704513 0.06314879 -0.054962467 -0.08661488 -0.00034517056 -0.016444588 -0.038608287
0.04643198 -0.096614406 -0.041857872 -0.06811858 0.037886992 0.09843053 -0.01937236 0.06301964
-0.0030723051 -0.03483525 -0.09360923 -0.050957672 0.055929255 0.08482666 -0.048109494 0.034412112
-0.04892743 0.11590413 0.05285146 -0.03162766 -0.05236206 0.07445913 0.021201812 -0.038408954
0.038139574 0.050684564 0.04972898 0.0915969 -0.043463703 -0.0086970385 0.055087827 0.090786554
-0.018794933 0.03310859 0.05926172 0.0062781232 0.0017942385 -0.020387858 -0.070266455 -0.052656353
0.041819856 0.018938247 -0.02590706 0.028068682 0.040667396 0.09856896 -0.031979855 -0.04298469
-0.053671263 0.08040831 0.005311971 0.040616166 0.04995848 0.07306641 0.032929853 0.014704096
-0.06575499 0.012913677 -0.07495277 -0.043185666 -0.07049746 -0.051037356 -0.0190754 -0.10768754
0.10238603 -0.02856828 -0.0047839927 0.059473928 0.06147603 -0.005782151 0.043094337 -0.051963083
0.04092176 0.035093855 -0.10178639 -0.01850723 0.021429168 0.069553986 -0.008233215 0.053608432
-0.033827852 0.07648046 -0.004421834 0.013462544 0.07554093 -0.027937915 0.036785055 -0.03521942
0.06839237 -0.050308034 0.032871228 -0.1095325 -0.031179592 0.04388717 0.077562764 0.048662584
-0.029979851 0.040233556 -0.05737599 0.03388181 0.059465423 -0.09184049 0.013511064 0.073940694
-0.068264425 -0.094555914 -0.0023610252 -0.004072109 0.029252427 -0.05626803 0.026710255 -0.073158786
-0.036764394 0.09279906 0.024619851 0.13231543 -0.014873378 -0.0414145 0.074106745 -0.07117921
0.053836692 -0.0030799438 0.03104827 0.021775408 0.018526336 -0.049981397 -0.05981482 -0.0533101
0.06174761 -0.032412473 0.020171616 0.063819565 0.09859714 -0.01949306 -0.0544427 -0.039256282
0.010397563 -0.12741642 0.034485243 0.04033261 -0.030657249 0.013446118 0.0793188 -0.061741214
-0.0098631345 0.0872567 -0.020903211 -0.0071207737 0.049011756 0.074661836 0.0031672537 0.039268795
-0.064984955 -0.0268377 0.07439763 0.038681347 0.06775787 0.008252918 -0.060449164 0.016556244
-0.042099286 0.076141946 0.07707224 0.029449286 -0.049473125 -0.084512584 -0.030773848 -0.017827468
0.012096966 0.018170966 0.121581234 -0.042205494 -0.028953865 -0.09432936 -0.013894505 0.03061397
0.017114358 -0.011031799 -0.059540045 -0.02672114 0.10239405 -0.008210006 0.008280027 -0.037303768
-0.076138206 0.074570656 -0.032179765 -0.02965276 0.047913175 0.042941898 0.027903568 -0.0659142
0.01912077 -0.077808976 0.06680442 -0.048848316 0.062301587 0.0041377144 -0.028830219 0.034247212
0.005867639 0.02077983 -0.038177617 0.08575358 0.057020128 -0.007909603 -0.0028215742 0.09466206
-0.00231611 -0.007493088 0.0738164 -0.05631441 0.05477514 -0.04561848 -0.044057567 0.06546594
0.04031298 -0.032496117 -0.026278561 0.021397963 -0.085498676 -0.06612106 0.046989247 -0.05567089
-0.09704906 0.04692719 0.11146604 -0.004992287 -0.04240323 -0.021927433 0.013163296 0.056665756
00000000: 9d6c 823d c265 bbbd d0b4 933c bb0a 833d
00000010: 9ef9 583d 55d3 69bd 03ef c3bd 3898 b6bb
00000020: 2dea d2bc 8f0b a63c 77b9 01be 6347 2d3d
00000030: 1632 983d e968 2f3c 4156 5f3c 75c1 14bd
00000040: 3b72 8cbc 33a1 22bd 2754 813d 5320 61bd
00000050: 2463 b1bd 02f8 b4b9 cdb6 86bc b923 1ebd
00000060: 762f 3e3d c6dd c5bd 2973 2bbd c181 8bbd
00000070: 642f 1b3d f295 c93d c9b2 9ebc 7110 813d
00000080: ba58 49bb 68af 0ebd 32b6 bfbd feb8 50bd
00000090: 1316 653d 9ab9 ad3d 760e 45bd b7f3 0c3d
000000a0: 2168 48bd 255f ed3d c67a 583d 018c 01bd
000000b0: 9979 56bd 077e 983d 6caf ad3c b552 1dbd
000000c0: 3e38 1c3d 9e9a 4f3d 9db0 4b3d 2897 bb3d
000000d0: ff06 32bd 067e 0ebc c6a3 613d 4dee b93d
000000e0: d5f7 99bc df9c 073d 6bbc 723d b7b8 cd3b
000000f0: a72c eb3a 7004 a7bc dce7 8fbd 30ae 57bd
00000100: 4c4b 2b3d 6224 9b3c 0b3b d4bc 4bf0 e53c
00000110: db92 263d 86de c93d 4ffd 02bd b710 30bd
00000120: 66d6 5bbd 1dad a43d 0b10 ae3b 235d 263d
00000130: 43a1 4c3d d8a3 953d 74e1 063d 73e9 703c
00000140: 8daa 86bd e393 533c d680 99bd 74e3 30bd
00000150: f960 90bd 8c0c 51bd 0344 9cbc 498b dcbd
00000160: c4af d13d 0708 eabc 0ac3 9cbb ef9a 733d
00000170: 4ace 7b3d 3378 bdbb b083 303d 3ed7 54bd
00000180: 939d 273d 93be 0f3d 6275 d0bd 799c 97bc
00000190: 398c af3c 5272 8e3d 9be4 06bc 8494 5b3d
000001a0: 138f 0abd caa1 9c3d 08e5 90bb 0192 5c3c
000001b0: 34b5 9a3d 0ede e4bc edab 163d 3d42 10bd
000001c0: 4d11 8c3d cc0f 4ebd fba3 063d 9352 e0bd
000001d0: 586c ffbc 08c3 333d 3ad9 9e3d 6b52 473d
000001e0: 4e98 f5bc f1cb 243d 1603 6bbd a7c7 0a3d
000001f0: 0492 733d de16 bcbd 835d 5d3c 386e 973d
00000200: 38ce 8bbd 88a6 c1bd 6ebb 1abb 536f 85bb
00000210: c9a2 ef3c 4e79 66bd 77cf da3c 46d4 95bd
00000220: 4396 16bd 6f0d be3d 92af c93c b27d 073e
00000230: 78af 73bc 40a2 29bd 47c5 973d 68c6 91bd
00000240: dd83 5c3d e2d8 49bb f158 fe3c 5762 b23c
00000250: 8bc4 973c 4bb9 4cbd 6200 75bd b15b 5abd
00000260: 10eb 7c3d f1c2 04bd f23e a53c d5b3 823d
00000270: 4ced c93d e9af 9fbc 4fff 5ebd 32cb 20bd
00000280: 8a5a 2a3c 7379 02be 6640 0d3d cf33 253d
00000290: e924 fbbc 1b4d 5c3c e571 a23d 5be4 7cbd
000002a0: fc98 21bc a4b3 b23d 363d abbc 6155 e9bb
000002b0: 8dc0 483d 4ee8 983d b391 4f3b 51d8 203d
000002c0: d516 85bd bcda dbbc c95d 983d 5570 1e3d
000002d0: a3c4 8a3d 3f37 073c 8b99 77bd f6a0 873c
000002e0: 4d70 2cbd 4ff0 9b3d 0dd8 9d3d a13f f13c
000002f0: 55a4 4abd ef14 adbd 7019 fcbc e90a 92bc
00000300: 5a32 463c 47db 943c 95ff f83d abdf 2cbd
00000310: a830 edbc c02f c1bd c7a5 63bc 26ca fa3c
00000320: 6933 8c3c b8be 34bc 43e0 73bd 4be6 dabc
00000330: f9b3 d13d 4383 06bc f3a8 073c d6cb 18bd
00000340: 59ee 9bbd 80b8 983d eece 03bd 58ea f2bc
00000350: 9b40 443d d8e3 2f3d 0696 e43c 06fe 86bd
00000360: 29a3 9c3c 505a 9fbd c1d0 883d 2c15 48bd
00000370: f32f 7f3d aa95 873b 5a2d ecbc ce46 0c3d
00000380: 5345 c03b 763a aa3c 2260 1cbd 939f af3d
00000390: f08d 693d 4897 01bc 29ea 38bb 2fde c13d
000003a0: e1c9 17bb 9488 f5bb 0d2d 973d f0a9 66bd
000003b0: e65b 603d 71da 3abd b575 34bd 0213 863d
000003c0: 391f 253d a61a 05bd 2346 d7bc c84a af3c
000003d0: ee19 afbd 7a6a 87bd cc77 403d 2907 64bd
000003e0: a8c1 c6bd ba36 403d 4f48 e43d 5796 a3bb
000003f0: 02af 2dbd 29a1 b3bc ddaa 573c 5a1a 683d

classifier.2.bias f4 [10]
-0.00037020782 -0.038274392 0.040260576 0.012749502 0.019766334 0.010769183 -0.053555887 -0.011871708
0.05315129 -0.011628775
00000000: 7418 c2b9 9cc5 1cbd 46e8 243d 4ae3 503c
00000010: 02ed a13c 3a71 303c 6b5d 5bbd 8d81 42bc
00000020: 2bb5 593d 9e86 3ebc
